srim-sbi/data/saved_models/trained_posterior_mnpe.pt (torch, 283254 bytes, 64 tensors)

low f4 [2]
00000000: cdcc cc3d 0000 0000
0.1 0.0

high f4 [2]
00000000: 0000 c842 0000 803f
100.0 1.0

weight f4 [50, 50]
00000000: 9877 ff3d ef28 6b3d 769b e1bd a541 5f3d
00000010: 3b1b 153d 6b2c cf3d 5d81 923d 39bb 42bc
00000020: dd7b 1cbe 72dd f53d e851 b6bb 6622 b23d
00000030: 2c09 ac3d 4e47 9bbd db1b 363c e0d2 aebd
00000040: d938 83bd e259 603b e9f7 80bd 59d6 6bbd
00000050: 36a0 9e3d 5fd4 ed3d 5361 023d af9e 443d
00000060: 477a af3d e7a7 b93d d32f 5e3d 1e28 f63c
00000070: 1f55 bbba c170 933d a538 f9bd 72dd 923c
00000080: 5f92 32be 8644 023e efd9 81bc ddd9 e23c
00000090: 01a3 b5bd e36a 883d 8363 483d eecc 40bd
000000a0: cd3d f7bd 0292 b53d f104 fbbb 1e10 873d
000000b0: 7825 a93c 47af 00bd 150d 98bb 5056 6f3c
000000c0: 0f14 4c3d 39b3 09be 13c7 24bd 6267 a1bd
000000d0: 8523 683d 0a28 113e 053e 13be 4a7d 45bd
000000e0: 21dc b43d 1149 9cbd 9e65 b2bd a458 353e
000000f0: ed18 97bd 9ac7 07be f29f 313d 4cd2 113d
00000100: 6587 3abd 573e 83bc a744 b6bd a48d aabb
00000110: 63a3 a13d 5ccf f8bd bba0 033e 4043 99bd
00000120: dfad 903d 0e23 a03c 840a eabd 171f 45bd
00000130: 5dff 8c3d 2bab c5bc 597c c13d 6f13 64bd
00000140: 1890 a53d b990 4a3d 1697 06be 0f84 333e
00000150: f887 c73d 6af9 083e f51d ea3d f17e d63d
00000160: a79e 9abc a434 f43d 8cfc c1bd e157 0d3e
00000170: b029 e93c 47b1 e73d 94d1 afbd cd5e 383d
00000180: 3c6d 063e d321 043e bd13 d4bd 56cb de3d
00000190: 8484 093d 4c12 a53d 3ef1 d63b 6987 963d
000001a0: e437 aabd 9fee 133d 64fb 803d f009 04be
000001b0: 8684 ccbd 1a9f 0c3e 67a6 abbd 1ac8 16bd
000001c0: cf79 b93d 5569 183e eb48 adba 580b adbd
000001d0: 0df5 8f3d 836c 763d d838 84bd a684 80bd
000001e0: fde7 89bc 8aad 273d f777 da3d 5275 f5bc
000001f0: 038e 8b3c dd51 88bd fe52 0a3e b8fb 4c3d
00000200: 953e 9b3d 7a77 ff3c ab48 b83d 5cd4 c6bc
00000210: e24a c4bd 786a 78bd ea66 0e3e d621 903d
00000220: f3bd d53d 8a1d cb3d d780 c9bd d48e 713d
00000230: aa5b 9dbd 648c d9bd eb37 413d 6b69 063e
00000240: def8 253e c8fa 113e 62b5 23bd 35bd 98bc
00000250: f37a 203e 9f1a a43c 96c3 d43d 7a31 d9bd
00000260: 2b01 3ebd 12f6 ab3d 504c 2e3d e8f2 a43d
00000270: 1381 a53d 8d32 cc3d 9126 b3bc 5515 2c3d
00000280: 13d3 9ebd 3480 f13d 5333 f43d aca4 beba
00000290: 6b91 35bd c014 63bc a3d5 083e 9dbd 293d
000002a0: 3811 d53d 3ac6 f6bd 13a5 e2bd cdbe 6d3d
000002b0: 60a5 95bd 3caf 423d c9de 0d3e b38e 093e
000002c0: 56d0 ea3c a589 713d bb27 033e 152d 6f3d
000002d0: 40e3 c0bd 293d 183e 2eeb 9e3d 93d8 5f3e
000002e0: d2bb 1a3e 6e9e abbd f832 8f3d 732f 2cbd
000002f0: 6c1c fbbd 5702 d4bd 4b60 e73d c76f da3d
00000300: 60a0 8d3d d1f6 63bd cd40 d13d d900 913c
00000310: e569 ad3d 825c d4bd 46db 1e3d 11f7 0f3d
00000320: 4cf8 8dbd 7e97 03be a28b a33b 35f2 f43d
00000330: 28c1 e53d 4e35 01be cf24 d73d b83b 19bc
00000340: 9953 623d 19ab 00be bf79 bb3d 85b5 693d
00000350: ff48 f83d 7062 213d 6f0a 4ebd b135 6cbd
00000360: 8176 ba3d ff19 cebd c961 963d b3d2 973d
00000370: ab0d fb3d 7bda b53b e0a9 90bd feff a3bd
00000380: d1d7 4abd 8e38 933d 6923 853d 6c59 a43d
00000390: 7d61 11be ff1b a73c 90a6 fa3c a7a6 9c3d
000003a0: ec26 8abd 767e ebbb 1c26 283e ae0e 4d3d
000003b0: 841c 233e b0b5 a6bd 21dc 933b 0a98 c63b
000003c0: 0a43 d6bd a704 b03d 1e87 d7bd bd6d e3bc
000003d0: 79dd 8b3d 965b 5ebd b451 0ebb 8f52 b83c
000003e0: a13a a4bc 4d79 2fbc db0a e3bb f3cb e7bd
000003f0: 0ae8 aabd 92a6 163d 6b8c de3d 794f debd
0.124739826 0.057412084 -0.1101598 0.054505963 0.036402922 0.10115894 0.0715358 -0.011885458
-0.15281625 0.12005128 -0.005563963 0.08697967 0.08400187 -0.0758196 0.01111504 -0.08536315
-0.06407327 0.0034233262 -0.06297285 -0.057577465 0.077454016 0.11612772 0.031831097 0.048002895
0.085682444 0.09065228 0.054244827 0.030048426 -0.0014292336 0.071992405 -0.12169007 0.017927859
-0.17438649 0.12721452 -0.01585099 0.027691776 -0.08868981 0.06661012 0.048923027 -0.047070436
-0.120723344 0.088657394 -0.007660501 0.06594871 0.02064775 -0.031417158 -0.0046402314 0.014607981
0.049823817 -0.13447274 -0.040228914 -0.07881047 0.0566745 0.1417543 -0.14379127 -0.048215188
0.08831049 -0.07631124 -0.08710788 0.17709595 -0.07377801 -0.13259736 0.043365426 0.035600945
-0.04553928 -0.016020937 -0.08899813 -0.005204873 0.07892492 -0.12148926 0.12854283 -0.0748353
0.07064413 0.019547965 -0.11427787 -0.048125353 0.06884644 -0.02412947 0.094475456 -0.055682596
0.08084124 0.049454425 -0.13143572 0.17530845 0.09742731 0.13376394 0.11431495 0.10473431
-0.01887448 0.11924103 -0.094719976 0.13803054 0.028462261 0.1131311 -0.08584896 0.045012284
0.13127607 0.12903528 -0.10355327 0.10878627 0.033573642 0.080601305 0.00655952 0.07350046
-0.083114415 0.03611624 0.06297949 -0.12894416 -0.09986214 0.13732567 -0.08381348 -0.036811925
0.09056436 0.14883931 -0.0013220584 -0.08449429 0.070291616 0.06016208 -0.064561546 -0.06275301
-0.016834253 0.040936984 0.10667413 -0.02996317 0.01703549 -0.06656239 0.13508222 0.050044745
0.07580296 0.0311849 0.08998235 -0.024271183 -0.09584595 -0.06064841 0.13906446 0.07037704
0.104366206 0.099177435 -0.098390274 0.058974102 -0.07683499 -0.106224805 0.04717247 0.13126151
0.16208217 0.14255822 -0.039967902 -0.018644908 0.15671901 0.020032225 0.103888676 -0.1060514
-0.046387833 0.083965436 0.042553246 0.08054143 0.080812596 0.09970579 -0.021868976 0.04201253
-0.07755103 0.11792031 0.11923852 -0.0014544926 -0.044328135 -0.013859928 0.13362746 0.041440595
0.10403675 -0.120495275 -0.11066642 0.05804329 -0.073069334 0.047530398 0.13854517 0.13433342
0.028663795 0.05896916 0.12808125 0.058392603 -0.094183445 0.14867081 0.07759701 0.2185996
0.1511071 -0.083798274 0.069921434 -0.04203744 -0.122612804 -0.10352009 0.11297663 0.10665851
0.06915355 -0.055655304 0.10217438 0.0177006 0.084674634 -0.10369207 0.038783334 0.03514773
-0.069321245 -0.12850758 0.0049910108 0.1196026 0.11218482 -0.1261799 0.105050676 -0.009352617
0.055255506 -0.12565269 0.091540806 0.057057876 0.12123298 0.039400518 -0.05030292 -0.05766839
0.09104634 -0.10063552 0.0734287 0.074132346 0.12258466 0.0055497265 -0.07063651 -0.08007811
-0.049522225 0.07188521 0.065008946 0.08024868 -0.14197345 0.020399092 0.030597001 0.07648974
-0.06745705 -0.007186706 0.16420788 0.050062828 0.15928847 -0.08140123 0.0045123254 0.006060605
-0.104620054 0.08594637 -0.105238184 -0.027762288 0.06829352 -0.054286562 -0.002171618 0.022500305
-0.020047488 -0.010710073 -0.0069287843 -0.11318197 -0.08345039 0.036779948 0.10866626 -0.10855002

bias f4 [50]
00000000: 2f21 2d3c ff99 efbd adc0 9ebc 1873 febd
00000010: 25bb e43c 46be 243e bdac cbbd c16e 4c3d
00000020: fe42 4c3d cbda babd 5915 26bd b02e ff3d
00000030: ab0a f43d fc01 2abd d335 1f3c fd14 793c
00000040: fb9f c63d 9cc0 0ebc f8a0 c63d 8f3b f6bd
00000050: 482c dcbd 3e84 723c cb84 0bbd ef17 93bc
00000060: 8099 38bd ff3e 9fbd 53f0 bb3d a832 8cbd
00000070: a8ae e93d 89b0 69bd d293 01be 56ae 223d
00000080: 4dd6 ce3d a5bc df3d 6e0c dcbd 6a43 f33d
00000090: d259 083c 6312 f23d 15f5 ea3d 3361 dd3d
000000a0: 59b6 a33d ae78 4bbd 8b67 ffbb 8d41 8bbd
000000b0: 847e 3c3c dfa7 883d f086 f3bd a629 a9bd
000000c0: e879 fa3d 28d2 0ebd
0.010566994 -0.11699294 -0.019378984 -0.12424296 0.027921269 0.16088209 -0.099450566 0.04991031
0.049868576 -0.09123763 -0.040547702 0.12460077 0.11916097 -0.0415058 0.009717423 0.015202758
0.096984826 -0.008712914 0.09698671 -0.12023079 -0.107506335 0.014802037 -0.034062188 -0.017955748
-0.045068264 -0.077756874 0.091766976 -0.068455994 0.11410266 -0.057053123 -0.12654045 0.03971704
0.100994684 0.10924653 -0.10744558 0.118780926 0.008322196 0.11819913 0.11472527 0.10809555
0.079937644 -0.049675636 -0.0077943257 -0.06799612 0.011504773 0.06672644 -0.11890972 -0.08259897
0.12230283 -0.03486839

weight f4 [50, 50]
00000000: fa0b d3bc 4952 9a3d cb47 9e3d 0eaa 183e
00000010: a75a 863d 7eec d83b 0cd3 8cbd d33f e2bb
00000020: 9ba9 0fbd 376d f93d a1f8 963d 73d8 01be
00000030: 9339 ccbd 175d 11bd ae83 4e3c 0a68 0b3c
00000040: 7804 6b3c 2410 bebd 9112 81bd f1cf 62bd
00000050: 7db3 1abe f3e1 1fbe 520c f03d e93a 06be
00000060: 4243 2d3d 4d0b c1bd defc af3d 6f05 94bd
00000070: 0dcc b13c 5c36 b7bc f70e f63d f708 3dbd
00000080: 6a6a f53c 9558 c6bc 9d26 5bbd b3d9 153d
00000090: 5c81 c53d 89ce 9fbd 1623 94bd 7b4d cdbd
000000a0: e079 373d 96e2 8d3d 5686 dcbd 07b1 16bd
000000b0: ce5d 34bd c5cc 17be efb4 d53d 555e 933d
000000c0: ea53 163e 8c41 00be 7380 f5bb b6bc 283d
000000d0: e7c1 7c3d 6fb7 2b3e 20cb df3d d3bd 85bd
000000e0: fbd0 53bc ab04 ab3c 9fb3 b53d d820 993d
000000f0: ee5a 4b3d c7ba 72bd 0606 3dbe 1e92 a6bd
00000100: e616 493e cc34 043d 6dd2 843d 43a2 58bd
00000110: 1b45 783c 5b73 033e 1bb8 1dbd 8c7c cabd
00000120: 18cc 2d3e b228 f0bd b103 f43d 6715 f7bc
00000130: 9941 9c3c 1148 c0bd c063 d0bd 9069 2f3e
00000140: 8261 9dbd ae0c 6c3a e29b f9bb 299a 833d
00000150: fa5b ad3c d684 a0bd f110 aebd 0060 12be
00000160: c0c9 8c3d 2fb5 003e 5f6f c0bd 91c4 8d3d
00000170: e17c 673d 6e9d eabd 6f7c a2bd 6cb2 ecbb
00000180: da57 19bc 9be5 2f3e ee8d a7bb 5989 9dbd
00000190: fd2b debc df1a ab3d 1dc3 0bbe 2c94 abbc
000001a0: 0d0a 39bd 3ce2 ae3d 5093 07be e53e 8b3c
000001b0: 1fdb df3d 6ece 07bd beff 133e 18cf 1b3c
000001c0: 4448 c5bc c713 753d 69c0 02bd de8d 2fbe
000001d0: c798 15be f07f 143d 0b69 053d 7dee dabd
000001e0: 2d93 623c e1f5 cbbd 4935 403d 28cb 1c3e
000001f0: 0929 53bd 2f5d 8c3d ba66 f6bb 1603 ab3c
00000200: 5f86 21be 13d8 d6bc 1784 573d c079 0dbe
00000210: 286a 2c3a 3de3 c6bd 938b abbd f0d3 e3bc
00000220: 3e64 813d bdad dd3d 9901 06be 0cf5 20bc
00000230: 23ce 1ab8 fe8f d9bd 7a2b 023e 7ad2 91b9
00000240: 4a76 643d c3d4 733d 0e95 013e a6d2 a53c
00000250: f392 223d 7bd9 90bd c2d0 8e3d df1e 9b3d
00000260: 1199 873d 4d6d fe3c 2c37 123d 9c99 cdbd
00000270: 0f39 5e3d ff36 22be 201e ccbc 41ee e7bc
00000280: ac17 f3bd f51f 203d e32b 90bd 31fd 613d
00000290: 3f72 af3d 04c1 ab3c fc65 22bd 4c04 a4bc
000002a0: 2f1b 1c3e 25ac 863d aed2 ad3c e7db e63d
000002b0: 4b44 2d3d 1371 1dbd ea2d 38bd bd49 ba3d
000002c0: 0bca 173e 84c0 a1bb 81d8 1c3e 255e 1dbe
000002d0: eb18 ca3c ef47 433c 6d7d 563d 535d 043e
000002e0: 1a6c 2db9 8c8e 0fbc 3eb1 03bd 792b d8bd
000002f0: dbde b43d e6ff f6bd 7e42 953d 71b9 d13d
00000300: 0237 53bd c3e0 693d 0ed5 0c3d e240 953d
00000310: f03c 403d ed84 823d caf7 c23a 982c 95bb
00000320: a77f e23c 4c1a 44bd d3d4 013e 4a5d 15be
00000330: bcfd 90bd 3a47 5f3b d572 a33d ea3e 9bbc
00000340: acbd 30bc 0e5e 88bb 534a 233e 97de 053e
00000350: 22d2 fe3d 1501 9cbd 43e7 8f3c b9c3 a7bd
00000360: 89a6 053e 3482 edbd 78fc 2dbc 879d dabd
00000370: 5ce5 333e 5f65 01bd ce7c 8dbd 78c2 713c
00000380: b55f b9bd bdf2 c63b 64fb a03d 9f9f 8f3c
00000390: b972 8dbd e323 a6bd c6d4 033d 172f 3c3d
000003a0: 8e68 483d 4ae2 01be d586 013d ec6c bb3d
000003b0: 0a75 ce3d 4409 8b3d 71e0 abbd 9194 aa3d
000003c0: 4773 b1bc ce5c 11be 6c03 9ebd fde9 d73b
000003d0: 0920 e1bd 049c 8f3d 808e 18bd 86fd 45bc
000003e0: 1769 52bd c7c2 44bd 90af 81bd bbfa 033e
000003f0: e4da c43d 581f 213e 8004 9a3d 27ed 91bd
-0.025762547 0.07535226 0.07728537 0.1490862 0.06560259 0.006619989 -0.068761915 -0.006904581
-0.035073858 0.12179034 0.07371641 -0.12680225 -0.09971919 -0.035489168 0.012604637 0.008508692
0.014344327 -0.09280422 -0.063023694 -0.05537409 -0.15107532 -0.15613537 0.117211 -0.1310841
0.04230047 -0.094259836 0.085931525 -0.07227599 0.021703744 -0.022364788 0.12014573 -0.046151128
0.029957969 -0.024212161 -0.05350362 0.036584567 0.09643814 -0.07803065 -0.072332546 -0.10024544
0.044793963 0.069279835 -0.1076781 -0.03678992 -0.04403477 -0.14824207 0.10434901 0.07195727
0.14680448 -0.12525004 -0.007492119 0.041195594 0.061708357 0.16769193 0.10927415 -0.06530347
-0.012928243 0.02087625 0.08872151 0.074769676 0.049647264 -0.059260156 -0.18459329 -0.081333384
0.19637641 0.032276914 0.06485448 -0.05288912 0.015153195 0.12836973 -0.038505655 -0.09887037
0.16972387 -0.11726512 0.119147666 -0.030161573 0.019074248 -0.093887456 -0.10175276 0.17130113
-0.07684614 0.0009004575 -0.0076174596 0.06425888 0.021162022 -0.078378364 -0.08499325 -0.14294434
0.06874418 0.12569116 -0.09396242 0.06922258 0.05651558 -0.114558086 -0.0793389 -0.007223418
-0.009359324 0.17177431 -0.005113355 -0.076922126 -0.027120585 0.08354735 -0.13648649 -0.020944677
-0.0451756 0.085392445 -0.13239789 0.016997764 0.10930466 -0.03315585 0.14453027 0.009509824
-0.02408231 0.059833314 -0.031921778 -0.17143962 -0.14609061 0.036254823 0.03257088 -0.10690019
0.013829035 -0.09959007 0.046925817 0.15311873 -0.051552806 0.06853711 -0.00751957 0.020875495
-0.15773915 -0.02622608 0.052616205 -0.13815975 0.0006577098 -0.09711311 -0.08376231 -0.02781102
0.06317948 0.108241536 -0.13086547 -0.009824049 -3.690844e-05 -0.106231675 0.12711897 -0.00027813372
0.05577687 0.059529077 0.12654516 0.020242047 0.039690923 -0.07072731 0.06973411 0.075742476
0.06620992 0.031057978 0.035697147 -0.10039064 0.054253634 -0.15841292 -0.024916708 -0.02831185
-0.118697494 0.039092977 -0.07039621 0.055173103 0.085667126 0.02096606 -0.03964804 -0.02002158
0.15244745 0.06575803 0.021218624 0.11272412 0.042301457 -0.038437914 -0.044965662 0.09096096
0.14823167 -0.0049362797 0.15316965 -0.15367945 0.024670085 0.011919006 0.05236571 0.12926225
-0.00016538837 -0.008762013 -0.032151453 -0.10555167 0.08831569 -0.120605275 0.07288073 0.10240448
-0.05156613 0.057099115 0.034382872 0.07287766 0.046933115 0.0637301 0.0014874872 -0.004552435
0.02764876 -0.04787664 0.12678842 -0.14586368 -0.07079646 0.0034069554 0.07980887 -0.018950898
-0.010787409 -0.004161603 0.15946321 0.13073193 0.124424234 -0.07617394 0.017566329 -0.08191628
0.1305181 -0.115971 -0.010619275 -0.10674577 0.17567962 -0.031590816 -0.0690857 0.014755838
-0.09051458 0.006071417 0.07860449 0.017532168 -0.06906647 -0.081123136 0.03218534 0.045943346
0.048927836 -0.12683979 0.031622726 0.091516346 0.10080917 0.06788877 -0.08392418 0.08329118
-0.021661414 -0.14195558 -0.077154964 0.006589173 -0.10992438 0.070121795 -0.037245274 -0.0120843705
-0.051369753 -0.048037317 -0.06332314 0.12888615 0.096120626 0.15734613 0.075203896 -0.07125311

bias f4 [50]
00000000: a7bb 6dbd 2c23 a23d 2fc7 bb3d bb13 c03d
00000010: 52c0 f03d b869 a2bd 28ad 4e3d d527 173e
00000020: 65e3 1fbd 6c2d 6c3c 7a86 a43d 29f3 ad3d
00000030: f710 3e3e 11ba 12bd 6c0b 003e d484 96bb
00000040: defe 273d 4305 aa3c a497 e1bd b020 c4bd
00000050: 6ad9 92bd ee30 fbbd 3eeb d43d 6310 e23d
00000060: 02ac a33d d3f3 33bc 61a6 40bd 05b4 04be
00000070: 5682 c83d ccc0 aa3d 813e 8bbd 37e8 04bd
00000080: 08e1 323a 9d41 223e 1d99 133e 4bcf 103e
00000090: be56 e53d cf97 053e 1456 c33d 724b 883d
000000a0: 95c4 a93d 265b 1b3e aa26 c83d ce88 a6bd
000000b0: 42b0 99bd cdc1 cbbc 4d5d 52bb 8c93 103e
000000c0: 4037 64bd 1ffa a4bc
-0.058040287 0.07916865 0.09168851 0.09378763 0.11755432 -0.079303205 0.050458103 0.14761288
-0.03903522 0.014415126 0.08033462 0.08493645 0.18561159 -0.035821978 0.12504357 -0.004593471
0.041014545 0.020754462 -0.11015251 -0.09576547 -0.07170375 -0.12265192 0.103964314 0.11038282
0.07991792 -0.010983425 -0.04703367 -0.12959297 0.097904846 0.08337554 -0.06799031 -0.03244802
0.00068236934 0.15845342 0.14413877 0.14141576 0.111981854 0.13046192 0.095379025 0.06655015
0.08289448 0.15171489 0.097729996 -0.08131562 -0.07504322 -0.024872685 -0.0032099069 0.14118785
-0.055716753 -0.020138798

weight f4 [29, 50]
00000000: 4318 073e 3f5f 803d 5a66 90bc 253b 203e
00000010: 8ef5 10bd b1cb f9bc e7aa 11bd b5c0 d9bd
00000020: 3d6f 05be 57a9 09be d9ab f0bd c1a0 f83d
00000030: b87d 803d 6048 d4bd 455f d8bc 6ead 253c
00000040: ad7d 53bd 1527 0bbe ef9f 9fbd 454c 353d
00000050: 8d87 843c c780 88bd 6f86 173d 32ff 503d
00000060: 6317 9dbc 82d0 10bd 9a91 e7bd dd64 27bc
00000070: 39a1 63bd a3f6 afbd 4f5d df3d faea 0b3e
00000080: 3eb2 453d 476c 053e b1db f7bb a46c 9b3d
00000090: 9d23 f6bd 2067 a0bd 0a55 8a3d 2164 8dbc
000000a0: a812 ca3d c929 e23d e0cc da3b 1fa5 153d
000000b0: 8d96 e4bd 0a11 453d b963 7a3d a0c6 8d3d
000000c0: 30ed 693d b034 8c3d 0359 953d 4442 e63a
000000d0: 51a8 e1bc 86bb 3a3d 41bf 99bd ae80 a9bc
000000e0: 2d93 933d b1e7 2fbd 0c12 8b3d 5f15 d1bd
000000f0: 6fa9 8dbc 8c7d 09bd 57be c5bd 8a7e d83d
00000100: 60be cbbd d7c0 ac3d cf4f 4fbc 3280 d3bd
00000110: 93fa 073e 8de4 febd 92e7 f8bd b808 a9bd
00000120: b5e0 b23d 0d1f c53d 8d33 f5bc 5872 0abe
00000130: b096 c63d 896d 9bbc 5d68 31bd e22b 973b
00000140: 85c7 cabd 77a2 fa3c 8208 fdbd 9c86 fabd
00000150: c800 ca3d 1259 d2bd 90a6 d2bd a1b3 383d
00000160: b10a 2fbd 0b98 be3d 2e32 63bd 6e54 f0bd
00000170: 2996 cebd 2590 0a3e 16da c33d a2f8 a9bd
00000180: f4cc 8b3d 8e58 01be c32f 8b3d be3d 4c3d
00000190: 6294 eb3d 2966 c0bd cf14 083c 5420 bb3c
000001a0: 853b f8bd a39b e83c 4fc0 b4bd c5ae 923c
000001b0: f98f febd ccff a8bd f430 9fbd 9cfd 0cbd
000001c0: 2247 05be 8548 4cbd 4ac7 d63d 2d76 a1bd
000001d0: d86c 3e3d 1d69 11be 5bf6 1cbd 4741 cb3d
000001e0: 50e6 a43c cf66 9fbd d36e 9b3c 50dc 4bbd
000001f0: 8c2b 7c3d 333c d8bc 6382 8e3d 0d82 06bc
00000200: 1ecb 09be adac 963d d347 a7bd d89a fc3d
00000210: 2dbd c2bb 0866 fabd a735 f7bc 8ea3 bc3d
00000220: d5cd 0fbd ffac ed3c 2556 a9bd 19b2 67bc
00000230: b951 15bd d60c a93d 6d3f 003e ebf0 e73c
00000240: be8d 5cbd 6272 9ebd 833c a5bd 4cb7 353c
00000250: c539 04be 86ea 4438 a1b0 89bc 3485 94bd
00000260: b2ff 503c 1fd3 0f3e 9bbb 09be c709 cf3d
00000270: d13b 933d 87a9 be3d 9684 d83c b6c0 f0bc
00000280: 42be eb3d c812 c7bd a967 9cbd 238b febd
00000290: c516 0a3e 84d6 23be 0e0d 1c3d 19e1 68bd
000002a0: aae6 953b 60f3 05be d2f8 833d cec3 6fbd
000002b0: 93e3 57bd 222b 91bd 8e29 c4bd c463 53bd
000002c0: 2e56 4f3d a061 d9bc bfdd 20bc 5c14 d8bd
000002d0: 6be5 64bd 21b5 1ebd 32b2 d43c 98d4 2b3d
000002e0: 7dd4 843d 7dc9 853d ea75 03be 4f30 213d
000002f0: c2cb d2bd 57a5 c13d 4f98 023e b177 953d
00000300: 5fe5 5a3d 1934 ffbb e769 dd3d eeb7 fa3c
00000310: 70f4 b6bd 483f 2a3d 63ac 3f3d 8fd5 d03d
00000320: 3ef7 903d 246c 25bd 1d1d 0fbe 0c6f d4bc
00000330: ae00 c2bd e6f9 e83c 2d6e 113d 8bb0 b7bd
00000340: 2bad 18be 371e 78be 8524 2fbe 1ebd 073d
00000350: b80b 32be e0c0 cb3d f845 f13c 0ab2 18be
00000360: 9472 cbbd 0fc0 75bd 5d85 9d3d 3d64 2c3d
00000370: 3920 c6bd 5acf 0cbe c60e 2dbd 4c09 cbbd
00000380: 9631 6abc 7616 c13c 3e7a 80be 3774 cc3d
00000390: 0d35 2a3d c2da 5a3d b8f2 823b 4b3e fe3b
000003a0: f8f9 2cbe 5890 10be 3d7b f9bd 5969 be3d
000003b0: 1155 c83d 5543 0d3d 5aef 11bd 3b22 63bd
000003c0: e07a 2b3d 3ab5 a53d 909d e73d 0955 bf3d
000003d0: a8b1 443d 548c 3abe 70b9 33be ba03 c5bd
000003e0: 6cf7 103e 9d1b afbd 337d f0bd 3d13 2abe
000003f0: 8fcb 543d 66ab bebd 3080 733d 5490 cd39
0.13192849 0.06268167 -0.01762693 0.15647562 -0.03539043 -0.030492635 -0.035563376 -0.10632459
-0.13030715 -0.13443504 -0.11751527 0.121400364 0.06273979 -0.10365367 -0.026412616 0.01011215
-0.051633526 -0.13589127 -0.07794177 0.04426219 0.016177917 -0.06665187 0.03699344 0.051024623
-0.01917619 -0.0353551 -0.11307068 -0.010216919 -0.055573676 -0.08591964 0.10906469 0.13663855
0.048265688 0.13029586 -0.007564031 0.07589081 -0.120185114 -0.078321695 0.06754501 -0.01725966
0.0986684 0.11043126 0.006677255 0.036534425 -0.11161528 0.048111953 0.06113026 0.0692265
0.057110965 0.06845987 0.07292368 0.0017567356 -0.02754608 0.045588993 -0.07507182 -0.020691242
0.07205806 -0.042945568 0.067905515 -0.10209154 -0.017292706 -0.033566996 -0.09655445 0.105710104
-0.099484205 0.08435219 -0.012653305 -0.10327186 0.1327918 -0.12445936 -0.121535435 -0.08253616
0.08734266 0.09625063 -0.029931808 -0.13520181 0.0969671 -0.018973129 -0.04331242 0.0046133855
-0.099013366 0.030595047 -0.12355138 -0.12232706 0.0986343 -0.10270895 -0.102856755 0.045093182
-0.042734805 0.09306344 -0.055467777 -0.11734854 -0.100872345 0.1353155 0.09563081 -0.08299376
0.06826201 -0.12631437 0.06796219 0.04986357 0.11502911 -0.093944855 0.008305742 0.022842564
-0.121207274 0.028394526 -0.088257425 0.017905602 -0.12429804 -0.082519144 -0.07773009 -0.03442155
-0.13015416 -0.049873848 0.1048723 -0.07883868 0.04649052 -0.14200254 -0.03832088 0.0992456
0.020129353 -0.07783281 0.018973744 -0.049770653 0.061564967 -0.026395893 0.06958463 -0.008209717
-0.1345639 0.07357154 -0.08167996 0.123342216 -0.0059429617 -0.12226492 -0.03017695 0.09210883
-0.035108406 0.029013155 -0.08268384 -0.014141583 -0.03645489 0.082544014 0.12524195 0.02831312
-0.053846113 -0.077366605 -0.08068182 0.011091065 -0.12912662 4.694846e-05 -0.016807856 -0.07251969
0.012756275 0.1404538 -0.13450472 0.10109287 0.071891434 0.093096785 0.02643041 -0.029388767
0.11510898 -0.09720379 -0.07636959 -0.12428882 0.13485248 -0.159998 0.038098387 -0.056855295
0.0045746164 -0.13081121 0.06443943 -0.058536343 -0.052707266 -0.07088305 -0.095782384 -0.051608816
0.050619297 -0.026535809 -0.009818493 -0.10550758 -0.055882853 -0.038746957 0.025963876 0.041950792
0.064858414 0.065325715 -0.1283795 0.03935271 -0.1029277 0.09455364 0.12753414 0.0729822
0.0534414 -0.007788193 0.10811215 0.030605283 -0.089333415 0.041564256 0.04679526 0.10196983
0.07078408 -0.040386334 -0.1397595 -0.025931858 -0.09472786 0.028439473 0.035505462 -0.0896922
-0.14909808 -0.24230276 -0.17103775 0.03313934 -0.17387283 0.09948897 0.029452309 -0.14911667
-0.099339634 -0.059997614 0.07691453 0.042087782 -0.09674115 -0.13750973 -0.042250417 -0.099138826
-0.014294049 0.02357028 -0.25093263 0.09983104 0.0415545 0.05343128 0.0039962195 0.0077588907
-0.1689223 -0.14117563 -0.12181709 0.09297437 0.0978185 0.03448804 -0.035628654 -0.055452567
0.04186523 0.08091207 0.113093495 0.09342391 0.04802099 -0.18217593 -0.17551208 -0.096198514
0.14156884 -0.08550189 -0.1174263 -0.16608901 0.05195194 -0.093100354 0.05944842 0.0003920818

bias f4 [29]
00000000: eb5c 04be 9408 c2bc a82c c5bc b7da 7f3d
00000010: e0d4 63bc 6075 203d 8b6f 21bd 7d2d f9bd
00000020: 2c4c 843d e8d7 8cbd 6924 73bd 87dc 92bb
00000030: 41ad 553d f3f4 10be a36b f53c acb8 2ebd
00000040: 376b e83d 167b 66bd 1570 6e3c fc3e b73c
00000050: bf2a 0dbd 2fe4 d8bc d792 6f3c 76fa d3bd
00000060: 42f8 b63d 6c64 183e 1a6e b2bd 48e2 aebd
00000070: 60fe 0b3e
-0.1292607 -0.023685731 -0.024069145 0.062464442 -0.013905734 0.039174438 -0.039413016 -0.12166879
0.06459841 -0.06877118 -0.059360895 -0.0044818553 0.05216718 -0.1415594 0.029958552 -0.042656586
0.113485746 -0.056269728 0.01455309 0.0223689 -0.034464594 -0.026475994 0.014622412 -0.10350506
0.0893407 0.14882058 -0.087124065 -0.085392535 0.13671255

weight f4 [50, 50]
00000000: ed39 413d df5a 023e b93b cbbd 5e21 d8bd
00000010: c15a 233e 3078 70bd dc1d 17be 1439 033e
00000020: bd38 613b b0f9 613e 38aa d73d 3f07 bfbd
00000030: 7f4e 83be 5b9a 04be 9e12 853d 45e0 05be
00000040: 7274 a83c 9358 453d cb71 fdbd d4e2 0dbc
00000050: 30ae 80bd a4d2 1b3d 347c 0fbe 945d 9b3d
00000060: 7c05 b6bd 7bd5 e83d 6f9c a6bc b4be 34bd
00000070: eb4c 1d3e 09ca bcbd 3dbe 87bd 6750 8c3d
00000080: 328d 093d 5063 e8bd e7b8 8abd aa3f 653b
00000090: 2f35 71bb 89a3 043c f99d 8cbd 4cbf 01be
000000a0: 57d7 bcbd 72d5 883d bf6e 2cbd 2b4e 223d
000000b0: f13f 823d a74c ecbd 799e 19be ca35 ed3c
000000c0: 7760 063e eb3e b7bd 0186 dcbd 9e7b dc3c
000000d0: 6f33 a0bd 9564 3cbd c0d1 983d e7bb 91bb
000000e0: 5601 343d afce f7bd 92ad faba dd6f 8e3d
000000f0: 3b23 c7bd 04bc bcbd 6c8f c33d c5d1 353d
00000100: e15b 2d3c f9fb bb3c d09a 9dbd 73b4 673d
00000110: ceb3 853c 71e7 aa3d 2cf9 cd3d bd4b 763d
00000120: d913 1fbe 748b b53d 57b5 b73d fffc f2bd
00000130: 678d 543d 8b1b 19bd 2bb7 e43d 0d50 893d
00000140: b198 2d3d 623d 3b3d 0dca 55bd df26 a5bd
00000150: 7599 953d 81a7 abbc 8656 17be 7e7d bbbd
00000160: 0951 24be 14ac 08be 871b b73d fb8a 1abd
00000170: 37ee c3bd 6eed 153e 2017 fabd fbf4 38bb
00000180: 4503 e3bd 5ef8 9dbd f696 123e 2da0 db3c
00000190: 52bd 1b3d 7eba e33d 89ec 0f3e 3e0d c23d
000001a0: 59be 11be eec6 02be d3e4 353c a6c3 19bd
000001b0: 7c2b b7bd a72c 3b3d 5b8c 0cbe 0c83 113e
000001c0: 9ae6 173d 1ff6 8e3d c886 a93d 7bca ab3d
000001d0: d8ee 27bd 0d1a 5b3d c70f ddbd ea81 d0bd
000001e0: e9f4 063e abbe d1ba 250b 93bd 35ba f0bd
000001f0: 8d9a 173e 092e 043e 7a2b e63d b1c0 153a
00000200: 9432 7a3d 8278 9fba 6e86 583d a092 ce3d
00000210: 5a8c eabc 6ac8 a23d c047 83bd 4329 2e3d
00000220: e5eb 293e 9a1d 483e 8411 d33d b6ff 113e
00000230: 91e2 7cbd 053e 813c fb18 1abe af42 513d
00000240: 140a 84bd 3771 023d fe86 6b3d f046 a2bc
00000250: 6381 79bb 1d1d 2f39 c19d 1e3d 9142 0b3e
00000260: 4f7d f8bd d7de 103e 5468 06bb ca63 253d
00000270: 3a27 ebbd ef36 85bd afb3 083d 7be2 273d
00000280: 3444 013e 393b febd 1f52 aebc 3f46 d53d
00000290: 7878 b5ba 5c90 133e 84fc 89bd c2e5 063e
000002a0: 0a5b d3bd 21cb 9d3d 31c8 863d ed49 873d
000002b0: cb03 fbbd 1892 e13d fa80 973d 58b5 25bd
000002c0: 3090 15be e777 6cbd f160 26bd aee1 d4bd
000002d0: fd61 94bd d3d1 053d 3f3c b8bb 1d9d 3abd
000002e0: a56a 153e e9ea 093e 3f16 a03c 1d6c 303d
000002f0: d92d 7ebc e12d 363d dfb5 593d 0339 dfbd
00000300: ec8a 963d 738e 813d d78c c2bb 7b8d 133e
00000310: 9af8 55bd 4b52 5cbd e9e6 b63d fd4b 103c
00000320: f601 11bc 8054 03be 1d0b 46be 8a66 f4bd
00000330: 4b68 80bc 9070 52bc e82e 18bd 6fa3 b6bc
00000340: 5fac debd 1fbb 0c3e 38f1 9b3d 9ff7 33be
00000350: 0450 263d e57d 063d 1d32 b73d 987a 5bbd
00000360: 34d6 64be ea74 4abc 4948 4b3a 2b70 a53c
00000370: 74b4 6ebb 44ec 873d 72d4 86bb 9bb1 abbd
00000380: 2297 5ebe 54c8 a9bd 1bf9 c0bd 8c08 dd3d
00000390: 250a 163d 6dc0 ca3d 422d a7bd a2c2 b4bd
000003a0: 32ef 1c3c a96f cb3d 15e3 c1bd 681a 123e
000003b0: d324 5a3d ed28 a83d 705b d8bc 928f 3dbe
000003c0: 0925 dfbd 642d 0f3e 0118 153c c91b 97bd
000003d0: 31a4 d0bd 3bb7 fd3d 2ee2 113d 9c9e a43d
000003e0: 9123 873d 0cfe c9bd debf 37bd 84a1 9d3d
000003f0: e594 0e3e d779 39bd 338f 103e 723c cc3d
0.047174383 0.12729977 -0.099235006 -0.10553239 0.15952589 -0.05870837 -0.14757484 0.12814742
0.0034366094 0.22067904 0.105305135 -0.09327554 -0.25645825 -0.12949507 0.064976916 -0.13073833
0.020563338 0.048180174 -0.1237522 -0.008660037 -0.06283224 0.03804268 -0.14012223 0.07586208
-0.08887765 0.11368843 -0.020338265 -0.04412718 0.15361373 -0.09218223 -0.06628082 0.06851273
0.03358192 -0.11347067 -0.067735486 0.0034980574 -0.0036805382 0.00809563 -0.068660684 -0.1267063
-0.0922076 0.066813365 -0.042097803 0.039625328 0.06359852 -0.11538058 -0.15001859 0.028956313
0.13122736 -0.089475475 -0.10767747 0.026914414 -0.0782231 -0.04599436 0.07461882 -0.0044474485
0.043946587 -0.12099969 -0.0019125214 0.0695493 -0.097235166 -0.09215549 0.0954884 0.044389505
0.010580988 0.022947298 -0.07695544 0.056568574 0.01632109 0.08344925 0.100572914 0.060130823
-0.15534915 0.08864489 0.08970135 -0.118646614 0.051892664 -0.037379783 0.11167749 0.067047216
0.042381946 0.045712836 -0.052194644 -0.08064055 0.0730466 -0.020953896 -0.147791 -0.09154795
-0.16046537 -0.13346893 0.08940797 -0.0377302 -0.0956692 0.14641353 -0.12211442 -0.0028222192
-0.11084608 -0.07713388 0.143154 0.026809776 0.038022347 0.11119555 0.14055075 0.09475182
-0.14232768 -0.12771198 0.011101919 -0.0375401 -0.08943841 0.04569688 -0.13725416 0.14210147
0.037085153 0.069805376 0.082776606 0.083882295 -0.040999264 0.05349164 -0.10794025 -0.10181029
0.13179363 -0.0016002258 -0.0717986 -0.11754266 0.1480505 0.12908186 0.11238761 0.0005712612
0.06108339 -0.0012166651 0.052862577 0.1008656 -0.028631378 0.07948382 -0.064101696 0.04251982
0.16593893 0.19542542 0.10306075 0.14257702 -0.061739508 0.015776644 -0.15048592 0.051088985
-0.06447235 0.03184625 0.057501785 -0.019809216 -0.0038071505 0.00016700146 0.038724665 0.13599612
-0.12133276 0.14147507 -0.0020508962 0.04037837 -0.11482091 -0.065046184 0.033374485 0.040987473
0.12623674 -0.124136396 -0.021279393 0.10413789 -0.0013845107 0.14410537 -0.06737617 0.13173583
-0.10320099 0.077047594 0.06581152 0.06605897 -0.12256583 0.11014193 0.07397647 -0.040456146
-0.14605784 -0.057731535 -0.040619794 -0.103946075 -0.07245252 0.032670807 -0.0056224163 -0.04555999
0.14591463 0.13468517 0.019541858 0.043071855 -0.015513861 0.044477347 0.05315196 -0.10899546
0.07350716 0.06325998 -0.0059371996 0.1440944 -0.052239038 -0.05378942 0.08930761 0.0088071795
-0.008850565 -0.12825203 -0.19340177 -0.1193362 -0.01567473 -0.01284422 -0.03715411 -0.022294728
-0.10872721 0.13743256 0.07614368 -0.17574929 0.040603653 0.032834906 0.08945105 -0.05358371
-0.22347337 -0.012356976 0.0007754607 0.020195087 -0.0036423476 0.06636861 -0.004114681 -0.08383485
-0.2173734 -0.08290163 -0.09422513 0.10792646 0.03663077 0.098999836 -0.08162929 -0.08826186
0.009578513 0.09933407 -0.094671406 0.14267886 0.053257775 0.08210931 -0.026410788 -0.18511799
-0.10895736 0.13982159 0.009099961 -0.073783465 -0.10187567 0.12388464 0.035616092 0.08038065
0.06598581 -0.09862909 -0.044860713 0.07696822 0.13923986 -0.04528221 0.14117126 0.099724665

bias f4 [50]
00000000: 26be be3d c7b6 c7bd 4240 b3bd 2ef7 c73d
00000010: bd1e de3d baa7 e2bd 73f1 c83d 63e8 bf3d
00000020: 4d7f c33d 6879 f33d 586b f43d 981f b33d
00000030: b26f e13d bdfd c23c cfb9 073e f597 d93d
00000040: b5f8 d6bd ccc2 86bc 4cb6 05be 44ee 11be
00000050: e722 70bd 21ad 073e 9426 5d3d 1fed c63d
00000060: 435e 2f3e 8726 a2bd 041a 33bd bef2 5c3d
00000070: 8539 10be 75aa 9e3d 2554 973d 8df4 fbbd
00000080: 050a 803c aaef bbbd 769c 343e 193d b1bd
00000090: be75 223e 0c59 e0bd e45c 733c d0bc e0bd
000000a0: 9e2b 6ebc 777d 69bd 015c 083e 98fd dc3c
000000b0: 7132 463e 3e3a 993d 4445 5ebd 62b5 02be
000000c0: 1cd8 763d 85f0 2c3b
0.09313612 -0.09751659 -0.087524906 0.09763943 0.108457066 -0.110671476 0.09811678 0.09370496
0.09545765 0.11888391 0.11934537 0.087462604 0.11007632 0.023802632 0.13254474 0.10624687
-0.10496656 -0.016450308 -0.13057822 -0.14251047 -0.058627035 0.13249637 0.05399187 0.09713196
0.17125802 -0.07917505 -0.043725982 0.053942434 -0.14084442 0.07747356 0.07389096 -0.12302504
0.015629778 -0.09176572 0.1763781 -0.086542316 0.15865228 -0.10954484 0.01485369 -0.10973513
-0.014536766 -0.05700442 0.13316347 0.026976392 0.1935518 0.07481812 -0.054265276 -0.12764505
0.06026469 0.0026388478

weight f4 [50, 50]
00000000: bcd1 123e 1654 febd d768 3ebb 8acd debd
00000010: cbd6 5b3b bcab a93c e4a5 aa3d f468 1f3d
00000020: 8565 6ebd 9ad8 dd3d d62d f23c 3dfd 9e3d
00000030: 5422 edbd 5cd8 a7bd f9ca 9e3c 0b90 f2bd
00000040: 4e56 a1bd fe05 16bd 8447 8abd 2a4f b83c
00000050: 1487 a8bd b2a3 12bd 5242 84bd 2212 1ebd
00000060: 9cbf 84bd fa69 50bb d3c2 46bd 5d48 47bd
00000070: 2550 babd 376a 69bd 6922 a4bd 801e c33d
00000080: e446 013d 5f8e 95bb 2af5 16bd bb27 fabc
00000090: 6f4d 78bd 0551 dc3c 33b9 063e 1a10 c03c
000000a0: c1be 813d b0e8 b43c d4bb 5f3d 8478 0fbe
000000b0: 2257 593d ffe4 0dbd dff6 f0bd 9993 743d
000000c0: 0a81 803d e79a ef3b e0dd 453d 9192 10bd
000000d0: aed6 b4bd 0195 15be 94f3 87bd 62f6 f23d
000000e0: b43b 12be 5c6c a4bd 0894 f7bd 5cf3 8e3d
000000f0: e704 69bd 346e c8bd 6306 b6bd 2775 543d
00000100: bcb5 a5bc 94dc f3bd f18b 333c 8e88 56ba
00000110: 1640 f43d 3abf 903c 7673 8b3d 339e 37bd
00000120: e951 8c3c 1c83 6abc 8b26 2bbc b034 673d
00000130: 4416 eb3d 14cd 0dbe c4df aebd 2d7c 8ebd
00000140: f6df 7f3d 92ef 4a3d 9916 4fbd fcd3 163e
00000150: f599 a33d 912b f0bd 8466 08be bec4 c9bd
00000160: 8cd5 eeb9 1c27 0ebe ee69 f7bc 45e8 6f3d
00000170: 1141 5cbd 1771 9b3d ee0a 213c 45d6 ac3d
00000180: 70ed 2b3b 764c 503d 4598 cf3d dca9 1e3e
00000190: afb1 5c3c 6a4f a73c 7ae1 a93d b215 f8bd
000001a0: 8aed 8abb 9f5f 1fbe 45ec db3c 2749 3f3d
000001b0: 19e0 d9bd 4d82 f8bc 452c adbd dc6c b6bc
000001c0: 2092 02bd b9d1 fbbb b49d 163e 94aa 0cbe
000001d0: 79c2 983c 78a4 0b3e 774b fa3d 5092 803d
000001e0: 6f83 d4bd 33e8 293d 9398 1ebe 2278 5ebc
000001f0: 15bf b03d 36b8 fc3d 185f 4bbd d802 2fbd
00000200: f893 783c e4bf 16be 4d54 6e3d 1a3f 3c3d
00000210: e907 c93d b01b 03bc a894 1abe 3f36 8bbd
00000220: 25d9 eabd 38e1 cc3d 07c5 58bc 6aa4 97bd
00000230: 6ba2 e2bd eba5 95bd 7d2e 91bb 9d40 ed3c
00000240: 65a7 7dbd 5302 023e d231 cbbd d94c 93bd
00000250: 5345 9dbc 8fca f1bd 495d 4dbd 6068 d23d
00000260: 7978 f7bc 60a1 83bd 569c c3bd a722 76bd
00000270: 4ee9 9ebc f8b7 143d 4417 0e3e 08d2 08be
00000280: f912 f0bd e1b7 edbd 0ffb 3d3d 020a cbbd
00000290: ec73 873d 39f5 003e 0612 953d d52b ef3d
000002a0: 0242 fb3d c0b9 593d 2028 f53d acd2 eebd
000002b0: 49b4 f5bd e0d0 54bd 90a1 d73c a725 1c3c
000002c0: 8ecf ae3d ae74 50bd ea67 fcbd ba7e 7ebd
000002d0: 33d3 ecbd c49c a7bd e6d1 ee3d a7a0 b13d
000002e0: 0e9a efbd 5810 893c a0e0 dd3d 4478 fbbd
000002f0: 8009 6a3d a2a0 0bbd e700 143e fed4 a1bd
00000300: 74d4 4abd 2f5e fd3d 9b77 89bc d0b9 74bd
00000310: 55b1 ccbc d0d7 6cbd 7914 603d c7cf 583d
00000320: 6dac 1fbd 34a8 733d c1da bfbb 45fa dd3d
00000330: 8e32 9f3d 5c6a c8bd 592e a83c 24e5 1dbe
00000340: d4ba 13bd cc58 db3d 44d0 e3bc 2e74 fabd
00000350: d417 b83d 4daa 9ebd 1582 cebd 6acb 07be
00000360: 6161 a7bc 211e d8bc 0c73 44bd e870 9b3c
00000370: d9af e83d 2a56 c4bd 7f08 443d e72a 81bd
00000380: 32f6 bbbc 6089 a63d 6152 ee3d 6dcf c53d
00000390: 35ed 6fbc 3288 133c 7ca8 003e 398e a63c
000003a0: 5873 06bd 0dfa 2cbd 31f3 09be 3c0b 023e
000003b0: 952c d63c 3472 a7bd d74d debd 4a47 a93d
000003c0: 998b e6bc ac79 cabd 1a5b b9bd 4515 24bd
000003d0: e6fd e63d aef6 babd afa3 923c a4e3 c2bd
000003e0: efc0 503d ff22 333c 3b06 083d ab14 df3d
000003f0: d418 c93c 072a 2cbd eade 9e3d 9970 f23c
0.1433782 -0.12418382 -0.0029054189 -0.10879047 0.0033544775 0.020711772 0.083324224 0.03891845
-0.058202285 0.10832329 0.029562872 0.07763145 -0.11578813 -0.08195564 0.019383894 -0.1184388
-0.078777894 -0.03662681 -0.06751922 0.022498686 -0.08228889 -0.035800643 -0.06457962 -0.03859151
-0.06481859 -0.0031801448 -0.048525643 -0.048652995 -0.090973176 -0.05698606 -0.08014376 0.09527302
0.031561747 -0.004564091 -0.0368549 -0.030536523 -0.06062072 0.026894102 0.13156585 0.023445178
0.063352115 0.02208361 0.054622486 -0.14010817 0.053061612 -0.034642216 -0.11765837 0.059711073
0.06274612 0.007312167 0.0483073 -0.035296027 -0.088300094 -0.14607622 -0.06638256 0.118634
-0.14280587 -0.080284804 -0.120887816 0.06980011 -0.05688944 -0.097866446 -0.08887937 0.051869538
-0.02022826 -0.11907306 0.010958658 -0.00081838004 0.11926286 0.017669309 0.06809132 -0.044828605
0.017128902 -0.0143134855 -0.010446201 0.05644673 0.11478856 -0.13847762 -0.08538774 -0.069572784
0.062469445 0.04954488 -0.05055866 0.14729303 0.07988349 -0.1172706 -0.13320357 -0.09851979
-0.00045554002 -0.13882107 -0.030201878 0.05857112 -0.05377299 0.075899296 0.009829266 0.08439306
0.0026234053 0.05085417 0.10136465 0.15494484 0.013470097 0.02042361 0.08294959 -0.12113513
-0.0042397426 -0.1556382 0.02684606 0.046700623 -0.10638446 -0.03033557 -0.08455709 -0.022268705
-0.031877637 -0.007684913 0.14708596 -0.13736945 0.01864742 0.13636959 0.12221425 0.06277907
-0.103766315 0.041481208 -0.1548789 -0.013578447 0.08630196 0.12339823 -0.049651235 -0.04272732
0.015171997 -0.14721638 0.058185864 0.045958616 0.09815962 -0.008002207 -0.1509577 -0.06797456
-0.11467198 0.100038946 -0.013230569 -0.07404406 -0.11066135 -0.07307037 -0.0044305907 0.028961474
-0.061927218 0.12696199 -0.09921612 -0.07192392 -0.019198095 -0.11806213 -0.05013779 0.10273814
-0.030208813 -0.06427264 -0.09551303 -0.06009164 -0.019398358 0.03630826 0.13876063 -0.1336137
-0.11722369 -0.11607338 0.046382006 -0.09914018 0.06613907 0.12593545 0.07278828 0.11678282
0.12268449 0.05315566 0.11970544 -0.11661276 -0.11997277 -0.05195701 0.026322156 0.009530461
0.08535682 -0.050892524 -0.123245075 -0.062132575 -0.115637206 -0.081841975 0.11661129 0.0867322
-0.116993055 0.016731426 0.108338594 -0.12278798 0.057137966 -0.03408874 0.14453469 -0.07901953
-0.049519017 0.1237148 -0.016780665 -0.059747517 -0.024986902 -0.057823002 0.054707024 0.052932527
-0.038982797 0.059486583 -0.005854935 0.10838751 0.077733144 -0.097859114 0.020529913 -0.15419441
-0.036066845 0.10710296 -0.02780927 -0.12229191 0.0898892 -0.07747326 -0.10083405 -0.1326119
-0.020432176 -0.026381554 -0.04796128 0.018974736 0.11361665 -0.09586747 0.047859665 -0.06307011
-0.022944544 0.08131671 0.11636806 0.09658704 -0.014643957 0.009004639 0.12564272 0.020331489
-0.032824844 -0.042230655 -0.13471676 0.12699598 0.026144305 -0.081760794 -0.108546905 0.082655504
-0.028142737 -0.09886488 -0.09050579 -0.040059347 0.11278896 -0.09129082 0.017900316 -0.09516075
0.050965246 0.010933637 0.033209067 0.10892614 0.024547972 -0.042032268 0.07757361 0.029594706

bias f4 [50]
00000000: df87 443d 861b 17be ee67 b93d 51a2 d13d
00000010: bb15 a7bd 93f3 12be 6cbb ccba d48c dc3c
00000020: 4713 c43d 7552 5e3d ed49 b5bd 0b79 27bc
00000030: 8593 a83d 606c b53d e9ed 213d 809f ad3d
00000040: d0db 88bd c561 a13d 069d d0bd 5392 ac3d
00000050: 720a 9d3c a259 943c 11d5 22bd 6b55 173d
00000060: 69d0 283e 260b 63bd 2824 eabd 5e77 88bd
00000070: 915d db3c 0ce4 45bd c6a3 c63b 3800 fb3d
00000080: bad0 c8bd 459c a93d 012a 16be 0e76 b73d
00000090: 5e69 333d 6df2 af3d e5a8 0b3d fc6a ff3d
000000a0: ff4f cf3d f657 293e a226 3abd 5ca1 02be
000000b0: 8358 97bd ef0b d7bd 1e43 b33d 8ee7 f83d
000000c0: c430 edbd 2530 b03d
0.04798114 -0.14756593 0.09053026 0.102360375 -0.08158442 -0.14350729 -0.0015619821 0.02692262
0.09573989 0.054277856 -0.08851991 -0.01022173 0.08231262 0.088585615 0.03953353 0.08477688
-0.06682551 0.07879976 -0.101862 0.08426347 0.01917002 0.018109147 -0.039753977 0.036946695
0.16485752 -0.055430554 -0.114326775 -0.066633925 0.026778014 -0.048313186 0.006062004 0.12255901
-0.098054364 0.08281759 -0.1466446 0.08958064 0.043801658 0.08591161 0.034096617 0.124715775
0.1012268 0.1653746 -0.045447 -0.12756866 -0.07389929 -0.10500323 0.08753036 0.121535406
-0.11581567 0.08602933

weight f4 [29, 50]
00000000: de93 033e be16 ac3d f630 113e 94a4 d03d
00000010: 3f74 8a3c 6da2 b13d 531b f73d 31c6 1ebd
00000020: e42b c5bd 5e42 4ebb cc91 d6bc 07e1 a4bd
00000030: 1c0b 023e abda ebbd 35db 673d a7a4 02bd
00000040: 1978 64bd 121b 653d 5e24 bbbd 2113 86bd
00000050: e8ea f83d e068 c13d 1b57 babd dc3a 91bd
00000060: c75e 0d3e 9a93 053e 95c4 133e 22d3 d5bd
00000070: e48f 93bd c3e6 14be ebc0 023e 84ca 623c
00000080: c929 48bd adbc 4fbd 943a 713d 8bd1 c63d
00000090: 683f 8bbc 5b14 0c3e 18c7 863d 0ec4 02bd
000000a0: a65d 74bd e7d6 bd3d 87fa f83d 4277 e33d
000000b0: 4221 b43c 8103 023e 3f08 a43c a01a 01bd
000000c0: 8e94 6f3d 6428 98bc aa8a a4bd e9f2 963a
000000d0: 17e4 043d 9b38 9bbb 6a5d 05be 0f05 9cbd
000000e0: 54b9 823d 7512 0c3e 16e6 ba3c f662 bb3d
000000f0: fd5d 4ebd 9a7d 293d 5e07 08be 09be 87bd
00000100: 5e62 1b3e 8696 9aba be17 943c c6f5 163e
00000110: 58ea 6f3a a21a 893d 9e54 01be 4015 30bb
00000120: 9016 093e 9540 07be dd8c b7bd 177a b53d
00000130: 6491 5dbd 80b7 98bd 8ac8 dcbd 1746 c0bd
00000140: 06dc 9e3d 4e0d c63b afa8 05be 69ec 443d
00000150: e5f5 523c e2ac a2bd 1346 a43d 73f3 7f3d
00000160: 2188 0cbe 979e e1bb 6ad9 b23d 210e adbd
00000170: 7e89 4abd b659 f43d 7fbc 6b3d ac5f afbd
00000180: d518 a8bd 258c 9cbd 705a bbbd daac f5bd
00000190: dfb5 cd3c c29a df3d b746 28bd e15e a8bd
000001a0: 5cc1 ad3d 24c6 03be 5bac 80bc bc0d cbbd
000001b0: 83ce 37bd 8ebd 953b c1d1 08be 74fb 4fbc
000001c0: f539 8b3d 0dee f43d fa32 693d cdc8 fb3d
000001d0: b6d4 ed3d 9dc2 d7bd 14bc cbbc d70b 8d3d
000001e0: 1c75 913d 78b7 a1bd bc51 0e3d c63f 063e
000001f0: c905 fd3d 2158 2fbd 9de4 94bd 579f b1bd
00000200: 2bd7 833d 9488 5abd c85c 883c 0197 84bc
00000210: cc98 6d3d 8437 df3d 0059 593d 0491 4bbd
00000220: f196 73bd f0a0 0f3e d4b1 01be d95e a83d
00000230: d9b8 d0bb 42a4 cc3d 28c7 773d b175 ccbd
00000240: 36b9 1ebd 7887 543d c5c3 1d3c 85eb 9ebd
00000250: 4da5 f2bd c8fc 83bd 32af 02be 6138 823d
00000260: 76b7 0b3e 4598 8b3d e55f 5cbc 30b4 dabd
00000270: 7c8e 03be eefe b9bd ca97 1d3e b8c2 343c
00000280: 3792 163d 81a6 0bbe 8df3 81bd b430 823c
00000290: ee4d 8bbd 56f6 d2b9 f805 aabc bd82 ee3b
000002a0: 6e6a 213c a00e 5dbd 5388 083e 3a82 4f3b
000002b0: e5b1 103e 58bb 3d3d e03f 0c3e 2a58 dc3d
000002c0: a9d4 043d 5d79 cebb 0f9d 5cbd 9cb8 793b
000002d0: 8727 d4bd a572 db3d e464 0cbe 73ac aa3d
000002e0: a49e 9abd 0ba6 9a3d 60ab 71bd a818 673d
000002f0: 0394 1ebd b34e 80bc f1ae f3bd b0c9 b03d
00000300: 622f 3abd 2d1b bdbd 8a77 c2bc 7c07 e5bd
00000310: 0b6b d8bd c9e8 a03c 2f3e 96bd 5d6a 8bbc
00000320: 5a2d 48bd c645 dc3d 20fa a43d ea4c 093e
00000330: 9537 a73d 373f cdbd b253 98bd c1a0 14bd
00000340: 0b25 0e3d e6a0 e73d 853a fb3d 3efa e4bd
00000350: 3474 cdbd 2d4d fe3d 2355 eabd eddd cf3b
00000360: 0f9d 04be 13c1 e13c 9415 063d 3166 193d
00000370: c704 5a3d 9331 a5bd b4ea 183e 3734 c7bd
00000380: 151f 34be b519 eebc dc3d 133e 4803 9a3b
00000390: f2b7 5b3d 44a2 0fbd 947f 4abe 23ac 37be
000003a0: 41fd 6a3d fbf1 a83d 44cb 43be 1f51 21be
000003b0: ebb7 9dbd 4065 a0bd ad92 e43d b391 2dbe
000003c0: 3943 173d ca77 dcbd da8c bdbc 4372 073e
000003d0: 445f edbc 0709 0a3c 6322 dfbc d866 a7bd
000003e0: f09b 103e 699f c6bc 4267 14bc 26ed bd3d
000003f0: 8a63 743d 9bc0 df3d d41c 8ebd c5f9 55bd
0.12849376 0.08402775 0.14178833 0.10187641 0.016901134 0.086735584 0.120657586 -0.03876323
-0.09627512 -0.0031472663 -0.026192568 -0.08050733 0.1269955 -0.11516317 0.056605536 -0.031895306
-0.055778597 0.05593402 -0.09137796 -0.06546617 0.1215418 0.094438314 -0.09098645 -0.07091305
0.13805686 0.13044587 0.14430459 -0.10440661 -0.07205179 -0.14541154 0.12768905 0.013842229
-0.048867974 -0.050717045 0.058893755 0.09707936 -0.016998008 0.1367964 0.06580943 -0.031925254
-0.059659623 0.09269505 0.12157159 0.11106731 0.021988515 0.12696649 0.020023463 -0.031519532
0.058491282 -0.018573947 -0.080342606 0.0011516485 0.032444086 -0.0047369725 -0.13023916 -0.07618152
0.06383005 0.13678916 0.022814792 0.09149735 -0.050382603 0.04137955 -0.1328406 -0.06628043
0.15174243 -0.0011794127 0.018077727 0.14742193 0.00091520464 0.06694533 -0.12629935 -0.0026868135
0.13387513 -0.1320823 -0.089624144 0.088611774 -0.054093733 -0.07456875 -0.10780437 -0.093883686
0.0775681 0.0060440665 -0.13052629 0.04807702 0.012876009 -0.07943131 0.08021178 0.06248803
-0.13723804 -0.0068853605 0.08732875 -0.084499605 -0.04944753 0.119311735 0.05755281 -0.0856317
-0.08207861 -0.07643918 -0.09148109 -0.119958594 0.025111137 0.109181896 -0.041083064 -0.08221222
0.08484146 -0.12868553 -0.015707185 -0.09914729 -0.04487468 0.004569716 -0.13361265 -0.012694228
0.06798164 0.11959467 0.05693338 0.12294159 0.11612837 -0.105351664 -0.024869956 0.06887024
0.07102415 -0.07896322 0.034745917 0.13110265 0.12354619 -0.042808656 -0.07270167 -0.0867297
0.064375244 -0.053352907 0.016645804 -0.016185286 0.058007047 0.10899261 0.053063393 -0.049698845
-0.05947012 0.14026237 -0.12665492 0.08221216 -0.006369692 0.09992267 0.060492665 -0.09983385
-0.03875085 0.051887006 0.009629195 -0.077597655 -0.11847935 -0.064446986 -0.12762144 0.0635841
0.13644204 0.068161525 -0.013450597 -0.10678899 -0.12847322 -0.09081827 0.15389934 0.011032753
0.036760535 -0.13637735 -0.06345282 0.015892364 -0.06801973 -0.00040237856 -0.0207548 0.007278769
0.009852035 -0.053969026 0.13333254 0.0031663314 0.14130361 0.046321243 0.13696241 0.107590035
0.03242937 -0.0063010887 -0.05386072 0.003810442 -0.10359102 0.10715226 -0.13710362 0.08333673
-0.075497895 0.075512014 -0.059001327 0.05642 -0.038715374 -0.015662527 -0.11898602 0.08632219
-0.045455344 -0.09233699 -0.023738641 -0.11183068 -0.10567292 0.01964225 -0.07336079 -0.017018491
-0.048871376 0.10755496 0.0805552 0.13408247 0.08164898 -0.10021823 -0.074378386 -0.03628612
0.034703296 0.11309986 0.12267021 -0.111805424 -0.100319296 0.12417064 -0.1144202 0.0063435943
-0.12950538 0.027557885 0.032735422 0.037450973 0.053227212 -0.08066096 0.14933282 -0.09726756
-0.17589982 -0.029064992 0.14379066 0.004700098 0.05364222 -0.035066858 -0.1977523 -0.17936759
0.057370428 0.08249279 -0.19120508 -0.15753601 -0.07701095 -0.07831812 0.11160789 -0.16950111
0.036929343 -0.107650355 -0.023138452 0.13227181 -0.02897609 0.008425004 -0.027238077 -0.08173913
0.14121985 -0.024245935 -0.009057822 0.09273748 0.05966524 0.109254085 -0.06939092 -0.052240152

bias f4 [29]
00000000: cd47 093e cb63 d1bd decb e43c 188e bebd
00000010: 0bf3 25be 0016 fd3b b3b2 783d 15b1 a3bd
00000020: d8ff 8d3d 9979 cd3d 8b4e d33d 7a72 ab3d
00000030: bf81 9fbc 1b02 88bd e664 aebd b5ae 53bd
00000040: 38ce b9bd f06e 61bb 7a83 b03d 280e 983d
00000050: 992d c63d ab47 2cbc 5120 953d e428 ebbd
00000060: c0cc a03d 9316 333d 92c7 cfbd 7f3d 133d
00000070: cdac 213c
0.13406296 -0.10224112 0.027929243 -0.09304446 -0.16205995 0.00772357 0.060717296 -0.0799276
0.06933564 0.100329585 0.10317715 0.08371444 -0.019471047 -0.066410266 -0.085153386 -0.051680285
-0.09072536 -0.00343984 0.08618827 0.07424575 0.09676666 -0.010515134 0.072815545 -0.11482409
0.07851553 0.0437227 -0.10145487 0.03594732 0.009867859
