srim-sbi/data/trained_posterior.pt (torch, 112220 bytes, 32 tensors)

weight f4 [50, 3]
-0.4209811 0.13489988 -0.4511022 0.5940688 -0.21820152 -0.13680711 0.072749555 -0.17359774
0.3986798 0.08424451 -0.26617235 -0.53089267 0.5157653 0.49923715 0.32862976 -0.5562945
-0.36372158 0.095173515 0.0021759896 0.41138473 -0.09540711 0.0033208271 -0.041131634 -0.56284165
-0.4101333 0.2927966 0.48847693 0.54006755 0.030065773 -0.48407075 -0.45813957 -0.40582454
0.04232989 -0.23614979 -0.470679 0.54017115 -0.32240745 -0.21205948 -0.31236544 -0.11135104
0.02167059 0.16580093 -0.3029592 -0.3737022 -0.13480675 0.031383153 -0.53280646 0.3905829
0.4175679 0.55747235 0.1991615 0.0012397494 0.37807637 0.37670568 0.3611212 0.2536301
-0.24515176 0.4259559 0.4021469 -0.14659415 0.20012482 0.18254639 -0.5513211 0.35848096
0.3060434 0.5283606 -0.44063655 0.33486402 -0.45619887 -0.4800186 -0.4462443 -0.25367132
-0.08471644 0.0024378127 -0.0043888465 -0.13457072 0.60292673 0.49614447 -0.05892316 0.07252581
0.3866134 -0.4327112 -0.05876403 0.23900974 -0.2801443 0.13043639 -0.42996702 0.3640363
0.35611233 -0.019589815 -0.40173692 0.6117381 -0.3746799 0.13695565 0.33223128 0.28445846
-0.43467742 0.31525907 -0.42616847 -0.23389326 0.24272116 0.0024056793 0.0029823198 0.5692475
-0.5017956 0.063269235 -0.16769743 0.3228846 0.288924 -0.25268978 -0.04891085 0.2329809
-0.104318835 -0.41612217 0.61766934 0.38986763 0.17921555 0.18339984 0.13393421 -0.07778142
-0.1281089 0.30132908 0.28514636 0.19901216 0.28468454 -0.05331162 -0.19308114 -0.34391457
-0.26922488 0.11767531 -0.38520032 0.3586391 0.21990322 -0.5342955 0.078944325 0.13994427
0.25361472 -0.42959747 -0.39720714 0.12598449 -0.3443753 -0.076205604 -0.21407564 0.026327135
0.46255988 0.33866104 -0.5232282 0.50889033 -0.56394595 0.029243987
00000000: d68a d7be 3223 0a3e def6 e6be e514 183f
00000010: 3870 5fbe 2a17 0cbe b8fd 943d 9bc3 31be
00000020: c21f cc3e 6388 ac3d be47 88be 95e8 07bf
00000030: 3209 043f 039c ff3e 2942 a83e 5169 0ebf
00000040: b739 babe 55ea c23d 0c9b 0e3b 05a1 d23e
00000050: ce64 c3bd 3ca2 593b a579 28bd 6416 10bf
00000060: fefc d1be 70e9 953e a619 fa3e de41 0a3f
00000070: 7f4c f63c 1fd8 f7be 4591 eabe 3cc8 cfbe
00000080: 1b62 2d3d 40d1 71be d6fc f0be a848 0a3f
00000090: 9712 a5be 1f26 59be 5dee 9fbe 040c e4bd
000000a0: 8586 b13c b8c7 293e 781d 9bbe e555 bfbe
000000b0: c80a 0abe 9f8b 003d 0166 08bf 7bfa c73e
000000c0: 76cb d53e 82b6 0e3f fef0 4b3e 167f a23a
000000d0: 3a93 c13e 91df c03e e1e4 b83e cedb 813e
000000e0: 1009 7bbe e416 da3e 33e6 cd3e c71c 16be
000000f0: 85ed 4c3e 71ed 3a3e 6123 0dbf d18a b73e
00000100: b8b1 9c3e a442 073f 1d9b e1be 4c73 ab3e
00000110: e692 e9be ffc4 f5be 227a e4be 35e1 81be
00000120: d07f adbd b6c3 1f3b 50d0 8fbb e8cc 09be
00000130: 6859 1a3f a606 fe3e 6959 71bd 6988 943d
00000140: 31f2 c53e 538c ddbe 8db2 70bd f8be 743e
00000150: 136f 8fbe 1e91 053e a324 dcbe f762 ba3e
00000160: 5b54 b63e d27a a0bc 76b0 cdbe de9a 1c3f
00000170: 0bd6 bfbe 1a3e 0c3e 381a aa3e 8aa4 913e
00000180: 0a8e debe a369 a13e c132 dabe b781 6fbe
00000190: e58b 783e 9aa8 1d3b 0673 433b 34ba 113f
000001a0: ad75 00bf 4d93 813d e0b8 2bbe 2151 a53e
000001b0: d9ed 933e 8e60 81be be56 48bd 8c92 6e3e
000001c0: 1da5 d5bd f70d d5be 941f 1e3f bb9c c73e
000001d0: 4884 373e 2bcd 3b3e 0d26 093e dd4b 9fbd
000001e0: fb2e 03be ce47 9a3e b4fe 913e d8c9 4b3e
000001f0: 2cc2 913e 495d 5abd 10b7 45be 9215 b0be
00000200: d8d7 89be c1ff f03d fa38 c5be 8b9f b73e
00000210: 4f2e 613e 97c7 08bf 90ad a13d 8d4d 0f3e
00000220: cad9 813e 33f4 dbbe bc5e cbbe 1402 013e
00000230: f651 b0be af11 9cbd a536 5bbe 01ac d73c
00000240: a6d4 ec3e fb64 ad3e 49f2 05bf a346 023f
00000250: c35e 10bf 1691 ef3c

bias f4 [50]
0.3030065 -0.04135122 0.22996543 -0.08815163 -0.48252323 0.19704854 -0.5553485 0.41365364
0.091793545 0.46168375 0.12127788 0.53482527 0.5299973 -0.3031887 -0.48269144 -0.36804813
-0.060811765 -0.10671457 -0.48809493 0.42139155 0.16848227 0.4959045 -0.11526228 -0.012592515
0.50435144 0.29559752 -0.50835454 -0.14631645 -0.16057327 -0.5025745 0.41878772 -0.47329134
0.11483085 -0.4698174 0.581908 0.5276529 0.49164045 -0.44371727 -0.53851223 -0.4235099
-0.3872027 0.38482344 -0.41625568 0.42341012 -0.59984344 0.51813775 -0.26794177 -0.5330194
-0.55544686 0.04965379
00000000: ab23 9b3e e65f 29bd 0f7c 6b3e d788 b4bd
00000010: 490d f7be 18c7 493e 522b 0ebf 69ca d33e
00000020: 41fe bb3d d061 ec3e 8a60 f83d 4fea 083f
00000030: e7ad 073f 8d3b 9bbe 5523 f7be ce70 bcbe
00000040: c215 79bd 2b8d dabd 94e7 f9be a2c0 d73e
00000050: 9e86 2c3e 32e7 fd3e a10e ecbd d650 4ebc
00000060: 2d1d 013f 8f58 973e 8623 02bf fbd3 15be
00000070: 526d 24be b9a8 00bf 586b d63e 3e53 f2be
00000080: 702c eb3d e88b f0be ecf7 143f 4314 073f
00000090: 4cb8 fb3e e92e e3be f0db 09bf 4ad6 d8be
000000a0: 6f3f c6be 9407 c53e 771f d5be 36c9 d83e
000000b0: 578f 19bf ada4 043f aa2f 89be f673 08bf
000000c0: c431 0ebf c661 4b3d

weight f4 [50, 50]
0.04669143 0.07847443 0.13760483 0.038428966 -0.123539306 -0.0010931536 0.14076231 0.07358497
0.019803433 -0.031568926 -0.119483694 -0.117582306 0.020077273 0.061106663 0.088031314 -0.09100147
-0.046245612 0.078814976 0.059134956 0.031574424 0.067493506 0.0055136327 0.13114631 -0.054342955
0.03677798 -0.09325138 0.09199228 -0.08580612 0.054775786 0.06530146 -0.05825054 -0.0462709
0.09731194 0.12463999 -0.015738208 -0.017187096 -0.00022969804 0.043637518 -0.03249487 -0.12711023
-0.054094605 -0.010880684 -0.13572934 -0.14191206 0.118827164 0.06535544 -0.13365966 -0.04875273
-0.00420204 -0.092010714 0.019882627 0.11039821 0.035790093 -0.049298413 0.15539725 -0.15676159
-0.054090895 0.0033154967 -0.0312041 0.16692464 0.0313673 -0.1066997 0.091366716 -0.008203942
-0.9208077 -0.1594961 0.11921239 0.09937263 0.017776342 -0.10030439 0.08064715 0.009335515
-0.003082246 -0.15440013 0.12116768 0.14354807 -0.09063296 -0.033412416 -0.124129675 -0.12755208
0.049300965 0.120906174 -0.0706591 -0.15151781 -0.01035501 0.14261161 0.1603202 -0.092276216
0.07914824 -0.11420903 -0.006618446 0.045361046 -0.34849268 -0.012112296 0.095966965 0.12347374
-0.25972477 -0.005210396 0.018592164 0.08142792 -0.06835398 0.14364254 0.13503893 0.11348547
-0.002883126 -0.13598034 0.03013612 -0.088961214 -0.05456676 -0.037887212 -0.22822583 -0.052816782
0.021924445 0.02897889 -1.222656 0.07436478 0.19658482 -0.09968903 -0.082687125 -0.04287566
-0.0966032 0.05315574 -0.067864716 -0.047423188 0.18761113 0.106138445 0.002076521 -0.039029945
-0.13262868 0.0653974 -0.019114014 -0.11064645 0.055281993 -0.13639624 0.10636548 0.1397735
0.043827455 0.108095646 -0.04971263 -0.10806568 0.0039111287 0.16713612 -0.61321706 0.11567631
-0.12961489 -0.05103872 0.20728564 -0.09311671 0.07758895 0.15642975 -0.066009775 0.093595006
-0.15770465 0.27668515 0.076217234 -0.089784205 -0.17991118 -0.048898306 0.010278705 0.08844735
-0.11772939 -0.1340055 -0.031949252 0.11050675 0.08509561 0.03517318 0.0028316956 -0.17616512
0.060793586 -0.037119534 0.100201346 0.0568267 0.060792845 -0.08644653 0.0773278 -0.10562149
-0.014996456 0.019651594 0.016036117 -0.10109673 0.052935574 -0.14508905 -0.040028237 -0.08694791
0.056003388 -0.15674806 -0.040421788 0.13192241 -0.09882201 0.09976906 -0.005344249 -0.06641431
0.12156608 -0.0863451 0.031459507 -0.06223722 -0.05885408 0.030809669 0.028703865 -0.045070462
-0.024348654 -0.02289196 0.11999335 0.0123412805 0.094298296 -0.13726121 -0.056437634 0.078193106
-0.07955079 0.048361402 0.019899782 0.017345624 -0.050928447 -0.09582421 -0.09770188 0.068638496
0.02870081 -0.112878576 -0.0031912327 0.105569236 0.10580731 -0.10916102 -0.006769071 0.12462486
0.12284488 -0.016174423 0.012655949 -0.15460935 0.10871105 0.073191285 -0.119613215 -0.07153823
0.027659178 0.06327482 0.13253547 -0.04424744 0.13332458 -0.050057746 0.0010538904 -0.11749136
-0.053482257 0.12693453 -0.12599874 0.062050343 -0.089336224 0.033264145 -0.051327735 -0.05168227
-0.117666535 -0.025373893 0.03367043 -0.13072379 0.06869834 -0.087078206 0.081622116 0.13699242
00000000: 833f 3f3d 34b7 a03d 48e8 0c3e b167 1d3d
00000010: 2d02 fdbd 2648 8fba ff23 103e b7b3 963d
00000020: cf3a a23c 6b4e 01bd deb3 f4bd fece f0bd
00000030: 1879 a43c fb4a 7a3d c349 b43d fb5e babd
00000040: 0a6c 3dbd bf69 a13d 7f37 723d 2f54 013d
00000050: 093a 8a3d b4ab b43b 384b 063e b896 5ebd
00000060: 82a4 163d 94fa bebd 7366 bc3d 1ebb afbd
00000070: 935c 603d c6bc 853d 1e98 6ebd 8e86 3dbd
00000080: 7b4b c73d 4043 ff3d 6aed 80bc f4cb 8cbc
00000090: 19db 70b9 41bd 323d 5719 05bd 2f29 02be
000000a0: 4e92 5dbd e544 32bc a2fc 0abe 6551 11be
000000b0: a85b f33d 13d9 853d 14de 08be f1b0 47bd
000000c0: 44b1 89bb 1d70 bcbd e4e0 a23c 7518 e23d
000000d0: a298 123d 22ed 49bd 7520 1f3e 1c86 20be
000000e0: 6a8e 5dbd ce48 593b be9f ffbc 4bee 2a3e
000000f0: ff7a 003d 5f85 dabd 791e bb3d d469 06bc
00000100: 0eba 6bbf f252 23be a025 f43d e183 cb3d
00000110: b19f 913c 636c cdbd 552a a53d fdf3 183c
00000120: 82ff 49bb 111b 1ebe c326 f83d 44fe 123e
00000130: c69d b9bd 75db 08bd b337 febd 039d 02be
00000140: cfef 493d a89d f73d b8b5 90bd 7c27 1bbe
00000150: 0fa8 29bc c708 123e fa2a 243e 50fb bcbd
00000160: 7918 a23d 6de6 e9bd 8ddf d8bb 81cc 393d
00000170: a26d b2be a772 46bc 548a c43d cddf fc3d
00000180: a5fa 84be f8bb aabb 984e 983c aec3 a63d
00000190: 2cfd 8bbd 0817 133e a547 0a3e 126b e83d
000001a0: d4f2 3cbb 6e3e 0bbe 06e0 f63c 4c31 b6bd
000001b0: 6581 5fbd 9f2f 1bbd 08b4 69be 6956 58bd
000001c0: e59a b33c 2365 ed3c fe7f 9cbf 904c 983d
000001d0: 884d 493e c329 ccbd de57 a9bd 639e 2fbd
000001e0: e6d7 c5bd d5b9 593d a8fc 8abd d13e 42bd
000001f0: 221d 403e 1d5f d93d 3e16 083b dddd 1fbd
00000200: d0cf 07be 12ef 853d fe94 9cbc 9b9a e2bd
00000210: 5f6f 623d 75ab 0bbe 25d6 d93d c920 0f3e
00000220: 6b84 333d 4061 dd3d 799f 4bbd 8a51 ddbd
00000230: ed28 803b bb25 2b3e cbfb 1cbf b4e7 ec3d
00000240: c4b9 04be fa0d 51bd b042 543e f9b3 bebd
00000250: f5e6 9e3d 1f2f 203e 2230 87bd bdae bf3d
00000260: 547d 21be ada9 8d3e c817 9c3d c8e0 b7bd
00000270: a33a 38be 9749 48bd 0368 283c e223 b53d
00000280: 1b1c f1bd bd38 09be 38dd 02bd 5d51 e23d
00000290: 9b46 ae3d c111 103d f893 393b a164 34be
000002a0: b202 793d a70a 18bd 5d36 cd3d 1dc3 683d
000002b0: eb01 793d e10a b1bd 0a5e 9e3d 1450 d8bd
000002c0: b2b3 75bc 61fc a03c 2d5e 833c cd0b cfbd
000002d0: f9d2 583d 3992 14be a6f4 23bd bf11 b2bd
000002e0: cf63 653d 9082 20be 5191 25bd ab16 073e
000002f0: 3263 cabd b953 cc3d cf1e afbb 3a04 88bd
00000300: a3f7 f83d b3d5 b0bd afdb 003d 75ec 7ebd
00000310: fa10 71bd 8f64 fc3c 5e24 eb3c ce9b 38bd
00000320: d476 c7bc eb87 bbbc 13bf f53d 1533 4a3c
00000330: 771f c13d 348e 0cbe 262b 67bd b523 a03d
00000340: 86eb a2bd 9b16 463d de04 a33c 6918 8e3c
00000350: 599a 50bd 7c3f c4bd ec17 c8bd 5792 8c3d
00000360: f61d eb3c e22c e7bd 0024 51bb af34 d83d
00000370: 81b1 d83d d08f dfbd 15cf ddbb 523b ff3d
00000380: 1996 fb3d 3980 84bc e65a 4f3c ea51 1ebe
00000390: e6a3 de3d 50e5 953d c6f7 f4bd a382 92bd
000003a0: 8095 e23c 3b96 813d 61b7 073e ce3c 35bd
000003b0: 3d86 083e 5a09 4dbd b222 8a3a 4f9f f0bd
000003c0: 3610 5bbd 20fb 013e d005 01be 8028 7e3d
000003d0: e9f5 b6bd fc3f 083d 083d 52bd cab0 53bd
000003e0: 27fb f0bd e9dc cfbc 01ea 093d 75dc 05be
000003f0: b7b1 8c3d 0f56 b2bd 7f29 a73d be47 0c3e

bias f4 [50]
-0.09308987 -0.072187066 0.15255807 -0.13630784 0.023571631 -0.10402153 -0.03147462 -0.08835287
0.105988875 0.06750244 -0.16770846 0.12988238 -0.11882151 0.05727411 -0.016601864 -0.19033259
-0.006230541 0.09976217 0.013787935 0.0960242 -0.070698485 0.0125562865 0.013501682 0.04274387
0.13067943 -0.10603387 0.048357993 0.07679226 -0.026590712 -0.06823178 0.07373163 0.11270586
-0.037598565 -0.03523721 -0.15408115 0.00072869944 0.12381484 -0.07193465 0.12215251 0.1249805
0.08007354 0.121457934 0.026577078 0.08379437 -0.04442877 0.119397864 -0.16359144 -0.165638
0.07087375 -0.015517661
00000000: e7a5 bebd d0d6 93bd 2f38 1c3e 4894 0bbe
00000010: 4b19 c13c 3d09 d5bd 88eb 00bd 59f2 b4bd
00000020: b210 d93d b83e 8a3d c4bb 2bbe e3ff 043e
00000030: b158 f3bd 4298 6a3d a200 88bc 8ce6 42be
00000040: 9129 ccbb 1c50 cc3d cae6 613c 56a8 c43d
00000050: 5eca 90bd e2b8 4d3c 2936 5d3c 3214 2f3d
00000060: d4d0 053e 4928 d9bd 0813 463d 4345 9d3d
00000070: c4d4 d9bc 1abd 8bbd 9c00 973d 54d2 e63d
00000080: f400 1abd e554 10bd 73c7 1dbe 3106 3f3a
00000090: a392 fd3d 7952 93bd 182b fa3d c7f5 ff3d
000000a0: 99fd a33d f0be f83d 2cb8 d93c 629c ab3d
000000b0: f1fa 35bd de86 f43d 8484 27be 029d 29be
000000c0: 4226 913d ca3d 7ebc

weight f4 [29, 50]
-0.119810514 -0.059736997 0.020901872 0.1120409 0.11459821 0.104960844 -0.02282774 0.1022842
0.0869032 0.055279564 -0.0007695452 0.15673384 -0.12130363 -0.03689776 -0.10749846 0.0018212729
-0.12903526 0.005704027 -0.1426128 0.11858637 0.086500555 -0.10685008 0.05407746 0.06618758
0.10502308 -0.12805055 0.10261012 0.006826513 0.06394391 -0.084516406 -0.010100809 0.028896483
0.060274024 -0.03688586 0.0543325 0.07924921 -0.1037076 0.114504494 0.14599943 -0.12653393
-0.032755304 0.03049386 -0.17780453 0.023508165 -0.06761603 0.076909915 -0.115933225 -0.08941162
0.14442772 0.10565094 0.0255569 -0.16787896 -0.14653946 0.036031764 -0.12108802 -0.08243579
-0.13597305 0.07498207 -0.100407146 0.15410593 0.158724 0.058915626 -0.1215476 -0.04564562
-0.07412985 -0.024289723 -0.08318953 -0.030233739 0.0555765 -0.0038977317 -0.120142944 0.010963782
0.034870613 0.11239795 0.05306119 -0.040237833 0.08613534 0.027819391 -0.08163782 0.035940826
-0.09823518 -0.04126533 -0.029628545 0.028560864 0.09508138 -0.03126145 0.08952905 -0.029505555
0.14100495 -0.007079076 -0.050519437 -0.017386548 -0.17696318 -0.0035859365 0.029631885 -0.08128317
0.044466592 -0.07404729 0.13341583 -0.039615475 0.002777788 -0.16744687 -0.13959636 -0.013361211
0.11748728 -0.079815865 0.06159285 0.024681808 -0.16171947 0.13146648 0.027554868 -0.09617128
0.02638065 -0.13647966 -0.08512076 -0.1183874 0.040173378 0.06492658 0.1350761 0.06882544
0.054855775 0.120377384 0.028828066 0.09617232 -0.08484921 0.07042996 0.07520103 -0.036746282
0.08004499 0.06640564 -0.02614251 -0.116655774 -0.034317583 -0.10771986 0.09321831 0.017991384
-0.096098535 -0.03720471 0.19069633 -0.14748801 0.093680106 0.10640308 -0.041261215 -0.010706723
0.03175877 0.097618744 0.124433726 -0.09558435 -0.10461198 0.12826854 0.11805526 -0.019901816
-0.07819185 -0.0985366 -0.181958 -0.0031973107 -0.13649875 -0.061305456 0.07436242 -0.12115074
0.04928295 -0.17758147 0.13878453 -0.04887253 0.073349796 0.004567604 0.08528145 -0.14659347
-0.018562933 -0.22335531 -0.12643915 -0.17264488 0.07308759 -0.1263518 -0.17120765 -0.10416797
-0.21740478 0.074344106 -0.15677062 -0.1980492 0.08617563 -0.096960604 -0.13217045 0.035544157
-0.14236045 -0.14203115 0.007816723 -0.13915911 0.14318284 -0.03459136 -0.032881774 0.057814654
-0.020282993 -0.04123696 -0.12576099 -0.17575225 -0.066074334 -0.05754061 -0.24055453 -0.092900634
0.003645699 -0.15053931 -0.038928244 0.07287692 0.09562138 0.106627285 -0.16531287 0.07660487
-0.0608446 0.018311318 0.0283556 -0.05415683 -0.026190903 0.07118399 0.13670616 0.0741009
0.12410123 0.118974954 -0.13711539 0.09145691 -0.039552458 0.059895277 0.033529602 -0.025995132
0.062216055 -0.026176734 0.055406608 -0.0732976 0.036064938 -0.028217815 -0.1635344 -0.04153652
-0.13985202 -0.068907164 0.12581998 0.054010015 -0.07489407 0.034109753 -0.056857362 -0.17241342
-0.071007974 -0.058100745 -0.07343169 0.10191302 -0.14890279 0.028069476 -0.043723453 -0.00614657
-0.05679174 0.004761653 0.04354747 -0.094650984 -0.14661472 -0.07507539 -0.118271664 -0.01191038
00000000: 375f f5bd c8ae 74bd 673a ab3c b375 e53d
00000010: 77b2 ea3d b6f5 d63d 3e01 bbbc 617a d13d
00000020: 4efa b13d d36c 623d 4ebb 49ba d67e 203e
00000030: 0a6e f8bd 1b22 17bd 2728 dcbd c7b7 ee3a
00000040: d221 04be d9e8 ba3b 1709 12be 69dd f23d
00000050: 3427 b13d 37d4 dabd 5480 5d3d 5b8d 873d
00000060: 5716 d73d af1f 03be 4125 d23d f1b0 df3b
00000070: 06f5 823d f016 adbd dd7d 25bc 51b8 ec3c
00000080: e5e1 763d a115 17bd c18b 5e3d 694d a23d
00000090: a664 d4bd 5581 ea3d e080 153e 1c92 01be
000000a0: 6d2a 06bd 42ce f93c 6412 36be 3294 c03c
000000b0: 467a 8abd f282 9d3d 666e edbd 701d b7bd
000000c0: dce4 133e 855f d83d b45c d13c 76e8 2bbe
000000d0: 710e 16be 0b96 133d fffc f7bd 18d4 a8bd
000000e0: 853c 0bbe 3390 993d 43a2 cdbd f2cd 1d3e
000000f0: 8b88 223e 8351 713d f3ed f8bd e7f6 3abd
00000100: 64d1 97bd 3efb c6bc 465f aabd bfac f7bc
00000110: 2fa4 633d 1671 7fbb 810d f6bd 6fa1 333c
00000120: 7dd4 0e3d e530 e63d b156 593d 6dd0 24bd
00000130: ba67 b03d 7ee5 e33c bb31 a7bd b036 133d
00000140: 872f c9bd d605 29bd 90b7 f2bc 79f8 e93c
00000150: 07ba c23d 020c 00bd 025b b73d a2b5 f1bc
00000160: 9a63 103e 98f7 e7bb 78ed 4ebd 3c6e 8ebc
00000170: d635 35be 0802 6bbb 91be f23c ca77 a6bd
00000180: 9a22 363d 1ba6 97bd 299e 083e d643 22bd
00000190: 8d0b 363b 3177 2bbe 59f2 0ebe fbe8 5abc
000001a0: 2c9d f03d 8076 a3bd c948 7c3d 8131 ca3c
000001b0: ca99 25be 269f 063e bfba e13c 73f5 c4bd
000001c0: 3c1c d83c 53c1 0bbe cb53 aebd 1875 f2bd
000001d0: d78c 243d 3af8 843d 6451 0a3e 5af4 8c3d
000001e0: 73b0 603d 6b88 f63d d628 ec3c fef5 c43d
000001f0: 6cc5 adbd 953d 903d ff02 9a3d 4583 16bd
00000200: a1ee a33d aeff 873d d128 d6bc 39e9 eebd
00000210: 9890 0cbd 3b9c dcbd 3ee9 be3d ab62 933c
00000220: 4fcf c4bd f763 18bd e645 433e 1907 17be
00000230: 5bdb bf3d dce9 d93d 8501 29bd 406b 2fbc
00000240: 7c15 023d 56ec c73d 1cd7 fe3d bac1 c3bd
00000250: ce3e d6bd d458 033e f5c6 f13d 2209 a3bc
00000260: 0c23 a0bd 8fcd c9bd 3353 3abe f989 51bb
00000270: 54c6 0bbe 6e1b 7bbd 534b 983d e11d f8bd
00000280: ebdc 493d ebd7 35be 881d 0e3e 902e 48bd
00000290: 6b38 963d d7ab 953b 0aa8 ae3d 991c 16be
000002a0: 4b11 98bc 41b7 64be 4479 01be d2c9 30be
000002b0: f2ae 953d 5e62 01be 0f51 2fbe 0456 d5bd
000002c0: 5c9f 5ebe b941 983d 7a88 20be 69cd 4abe
000002d0: d97c b03d 4893 c6bd b157 07be c096 113d
000002e0: f0c6 11be 9d70 11be b611 003c ba7f 0ebe
000002f0: 869e 123e abaf 0dbd 0aaf 06bd 0fcf 6c3d
00000300: 8528 a6bc 16e8 28bd 7dc7 00be 66f8 33be
00000310: fb51 87bd b4af 6bbd ed53 76be b042 bebd
00000320: aeec 6e3b fa26 1abe 3973 1fbd 7f40 953d
00000330: 24d5 c33d 685f da3d c747 29be 04e3 9c3d
00000340: 3038 79bd 9e01 963c 014a e83c 8dd3 5dbd
00000350: 4e8e d6bc e9c8 913d b3fc 0b3e 36c2 973d
00000360: c928 fe3d 24a9 f33d fa67 0cbe c34d bb3d
00000370: c201 22bd c054 753d 5656 093d bef3 d4bc
00000380: 43d6 7e3d 9770 d6bc 0af2 623d 0d1d 96bd
00000390: d4b8 133d 0c29 e7bc 9075 27be 3322 2abd
000003a0: 5e35 0fbe 331f 8dbd f4d6 003e 9b39 5d3d
000003b0: 1062 99bd abb6 0b3d 44e3 68bd 258d 30be
000003c0: a16c 91bd 0cfb 6dbd 5b63 96bd c6b7 d03d
000003d0: f979 18be f5f1 e53c 5d17 33bd 2b69 c9bb
000003e0: 759e 68bd a407 9c3b d55e 323d 60d8 c1bd
000003f0: 2b22 16be 20c1 99bd 6a38 f2bd c123 43bc

bias f4 [29]
-0.06461357 0.1270894 0.06268311 -0.058589548 -0.15219563 -0.06937721 -0.13974188 -0.073874034
0.1264457 -0.0085286265 -0.12704843 -0.024461806 -0.0024281628 0.0141478535 -0.118088245 0.054674737
0.09114747 -0.08953542 -0.0064425906 -0.1622201 -0.03782493 0.04056206 -0.1266252 -0.06937841
-0.12614466 -0.17738168 -0.4851001 -0.09926627 -0.2978046
00000000: 1f54 84bd b923 023e 0160 803d 98fb 6fbd
00000010: 2cd9 1bbe a415 8ebd 7f18 0fbe 454b 97bd
00000020: fb7a 013e a7bb 0bbc fc18 02be 2064 c8bc
00000030: d021 1fbb 66cc 673c 40d8 f1bd 9ef2 5f3d
00000040: 86ab ba3d 595e b7bd 5e1c d3bb 071d 26be
00000050: 50ee 1abd 6724 263d 09aa 01be 4516 8ebd
00000060: 112c 01be 8ba3 35be 0a5f f8be 1d4c cbbd
00000070: d879 98be

weight f4 [50, 3]
-0.29724887 0.46763805 -0.6426692 -0.44949707 0.5164221 0.20623414 -0.3678156 0.31282997
0.21034957 0.35656217 -0.2543215 0.29773352 -0.5588719 -0.13595319 -0.46949515 0.19943172
0.07471586 0.04782405 -0.22075725 0.005858983 0.43157053 0.25316283 0.06276538 0.2294926
-0.36843565 -0.30917376 -0.3137395 -0.52780557 0.11619745 -0.147611 -0.25187016 0.14250153
-0.14170611 0.11147335 0.5115345 0.24651314 0.532973 -0.057975072 0.35971662 0.118933015
-0.12361305 -0.5261316 0.47409254 -0.060195472 0.030843312 -0.20987742 0.44548172 -0.5519808
0.023773562 -0.0028224168 -0.42060992 -0.6038221 -0.20085491 -0.30329555 0.037707157 0.30288205
-0.085549794 0.44411272 0.19462845 -0.5980443 0.21516095 0.49723658 -0.07744415 -0.5572224
-0.11947697 0.2975621 -0.26090607 0.44629273 0.5121077 -0.4678911 0.28926742 0.48143014
-0.19194786 0.3776968 0.045112006 -0.45376933 0.34852767 0.023158541 -0.507732 0.41758
-0.13887192 0.21605732 -0.27225578 0.4447286 -0.50890654 0.41501072 0.21370897 -0.4790301
-0.17119989 -0.3125835 0.002522078 0.35101414 -0.34798098 0.108518064 -0.4369362 0.5509833
-0.2059981 0.14688681 0.120418064 -0.12775977 0.07965108 -0.46352383 0.13198066 0.2668118
-0.049946558 0.4889999 -0.12846649 -0.073530704 0.36923575 -0.057009794 -0.47193953 0.12493493
0.10057622 -0.5560887 0.4566477 -0.009234077 0.46947455 -0.5729186 0.22844623 -0.47248414
-0.032828722 -0.4397347 -0.2685866 -0.28407854 0.15598567 -0.33602142 -0.6202694 -0.23552494
-0.5004495 0.53897774 -0.06783806 0.25759313 -0.19035774 0.22647558 -0.41941196 0.20080861
0.5233374 0.47008947 0.11547846 -0.4984242 0.48226485 -0.012431112 0.57117593 0.15835752
0.24647394 0.38264805 -0.12388139 0.05419799 -0.45549485 -0.05605588
00000000: 0131 98be 416e ef3e f885 24bf 7b24 e6be
00000010: 3d34 043f 0b2f 533e 5452 bcbe 402b a03e
00000020: e165 573e 518f b63e 6d36 82be 8770 983e
00000030: 3b12 0fbf 5037 0bbe ab61 f0be d437 4c3e
00000040: a104 993d 27e3 433d 300e 62be b6fc bf3b
00000050: d0f6 dc3e 8f9e 813e 238b 803d 1c00 6b3e
00000060: 99a3 bcbe 064c 9ebe 77a2 a0be 441e 07bf
00000070: eef8 ed3d 5727 17be 20f5 80be eceb 113e
00000080: 681b 11be 244c e43d edf3 023f f16d 7c3e
00000090: eb70 083f 4577 6dbd c72c b83e 2793 f33d
000000a0: d728 fdbd 8fb0 06bf 42bc f23e 878f 76bd
000000b0: 1dab fc3c 1bea 56be 2e16 e43e 9d4e 0dbf
000000c0: c6c0 c23c 4cf8 38bb 2f5a d7be 1694 1abf
000000d0: e9ac 4dbe 8e49 9bbe d272 1a3d 5b13 9b3e
000000e0: bb34 afbd be62 e33e ae4c 473e 6e19 19bf
000000f0: 2753 5c3e cb95 fe3e 0a9b 9ebd 21a6 0ebf
00000100: 57b0 f4bd 0f5a 983e 7b95 85be 7b80 e43e
00000110: 7d19 033f 6c8f efbe dc1a 943e 037e f63e
00000120: fb8d 44be 7a61 c13e 5ec7 383d 7454 e8be
00000130: 3872 b23e fbb6 bd3c b9fa 01bf 0ccd d53e
00000140: 7134 0ebe 213e 5d3e 1c65 8bbe 78b3 e33e
00000150: b347 02bf 497c d43e 86d6 5a3e 6f43 f5be
00000160: 064f 2fbe f20a a0be 7349 253b 20b8 b33e
00000170: 902a b2be b83e de3d 1ab6 dfbe 3e0d 0d3f
00000180: 2af1 52be 7f69 163e bf9d f63d 75d3 02be
00000190: 1b20 a33d ff52 edbe f025 073e 8e9b 883e
000001a0: c394 4cbd 325e fa3e b88c 03be 4497 96bd
000001b0: 780c bd3e 1a83 69bd 0fa2 f1be e2dd ff3d
000001c0: e8fa cd3d d45b 0ebf bacd e93e 874a 17bc
000001d0: f85e f03e cbaa 12bf cfed 693e 71e9 f1be
000001e0: 6977 06bd e824 e1be 2f84 89be be72 91be
000001f0: b5ba 1f3e 000b acbe fac9 1ebf 732d 71be
00000200: 751d 00bf 72fa 093f aeee 8abd 3fe3 833e
00000210: 24ed 42be 37e9 673e 2abd d6be c6a0 4d3e
00000220: 71f9 053f 91af f03e f97f ec3d 7531 ffbe
00000230: 6beb f63e ddab 4bbc 9638 123f 7928 223e
00000240: aa63 7c3e 72ea c33e 87b5 fdbd b6fe 5d3d
00000250: 9f36 e9be da9a 65bd

bias f4 [50]
-0.25053748 0.016853012 0.09058501 -0.08433575 -0.13692029 0.24196811 0.48546922 -0.39932698
-0.4307042 0.49248287 0.5926657 -0.02638499 0.10815739 0.25331423 -0.22689205 -0.34062678
-0.04791453 -0.2626481 -0.19861762 -0.6067258 0.18002965 0.26535642 -0.3326841 -0.03949957
-0.34459284 -0.5822555 0.0053985626 0.14980906 -0.5343614 -0.45995566 0.399206 -0.16046059
0.26825154 -0.20695804 -0.4687791 0.0697547 0.21313043 0.08902369 -0.24399598 -0.25045264
0.18515007 -0.17344557 -0.6612675 -0.34759754 -0.52133405 -0.58577585 0.2446508 0.4972416
-0.31640953 0.6300706
00000000: 7346 80be 540f 8a3c a284 b93d 39b8 acbd
00000010: d534 0cbe 7dc6 773e 6c8f f83e 9674 ccbe
00000020: 4385 dcbe b726 fc3e f0b8 173f 5625 d8bc
00000030: 9f81 dd3d 67b2 813e 6456 68be a266 aebe
00000040: 0742 44bd d079 86be 6b62 4bbe 6252 1bbf
00000050: b159 383e ccdc 873e 9255 aabe 4dca 21bd
00000060: 796e b0be b20e 15bf 6de6 b03b 8c67 193e
00000070: e9cb 08bf 4f7f ebbe bb64 cc3e c84f 24be
00000080: 4458 893e cfec 53be d003 f0be 8ddb 8e3d
00000090: dd3e 5a3e 0d52 b63d 15da 79be 543b 80be
000000a0: fb97 3d3e b79b 31be d448 29bf 4ef8 b1be
000000b0: 2676 05bf 68f5 15bf bd85 7a3e 7396 fe3e
000000c0: 6e00 a2be 4f4c 213f

weight f4 [50, 50]
-0.08923854 0.02704333 -0.058776278 -0.07067657 0.096135244 0.1187022 -0.0024852273 -0.01282715
0.006170248 -0.025593348 -0.075873256 0.09169873 0.054057814 -0.042785283 0.0079700025 0.08440841
0.028072596 0.06420843 -0.06998807 0.07586721 0.00504079 -0.08275723 0.12705424 -0.039176404
0.097834826 0.073953755 -0.030254781 -0.029478418 -0.0063414173 0.085883245 0.0180842 0.09053904
-0.14182869 -0.06463215 -0.12672898 -0.029673008 -0.089846164 0.09534526 -0.09773445 -0.06129725
-0.07687781 -0.033862703 -0.037055425 -0.087223954 0.10241378 -0.05590072 -0.12912723 -0.07312201
0.07934033 -0.03157106 -0.34151775 -0.09468725 -0.19100663 0.010331104 -0.07232327 0.06984036
0.059840485 0.077007554 0.074070156 -0.10463781 -0.046722617 0.03539489 0.12489952 0.01983163
0.22712766 -0.253055 0.32731688 -0.07557712 0.12761153 -0.08557512 -0.044132594 -0.05004696
-0.06403147 -0.12675923 0.21802124 -0.043565452 0.22185749 -0.014994948 0.19101806 -0.07046482
-0.04506688 0.0672624 -0.077823274 -0.044338357 -0.025768934 0.18273993 0.13166566 0.059598394
0.19846208 0.07226239 -0.3631394 -0.09719696 -0.12845902 0.07950702 0.038338732 0.109254286
-0.050628837 0.050725773 0.15211922 -0.023631677 -0.03730352 -0.040126134 -0.11468908 -0.019233514
0.15431708 -0.020474637 -0.08539196 0.19759966 -0.05252742 -0.042827602 0.04963883 0.09495178
-0.034197938 0.05251801 0.31815964 -0.04373006 -0.05021143 -0.002901178 -0.038576134 -0.05356933
-0.0030475974 0.07484419 -0.035882756 -0.014095601 -0.039099857 -0.016604958 -0.030167766 0.13609213
0.051044933 -0.05496919 0.119054705 -0.030145315 -0.08448844 -0.016446594 0.3059231 0.12557085
-0.06705814 -0.040115163 -0.056483146 -0.032696355 0.067555696 0.0036558846 0.04324324 0.12808621
-0.010019217 0.056212723 -0.0098766545 -0.06612768 0.16969179 0.108774826 -0.10420587 -0.10152087
0.10973806 0.03324556 -0.070972055 -0.006606589 0.060688537 0.1273831 -0.36901453 -0.001230756
0.05832173 -0.13326342 0.108353466 0.011133198 -0.082122795 -0.09004835 0.5139229 -0.1285117
-0.17358343 -0.07769546 -0.020036953 -0.10136804 0.06985938 0.064802386 -0.18074018 -0.17243984
0.0055185324 0.07236711 -0.032864638 -1.0942731 0.0688263 0.021226363 0.13882984 0.49531186
-0.053408455 0.15670474 0.082587235 0.12754293 0.007798774 -0.16694683 0.11636108 -0.061052207
-0.6852642 0.13844459 0.042257562 0.121769615 -0.078275874 0.034202464 0.036794223 0.21181239
0.036867652 0.10183928 0.10488248 -0.2335121 0.08996567 0.07758319 0.13136062 -0.61648524
-0.036411416 0.021043452 0.023948796 -0.2949782 -0.1615493 0.13001695 0.010571492 -0.04600245
0.13005978 -0.081351325 -0.40814704 0.20635483 -0.27071205 -0.014125243 -0.11862833 0.20381224
-0.042311274 -0.16969198 -0.09980288 0.12638304 -0.3320905 0.12271105 0.068040825 0.07953205
0.036323566 0.11719839 0.0875727 -0.20389883 0.14067511 0.035500627 -0.20924547 -0.003514379
-0.015901051 0.12830733 -0.0024640989 -0.5910152 -0.07449844 -0.30628768 0.07788229 0.13104323
-0.25417897 0.057128444 -0.30197364 -0.15805186 0.041353893 0.021808745 0.047969993 0.11692465
00000000: b2c2 b6bd f989 dd3c 65bf 70bd e1be 90bd
00000010: 8ee2 c43d 241a f33d 32df 22bb f728 52bc
00000020: cb2f ca3b 24a9 d1bc 7063 9bbd 8bcc bb3d
00000030: ba6b 5d3d 9f3f 2fbd 9d94 023c 51de ac3d
00000040: 80f8 e53c b67f 833d e855 8fbd 4560 9b3d
00000050: 362d a53b 9f7c a9bd 821a 023e 7077 20bd
00000060: a05d c83d 1175 973d e0d8 f7bc b97c f1bc
00000070: aacb cfbb 8ee3 af3d 5125 943c 886c b93d
00000080: 8a3b 11be dc5d 84bd 3ec5 01be cf14 f3bc
00000090: 4401 b8bd 6044 c33d 0029 c8bd d312 7bbd
000000a0: 1d72 9dbd 9eb3 0abd 6ec7 17bd 79a2 b2bd
000000b0: 51be d13d 27f8 64bd ee39 04be fec0 95bd
000000c0: 2f7d a23d a850 01bd 6adb aebe 64eb c1bd
000000d0: 3e97 43be ca43 293c 391e 94bd 7608 8f3d
000000e0: 4c1b 753d 23b6 9d3d 18b2 973d 594c d6bd
000000f0: 3760 3fbd 3bfa 103d 52cb ff3d f175 a23c
00000100: 2794 683e 6d90 81be 1496 a73e 2dc8 9abd
00000110: 99ac 023e 0242 afbd 61c4 34bd 0bfe 4cbd
00000120: ee22 83bd 2ccd 01be f640 5f3e b071 32bd
00000130: 9c2e 633e 5fad 75bc 3d9a 433e dc4f 90bd
00000140: 0c98 38bd dfc0 893d cf61 9fbd 239c 35bd
00000150: 5f19 d3bc 2d20 3b3e 5dd3 063e 721d 743d
00000160: a539 4b3e 4efe 933d 68ed b9be 330f c7bd
00000170: c38a 03be 94d4 a23d 1309 1d3d b6c0 df3d
00000180: 2f60 4fbd d4c5 4f3d 24c5 1b3e 3897 c1bc
00000190: 93cb 18bd 4d5b 24bd 1ce2 eabd 9a8f 9dbc
000001a0: 4c05 1e3e 6dba a7bc fbe1 aebd 9157 4a3e
000001b0: fe26 57bd ff6b 2fbd 1652 4b3d 1476 c23d
000001c0: 2313 0cbd 201d 573d d2e5 a23e 4b1e 33bd
000001d0: 80aa 4dbd b121 3ebb 0202 1ebd 846b 5bbd
000001e0: 33ba 47bb e947 993d ccf9 12bd 3cf1 66bc
000001f0: 2c27 20bd 1f07 88bc 6422 f7bc bc5b 0b3e
00000200: 7e14 513d 6027 61bd f4d2 f33d 4ff3 f6bc
00000210: 4608 adbd 02bb 86bc f4a1 9c3e a595 003e
00000220: c755 89bd cc4f 24bd df5a 67bd 9dec 05bd
00000230: a45a 8a3d 9197 6f3b d31f 313d 0829 033e
00000240: a427 24bc 503f 663d b1d1 21bc f36d 87bd
00000250: afc3 2d3e 56c5 de3d e369 d5bd 2dea cfbd
00000260: 59be e03d 7f2c 083d cc59 91bd 167c d8bb
00000270: 8b94 783d b770 023e 79ef bcbe 5251 a1ba
00000280: c4e2 6e3d 3576 08be 6ce8 dd3d 0468 363c
00000290: ff2f a8bd 456b b8bd 7490 033f 9298 03be
000002a0: dbbf 31be cc1e 9fbd 8924 a4bc 0c9a cfbd
000002b0: 6f12 8f3d 1db7 843d f413 39be 1294 30be
000002c0: ced4 b43b 3535 943d 129d 06bd 2411 8cbf
000002d0: cef4 8c3d e9e2 ad3c 6929 0e3e 8499 fd3e
000002e0: d3c2 5abd 3577 203e 7f23 a93d 9d9a 023e
000002f0: dc8c ff3b 1cf4 2abe b84e ee3d e111 7abd
00000300: 7a6d 2fbf 6bc4 0d3e 4416 2d3d 5962 f93d
00000310: 1a4f a0bd e217 0c3d 8ab5 163d 59e5 583e
00000320: 8902 173d 1d91 d03d a0cc d63d cc1d 6fbe
00000330: ec3f b83d efe3 9e3d 6683 063e fad1 1dbf
00000340: 2324 15bd 5163 ac3c 4430 c43c 6207 97be
00000350: 2e6d 25be 2a23 053e 0d34 2d3c 116d 3cbd
00000360: 642e 053e 869b a6bd a6f8 d0be ae4e 533e
00000370: c59a 8abe 906d 67bc 69f3 f2bd 28b4 503e
00000380: 964e 2dbd bcc3 2dbe 7465 ccbd 8e6a 013e
00000390: c407 aabe ee4f fb3d fd58 8b3d b3e1 a23d
000003a0: 05c8 143d b605 f03d 5159 b33d dbca 50be
000003b0: 230d 103e 1b69 113d 7244 56be 7f51 66bb
000003c0: ec42 82bc ff62 033e b87c 21bb c64c 17bf
000003d0: a392 98bd bdd1 9cbe c080 9f3d 3230 063e
000003e0: bf23 82be 84ff 693d 4a9c 9abe 59d8 21be
000003f0: b362 293d 41a8 b23c 2f7c 443d 3176 ef3d

bias f4 [50]
-0.01585207 -0.1593455 0.1253534 -0.0670795 -0.04299937 -0.02698695 0.018983414 0.00027138068
-0.074959576 -0.0075556766 -0.057608273 -0.1292125 -0.058704626 -0.0649842 0.20836435 -0.043421105
-0.019564046 -0.101933554 -0.12318943 0.13644096 0.10242356 -0.07634017 -0.11389001 0.03306439
0.10667959 0.05673772 0.16885774 -0.005527931 -0.023750633 0.04344325 0.020122798 -0.0022183168
0.03436592 0.081105076 0.20048861 0.026593769 0.013855127 0.05811258 0.065795265 0.008894454
-0.0076261656 -0.10123653 0.12595047 0.14094499 -0.08566854 0.15392181 0.17899139 0.10762652
0.036109135 -0.035402797
00000000: 33dc 81bc 772b 23be a45c 003e fa60 89bd
00000010: 1b20 30bd bc13 ddbc 1b83 9b3c 1948 8e39
00000020: 6884 99bd 9c95 f7bb a7f6 6bbd 4850 04be
00000030: 4374 70bd 7016 85bd 775d 553e 54da 31bd
00000040: c744 a0bc 8ac2 d0bd bd4a fcbd 2eb7 0b3e
00000050: 72c3 d13d 3c58 9cbd 2a3f e9bd 876e 073d
00000060: d47a da3d d065 683d 0be9 2c3e a523 b5bb
00000070: b090 c2bc 8df1 313d 91d8 a43c 2e61 11bb
00000080: 47c3 0c3d 6b1a a63d e34c 4d3e 2ddb d93c
00000090: 9d00 633c 7507 6e3d abbf 863d 0bba 113c
000000a0: eae4 f9bb 1955 cfbd 29f9 003e e253 103e
000000b0: fd72 afbd ae9d 1d3e 8549 373e 4b6b dc3d
000000c0: 2ce7 133d 8602 11bd

weight f4 [29, 50]
-0.014517927 0.0326505 0.10803483 -0.032480888 0.031358477 -0.011032232 -0.057824034 0.010897808
-0.12784779 0.002003537 0.09295722 0.06032477 -0.07315109 -0.00751958 0.1566954 -0.13108118
0.013098395 -0.001780047 0.04370345 0.037481096 0.055058055 -0.071076415 0.01544205 -0.054682996
0.21346521 0.11539706 0.020216307 -0.03589206 0.07647758 -0.2650193 -0.122660376 -0.09311413
0.0043796147 0.15461509 0.07058851 0.013589671 0.0058988193 0.04360291 0.079038695 0.08026144
-0.119252004 0.07816128 0.08413931 -0.09868254 0.0002117157 0.10263142 -0.018048732 -0.101221256
-0.06571256 -0.10093344 -0.060534555 -0.019299041 0.06271966 -0.076359764 0.09127577 -0.1534654
0.0677112 0.0065181893 -0.10079807 0.09882067 0.17049922 0.009232503 0.0047516157 -0.019530311
0.0074877627 -0.17745216 -0.07274368 0.051133335 0.0034306678 -0.017585132 0.021414176 -0.09068598
-0.1021017 0.07433242 0.12974663 -0.14211155 0.19082458 0.0784762 -0.07905841 -0.1969674
-0.12719183 -0.023277255 -0.04583068 0.046691436 0.0034459224 0.0484205 -0.100333236 0.06968932
0.033142556 -0.037415914 -0.020342574 -0.015807629 0.15154365 0.17396398 0.03185374 -0.009562875
0.07640723 0.15310766 0.07949684 0.0062327143 0.07874874 0.042088997 0.13417758 0.11269808
0.07280021 0.010163577 0.14996244 0.025784276 -0.0446751 0.0049319933 0.04910356 -0.09044696
-0.05189182 -0.0036266258 0.096994385 0.062209345 -0.071966685 -0.012137079 -0.10269204 -0.028786443
0.17220369 0.0720974 0.068949305 -0.03810634 0.04047835 0.05580855 0.13365474 0.003115563
-0.11610376 -0.2541902 -0.13188815 0.09275687 0.02810648 -0.04489585 -0.11257398 -0.038796633
0.13813706 -0.0004279352 0.01765324 0.062044553 0.049115032 0.007388489 0.06746553 -0.07079716
0.1457518 0.048646882 0.1047154 -0.0069352235 0.028450869 0.120937586 0.021993961 -0.08420688
-0.10134644 -0.05154888 -0.20041838 0.08926346 0.10665309 0.017983908 -0.10301637 -0.10506642
0.08572025 -0.01643594 -0.002951673 -0.019663703 0.12994649 -0.17997943 0.10319259 0.13490622
0.024235947 -0.11023404 0.05049162 0.1378156 -0.119383894 0.10610425 0.101222664 -0.10521557
0.045119703 -0.1852012 -0.10423097 -0.55055064 -0.057697654 0.014944427 0.08760296 0.10084535
-0.20680055 -0.17975087 -0.10916426 -0.10554743 0.11038447 -0.109096736 -0.07839371 -0.26783314
0.07105902 0.063111655 -0.034469966 -0.07986831 -0.15359698 -0.08217679 -0.18306473 0.12401593
-0.098574 0.081716284 -0.13804872 -0.010648053 -0.046852313 -0.009082768 -0.115671985 0.100754686
0.051947687 0.122229755 -0.09579069 0.050074454 0.022195386 -0.13962701 -0.1166363 0.0725646
-0.0970676 -0.09992885 0.0547337 0.030946085 0.04079844 -0.12689635 -0.02174383 0.12753573
-0.010123945 0.059152048 -0.02515955 -0.06400931 -0.14426926 0.1856597 0.0014774011 -0.007994484
0.07505128 0.08012765 0.13312477 -0.011247664 0.051910352 0.06257139 -0.09166147 0.015796445
-0.09401068 -0.11533939 0.03696458 0.082229346 0.02101746 0.061282497 -0.12711845 -0.1302792
0.01199114 0.029303756 0.09799134 0.06938274 0.1076192 -0.030067733 0.03346826 -0.026661826
00000000: 99dc 6dbc 88bc 053d 5d41 dd3d ae0a 05bd
00000010: bf71 003d 89c0 34bc e5d8 6cbd b88c 323c
00000020: 88ea 02be c64d 033b 5b60 be3d 1b17 773d
00000030: 3dd0 95bd cf66 f6bb c274 203e 253a 06be
00000040: a79a 563c 7750 e9ba 6402 333d c785 193d
00000050: 8e84 613d 8390 91bd a700 7d3c 47fb 5fbd
00000060: a096 5a3e 4b55 ec3d ab9c a53c 8d03 13bd
00000070: 47a0 9c3d 9cb0 87be 5d35 fbbd 9fb2 bebd
00000080: df82 8f3b 6b53 1e3e b590 903d 36a7 5e3c
00000090: e24a c13b f798 323d 0adf a13d 1c60 a43d
000000a0: 653a f4bd 0513 a03d 3b51 ac3d 121a cabd
000000b0: 0000 5e39 6c30 d23d efda 93bc 174d cfbd
000000c0: 4f94 86bd 31b6 cebd 15f3 77bd 0619 9ebc
000000d0: 2a73 803d 8262 9cbd caee ba3d 0926 1dbe
000000e0: 2bac 8a3d 8996 d53b 386f cebd 7e62 ca3d
000000f0: 5997 2e3e ed43 173c 71b3 9b3b 08fe 9fbc
00000100: e85b f53b 05b6 35be a3fa 94bd 3071 513d
00000110: 0ed5 603b b20e 90bc c86c af3c 92b9 b9bd
00000120: b21a d1bd 993b 983d 4ddc 043e b185 11be
00000130: 8567 433e 21b8 a03d 60e9 a1bd d2b1 49be
00000140: 933e 02be f1af bebc f3b8 3bbd 853f 3f3d
00000150: fcd4 613b 9354 463d 837b cdbd 46b9 8e3d
00000160: 7dc0 073d 6e41 19bd 78a5 a6bc 007f 81bc
00000170: 422e 1b3e 9d23 323e 1179 023d 9bad 1cbc
00000180: 657b 9c3d 41c8 1c3e 3dcf a23d cc3b cc3b
00000190: 0547 a13d 8365 2c3d d965 093e 40ce e63d
000001a0: 4718 953d 2285 263c c18f 193e 8c39 d33c
000001b0: 3dfd 36bd 8f9c a13b d120 493d 413c b9bd
000001c0: 848c 54bd afac 6dbb fea4 c63d 3acf 7e3d
000001d0: 4563 93bd 99da 46bc 3450 d2bd 8cd1 ebbc
000001e0: 2a56 303e cda7 933d 4b35 8d3d 6515 1cbd
000001f0: a0cc 253d 8297 643d cadc 083e 792e 4c3b
00000200: cfc7 edbd 3825 82be b00d 07be 50f7 bd3d
00000210: 903f e63c b6e4 37bd 308d e6bd 38e9 1ebd
00000220: cd73 0d3e 7e5c e0b9 879d 903c 6e22 7e3d
00000230: d82c 493d 231b f23b 5e2b 8a3d 1afe 90bd
00000240: f63f 153e f441 473d 0775 d63d df40 e3bb
00000250: cc11 e93c 20ae f73d ae2c b43c a874 acbd
00000260: b98e cfbd eb24 53bd 7a3a 4dbe c3cf b63d
00000270: ef6c da3d fd52 933c 3ffa d2bd 102d d7bd
00000280: 198e af3d aaa4 86bc db70 41bb c615 a1bc
00000290: b110 053e 874c 38be a356 d33d db24 0a3e
000002a0: 778a c63c 62c2 e1bd 4dd0 4e3d 881f 0d3e
000002b0: 8b7f f4bd 2f4d d93d d44d cf3d 437b d7bd
000002c0: 70cf 383d 62a5 3dbe 0c77 d5bd e3f0 0cbf
000002d0: 6054 6cbd 78d9 743c 2e69 b33d 0288 ce3d
000002e0: 86c3 53be 9d10 38be 8391 dfbd 4029 d8bd
000002f0: 4111 e23d 1c6e dfbd e28c a0bd 6d21 89be
00000300: 6487 913d af40 813d 6130 0dbd ff91 a3bd
00000310: 8748 1dbe 4e4c a8bd 5275 3bbe 10fc fd3d
00000320: 2ae1 c9bd de5a a73d a55c 0dbe 2c75 2ebc
00000330: 36e8 3fbd e4cf 14bc 6fe5 ecbd 7958 ce3d
00000340: 19c7 543d 9853 fa3d e92d c4bd df1a 4d3d
00000350: 19d3 b53c 62fa 0ebe 03df eebd c09c 943d
00000360: 61cb c6bd 7fa7 ccbd 7230 603d a582 fd3c
00000370: 441c 273d 1ef1 01be 1e20 b2bc ba98 023e
00000380: e7de 25bc 6b49 723d 671b cebc 5017 83bd
00000390: 52bb 13be 941d 3e3e 5ba5 c13a 4cfb 02bc
000003a0: 7cb4 993d f719 a43d dc51 083e 1f48 38bc
000003b0: f39f 543d 6e25 803d 02b9 bbbd 8c67 813c
000003c0: ac88 c0bd 0f37 ecbd 2c68 173d dc67 a83d
000003d0: cf2c ac3c 5b03 7b3d 572b 02be e967 05be
000003e0: 7d76 443c 6e0e f03c afaf c83d 8a18 8e3d
000003f0: 7567 dc3d 9b50 f6bc 0416 093d e769 dabc

bias f4 [29]
-0.07644595 0.03044249 0.08292069 -0.097892344 -0.028151184 -0.084422655 -0.081310704 -0.018739786
0.061905663 -0.04283207 -0.13853863 -0.01237214 -0.1108651 0.0038384 -0.06928127 0.11685394
0.058061376 0.1667371 0.117087275 -0.12443709 -0.06265839 -0.022101235 -0.05816769 -0.0022146064
0.02349472 -0.4147765 -0.50230503 0.07587025 -0.20583595
00000000: b28f 9cbd 8762 f93c 53d2 a93d c87b c8bd
00000010: 509d e6bc c9e5 acbd 3a86 a6bd 2e84 99bc
00000020: cb90 7d3d ae70 2fbd 12dd 0dbe 84b4 4abc
00000030: 3e0d e3bd aa8d 7b3b 57e3 8dbd 1e51 ef3d
00000040: c4d1 6d3d 21bd 2a3e 74cb ef3d dfd8 febd
00000050: 0b53 80bd a60d b5bc 3e41 6ebd ee22 11bb
00000060: 0078 c03c 965d d4be 1097 00bf dd61 9b3d
00000070: a9c6 52be

weight f4 [50, 3]
0.17805277 -0.06550668 0.039899528 -0.031236757 0.5450008 -0.25242272 0.18407875 0.4089369
-0.07143614 0.37307385 -0.39322397 0.2315271 -0.26192263 0.52322197 0.50650245 -0.31319585
-0.021353204 0.27531645 -0.17559528 -0.57658356 0.128203 0.033663925 0.10719427 -0.24592556
0.28428507 -0.13711224 0.1737808 -0.061336942 0.35004076 -0.5162806 -0.4750214 -0.30878332
-0.16929752 0.3218497 0.4099439 -0.62153786 0.23596247 0.21614322 0.4719941 0.6123869
-0.16319685 0.27549723 -0.43958747 0.36525777 -0.68693197 0.07874029 0.1291858 0.28896087
0.118145175 -0.20445687 0.017377708 0.3014479 0.2822736 0.3896145 -0.38312477 -0.4582225
-0.13660277 -0.019919308 0.30792558 -0.45165575 -0.24811834 0.53513247 0.44127437 0.13079682
-0.03036141 -0.5339113 -0.055652786 0.23243088 0.59691644 -0.6289976 -0.12658475 0.10587432
0.38304338 -0.18389533 0.1298473 0.5243053 -0.2788115 0.5041547 -0.12468892 -0.5044985
-0.120051615 -0.3441494 0.053738855 -0.20028435 -0.12348057 -0.49248502 0.25968677 -0.010923515
0.38648525 0.04240309 0.18367615 0.4997947 -0.22541833 -0.519476 -0.115342654 0.48570177
-0.27281213 -0.36492 -0.31344423 -0.07543085 0.14431748 0.5129165 -0.44020203 -0.06918137
-0.6000942 -0.010409619 0.34815094 -0.22885428 -0.19388245 0.2258296 -0.067453526 0.56234574
0.20969066 -0.10347675 -0.49102065 0.4974387 0.23338577 -0.5339828 -0.070988715 -0.39842787
-0.15036103 -0.15624277 0.39375773 0.3628035 -0.4669166 -0.025809143 0.17859364 0.112862825
0.3550266 0.09020935 -0.49662226 0.32334128 0.33408862 0.21202415 0.33276388 0.060991842
0.5031828 -0.47194564 0.110992536 -0.14362969 -0.6072997 0.42287502 0.42556304 0.3141506
-0.59649456 0.42867467 -0.010414763 0.3572767 0.17996141 0.48069578
00000000: 7753 363e 5e28 86bd b06d 233d 3ae4 ffbc
00000010: 2c85 0b3f 8d3d 81be 247f 3c3e 2d60 d13e
00000020: 1c4d 92bd 8903 bf3e a754 c9be 7115 6d3e
00000030: b91a 86be e0f1 053f 25aa 013f 355b a0be
00000040: eaec aebc 47f6 8c3e 40cf 33be fb9a 13bf
00000050: a647 033e 2fe3 093d ab88 db3d e9d3 7bbe
00000060: d08d 913e 2767 0cbe 98f3 313e 723c 7bbd
00000070: 8b38 b33e f72a 04bf 0136 f3be d918 9ebe
00000080: 545c 2dbe 7cc9 a43e 2be4 d13e 1b1d 1fbf
00000090: 25a0 713e a654 5d3e 36a9 f13e 63c5 1c3f
000000a0: 131d 27be f90d 8d3e 9c11 e1be 1103 bb3e
000000b0: c6da 2fbf 9742 a13d 4849 043e aef2 933e
000000c0: 19f6 f13d 245d 51be b25b 8e3c 6157 9a3e
000000d0: 2a86 903e 8d7b c73e ee28 c4be 249c eabe
000000e0: 99e1 0bbe d12d a3bc 6ca8 9d3e 6c3f e7be
000000f0: bc12 7ebe 71fe 083f b7ee e13e 9aef 053e
00000100: 7eb8 f8bc 69ae 08bf 2df4 63bd 5c02 6e3e
00000110: 84cf 183f fd05 21bf 6f9f 01be a3d4 d83d
00000120: 431e c43e 0f4f 3cbe b1f6 043e df38 063f
00000130: 62c0 8ebe 4810 013f e85c ffbd d026 01bf
00000140: 9fdd f5bd 5a34 b0be 461d 5c3d 5717 4dbe
00000150: 62e3 fcbd ff26 fcbe aaf5 843e 8bf8 32bc
00000160: 65e1 c53e ddae 2d3d 9a15 3c3e 17e5 ff3e
00000170: 10d4 66be 61fc 04bf c538 ecbd e7ad f83e
00000180: 08ae 8bbe cbd6 babe c37b a0be 7d7b 9abd
00000190: f6c7 133e 7f4e 033f 2962 e1be f6ae 8dbd
000001a0: c69f 19bf 1b8d 2abc d740 b23e c758 6abe
000001b0: 1f89 46be e03f 673e 1325 8abd e4f5 0f3f
000001c0: 26b9 563e 9eeb d3bd 0f67 fbbe 49b0 fe3e
000001d0: aefc 6e3e 19b3 08bf 8862 91bd bdfe cbbe
000001e0: 3ef8 19be 1bfe 1fbe 9d9a c93e 61c1 b93e
000001f0: b10f efbe b26d d3bc 40e1 363e a024 e73d
00000200: 0cc6 b53e aebf b83d 4645 febe fd8c a53e
00000210: aa0d ab3e dc1c 593e 0760 aa3e 95d2 793d
00000220: 97d0 003f dca2 f1be 0e50 e33d a913 13be
00000230: fe77 1bbf 1383 d83e 66e3 d93e 59d8 a03e
00000240: deb3 18bf 3f7b db3e afa2 2abc f9ec b63e
00000250: ce47 383e c21d f63e

bias f4 [50]
-0.5468199 -0.06898137 0.27426106 -0.54381716 -0.34292936 -0.2539807 0.07487763 0.12848507
0.17096105 0.5401905 -0.5489152 0.28043225 0.11375064 -0.29093844 -0.55226827 0.5057502
0.53386927 -0.20029095 -0.42970183 0.025022836 0.09741819 0.47185126 -0.50531876 -0.46615827
-0.31251147 -0.55852884 0.5618381 -0.061700813 0.29488823 0.39722982 -0.029981384 -0.09052185
0.6669478 0.15232228 -0.17929094 -0.3091983 -0.10754437 -0.46117783 -0.62754714 0.3908169
-0.07069568 0.3603284 0.3446376 0.32974163 -0.35060355 -0.30514932 0.41489738 0.53874844
-0.47019738 0.09640007
00000000: 64fc 0bbf 1b46 8dbd f26b 8c3e 9a37 0bbf
00000010: 7094 afbe c209 82be 7159 993d 9791 033e
00000020: 6a10 2f3e ed49 0a3f b585 0cbf d194 8f3e
00000030: 18f6 e83d e2f5 94be 7461 0dbf d878 013f
00000040: a8ab 083f 1219 4dbe e101 dcbe b1fc cc3c
00000050: 3083 c73d 7d96 f13e 925c 01bf 4cac eebe
00000060: 8101 a0be bffb 0ebf 9fd4 0f3f feb9 7cbd
00000070: 97fb 963e b561 cb3e 859b f5bc 8563 b9bd
00000080: 17bd 2a3f 5ffa 1b3e 0b98 37be 3d4f 9ebe
00000090: 3940 dcbd 801f ecbe eea6 20bf 2719 c83e
000000a0: e6c8 90bd f77c b83e 5774 b03e e5d3 a83e
000000b0: 4f82 b3be 883c 9cbe 6e6d d43e 6beb 093f
000000c0: b6bd f0be 666d c53d

weight f4 [50, 50]
-0.070927314 -0.015781958 0.14281602 0.25860015 -0.07622454 0.30350322 0.02481407 0.0437116
0.09318323 -0.025086531 0.037447795 0.10950141 0.010656494 -0.04929176 0.13594806 0.057818048
0.09051379 0.10923213 -0.0028894816 0.11663972 -0.0062990165 0.045977026 0.030771915 -0.18490125
-0.10139703 0.07756991 -0.13508327 -0.16892783 0.010015248 -0.072899446 0.13410297 0.19515447
0.08981685 -0.040838018 -0.043743305 0.05590238 -0.07197931 0.15940686 0.16020484 -0.36756676
0.14624757 -0.028076364 0.057643976 -0.07302345 0.19465204 0.039490283 -0.15281856 0.07316028
0.21461713 0.09804196 -0.08948313 0.023651507 -0.019331317 0.8473912 -0.071402326 0.012332742
0.21509871 0.1410284 0.042818032 -0.010105202 0.24162452 0.13267991 -0.08403385 0.35713848
0.26349336 0.061186302 -0.119264394 0.17645499 0.12450581 -0.06548861 0.028075144 0.027470628
0.08429924 0.21627861 0.9764416 0.43788642 -0.03283772 0.16394427 0.14092694 -0.037827063
0.07668848 0.22875318 0.031337887 -0.08424058 0.07905176 0.15953194 0.13305955 0.5535758
0.30175024 0.19486254 0.14281687 -0.023809675 0.14805277 -0.008399657 0.1673074 0.21889375
0.06752822 0.116190374 0.74244666 -0.036458567 0.018977681 0.043859266 -0.021746878 -0.3124656
0.06742798 -0.14444733 0.030798966 -0.026685588 0.07400887 -0.10885654 -0.12599944 -0.044556305
0.014093737 -0.06627951 -0.04168709 0.09734553 0.19258492 0.1285225 -0.06558695 0.0997561
0.09810357 0.13072872 0.11052359 -0.197728 -0.20232226 -0.06994437 0.11897455 -0.033913054
0.13636193 -0.031136706 0.07799894 -0.09435231 0.08058898 0.15733199 0.09475399 -0.10557436
0.12760499 -0.06638589 -0.07935632 0.052141782 -0.06681307 0.011358401 0.17763112 0.10014502
-0.0914733 -0.1451341 -0.05993774 -0.044713646 -0.14027521 -0.057080243 0.13496907 -0.05163932
0.015796823 0.08732562 0.118677385 -0.035448045 -0.004380741 0.03836761 0.07232327 0.03743882
0.04927735 0.061565947 0.04858586 0.14845473 -0.054010235 -0.10262422 -0.019972092 -0.112373024
-0.14254808 0.045392703 -0.13399145 -0.029272804 -0.061772566 -0.13666601 -0.19098924 -0.030438
-0.019406285 0.057278093 -0.013190771 0.10829753 -0.02629396 -0.14364032 0.0017651641 -0.16875511
-0.12340428 -0.102765225 0.10874299 0.041199863 -0.14669117 -0.06817604 0.004228898 -0.04137808
-0.12242823 -0.1939025 -0.10962706 -0.009114586 -0.20119445 0.037848216 -0.16126947 0.07679874
0.050856464 -0.044988908 0.07371216 -0.14453115 0.013731997 0.14251623 0.048601367 -0.09429185
0.063357696 -0.049297106 -0.11421702 0.09979852 -0.060369883 0.06544661 0.038506333 0.05846789
0.09968991 0.07797539 -0.17146428 0.021708995 0.040927626 0.007128758 -0.037243616 -0.34716758
-0.20869648 0.040875174 0.17091143 0.08804323 -0.017771445 0.054780383 0.021100318 -0.118890874
0.13262333 0.071796566 -0.05402053 -0.08393269 0.09809275 -0.22330326 -0.09732741 -0.101540186
-0.10154444 0.14514449 0.020515041 -0.07384646 0.06697193 0.020844547 -0.119279 -0.032582328
-0.10479993 -0.09131494 -0.058746353 -0.07331789 0.0087951915 -0.06920822 0.043678034 -0.14713296
00000000: 5742 91bd 2a49 81bc 5d3e 123e 3d67 843e
00000010: 9d1b 9cbd c664 9b3e e046 cb3c ef0a 333d
00000020: d9d6 be3d 4582 cdbc dc62 193d 4642 e03d
00000030: 9398 2e3c 28e6 49bd f835 0b3e 9ed2 6c3d
00000040: 4b5f b93d 18b5 df3d 755d 3dbb cee0 ee3d
00000050: fb67 cebb 6852 3c3d 6215 fc3c c156 3dbe
00000060: 3fa9 cfbd f9dc 9e3d 4553 0abe 6bfb 2cbe
00000070: ff16 243c 4e4c 95bd 4a52 093e 93d6 473e
00000080: e6f1 b73d c445 27bd 2e2c 33bd e5f9 643d
00000090: e369 93bd 8d3b 233e bd0c 243e b631 bcbe
000000a0: ecc1 153e 6700 e6bc 171c 6c3d 528d 95bd
000000b0: dd52 473e 90c0 213d 787c 1cbe 0fd5 953d
000000c0: 98c4 5b3e 39ca c83d ee42 b7bd cec0 c13c
000000d0: b65c 9ebc a1ee 583f 623b 92bd 450f 4a3c
000000e0: d642 5c3e c069 103e f661 2f3d 4a90 25bc
000000f0: 6b6c 773e 3edd 073e f019 acbd dbda b63e
00000100: 9ae8 863e 7d9e 7a3d e440 f4bd 9eb0 343e
00000110: e7fc fe3d e41e 86bd d8fd e53c 150a e13c
00000120: 14a5 ac3d 2478 5d3e 14f8 793f a632 e03e
00000130: d880 06bd 02e1 273e 274f 103e 8df0 1abd
00000140: da0e 9d3d 463e 6a3e 285c 003d 5386 acbd
00000150: e4e5 a13d 575c 233e c340 083e 25b7 0d3f
00000160: 027f 9a3e 0c8a 473e 963e 123e 820c c3bc
00000170: 259b 173e b79e 09bc a252 2b3e af25 603e
00000180: 3c4c 8a3d 38f5 ed3d fc10 3e3f 9455 15bd
00000190: 1577 9b3c c6a5 333d 8226 b2bc 7efb 9fbe
000001a0: ae17 8a3d 00ea 13be 1d4e fc3c bc9b dabc
000001b0: f691 973d 2df0 debd ff05 01be ac80 36bd
000001c0: 6be9 663c 8dbd 87bd 15c0 2abd 185d c73d
000001d0: fb34 453e 679b 033e 7352 86bd ed4c cc3d
000001e0: 86ea c83d c0dd 053e 315a e23d 3579 4abe
000001f0: 912d 4fbe fe3e 8fbd eea8 f33d 6ae8 0abd
00000200: 76a2 0b3e 6812 ffbc e9bd 9f3d c93b c1bd
00000210: d60b a53d a31b 213e 610e c23d 5f37 d8bd
00000220: e2aa 023e 53f5 87bd 9185 a2bd 9f92 553d
00000230: 4ad5 88bd 9618 3a3c efe4 353e d518 cd3d
00000240: 5a56 bbbd 099e 14be 4781 75bd a825 37bd
00000250: 4ea4 0fbe f9cc 69bd 5535 0a3e c083 53bd
00000260: 5768 813c c6d7 b23d 210d f33d f831 11bd
00000270: 528c 8fbb 5b27 1d3d 391e 943d 7359 193d
00000280: 0cd7 493d 932c 7c3d f701 473d 8404 183e
00000290: d639 5dbd a62c d2bd 839c a3bc d423 e6bd
000002a0: 20f8 11be b3ed 393d 0e35 09be 85cd efbc
000002b0: 3b05 7dbd 2df2 0bbe af92 43be 1d59 f9bc
000002c0: eef9 9ebc 6f9c 6a3d 1b1e 58bc 18cb dd3d
000002d0: 6e66 d7bc 7316 13be 145d e73a 24ce 2cbe
000002e0: 62bb fcbd 9376 d2bd a5b4 de3d 30c1 283d
000002f0: 3636 16be e19f 8bbd 9192 8a3b 107c 29bd
00000300: a7bb fabd 618e 46be 2784 e0bd 5855 15bc
00000310: eb05 4ebe bb06 1b3d d323 25be a848 9d3d
00000320: de4e 503d 4a46 38bd 67f6 963d f9ff 13be
00000330: 2cfc 603c c6ef 113e 3a12 473d 161c c1bd
00000340: aec1 813d c3eb 49bd 9dea e9bd 2b63 cc3d
00000350: 6946 77bd df08 863d d1b8 1d3d 077c 6f3d
00000360: 392a cc3d 90b1 9f3d 5594 2fbe 10d7 b13c
00000370: baa3 273d 5b98 e93b c38c 18bd f3bf b1be
00000380: 88b4 55be ba6c 273d 6803 2f3e 0250 b43d
00000390: 6c95 91bc 6561 603d 93da ac3c 0f7d f3bd
000003a0: 69ce 073e 140a 933d a244 5dbd e7e4 abbd
000003b0: dae4 c83d 9ca9 64be 9853 c7bd 4df4 cfbd
000003c0: 88f6 cfbd c2a0 143e 290f a83c d03c 97bd
000003d0: 9428 893d 2fc2 aa3c 8c48 f4bd 0c75 05bd
000003e0: 58a1 d6bd 5403 bbbd 04a0 70bd b127 96bd
000003f0: b519 103c 0abd 8dbd bde7 323d 06aa 16be
