srim-sbi/data/trained_posterior_low.pt (torch, 118569 bytes, 32 tensors)

weight f4 [50, 9]
0	0x3db4d9e0	0.08830619
1	0xbec4dea4	-0.3845111
2	0xbe1add4c	-0.1512348
3	0xbebf92fd	-0.3741683
4	0x3e3b7bd6	0.18308958
5	0xbe970097	-0.29492638
6	0xbeb25aa3	-0.34834775
7	0x3d1c5c83	0.038174164
8	0x3ea7d7ee	0.3278193
9	0x3e3ce359	0.18446101
10	0xbe1385d7	-0.14406525
11	0xbdb9a813	-0.09065261
12	0x3bd3ae7d	0.0064600096
13	0xbea57ba9	-0.32320908
14	0xbe840a8a	-0.2578929
15	0x3e8d756c	0.27628648
16	0x3da2c3eb	0.07947525
17	0xbd0f7da7	-0.03503194
18	0x3ddcea14	0.10786834
19	0xbe3e24b7	-0.18568693
20	0x3e7f85e0	0.24953413
21	0xbe22c954	-0.15897113
22	0xbe8d41bb	-0.2758921
23	0xbe4d15a6	-0.2002779
24	0x3e7f2437	0.24916159
25	0x3e7d8d3a	0.24760905
26	0xbe40c8b8	-0.18826568
27	0xbbdd53d6	-0.006754379
28	0xbe8899c4	-0.26679814
29	0xbe95ef61	-0.29284194
30	0xbea17239	-0.31532457
31	0xbe351929	-0.17685379
32	0x3e2aa600	0.16664886
33	0xbebf7da0	-0.37400532
34	0xbe86b281	-0.26308063
35	0x3e765f42	0.24059775
36	0xbe783404	-0.24238592
37	0xbea85a42	-0.3288136
38	0xbe3f771b	-0.18697779
39	0xbe19af6a	-0.15008321
40	0xbcd1be99	-0.02560358
41	0xbdb0f6d3	-0.08640828
42	0x3dc73840	0.09727526
43	0x3c90fbd0	0.017698199
44	0x3ead2b88	0.33822274
45	0x3e820936	0.25397652
46	0xbe8ff324	-0.2811519
47	0xbd817d82	-0.06322767
48	0x3e29d230	0.16584086
49	0x3c20536a	0.009785512
50	0x3e397e46	0.18114576
51	0xbe095bb4	-0.13413888
52	0x3e7ed1fe	0.24884793
53	0x3daaae08	0.08333975
54	0xbe9f6725	-0.3113338
55	0xbe3c9d2a	-0.18419328
56	0xbda0e750	-0.07856619
57	0x3e649e24	0.22325951
58	0xbe7af75b	-0.24508421
59	0x3e620a3e	0.2207422
60	0xbe811d21	-0.25217536
61	0x3eac4bc9	0.3365157
62	0xbe1bc4b0	-0.15211749
63	0xbe3c94ce	-0.1841614
64	0xbdb109fa	-0.08644481
65	0x3ec5ad25	0.3860866
66	0x3da967a2	0.082717195
67	0x3dd07954	0.101793915
68	0x3e816b2c	0.25277078
69	0xbd8883b1	-0.06665743
70	0x3cf536c1	0.029933335
71	0x3ea4301c	0.32067955
72	0x3e6f7d26	0.23387584
73	0x3d505468	0.050861746
74	0xbe693d46	-0.2277728
75	0x3ea71d51	0.32639554
76	0xbe280f5f	-0.16412114
77	0xbe892714	-0.26787627
78	0x3e8a8be7	0.27059862
79	0x3d42ef1d	0.047591317
80	0x3e8dc75b	0.2769116
81	0x3d98290e	0.074297056
82	0x3e8c9731	0.274591
83	0xbd19f3ac	-0.0375859
84	0xbe17cef0	-0.14825034
85	0x3d7298ff	0.05922794
86	0xbcb802af	-0.022462217
87	0xbc8475f2	-0.016169522
88	0x3e1bb367	0.15205155
89	0x3e50c0dc	0.2038607
90	0xbe5849ee	-0.21121952
91	0x3df3b9f3	0.119007014
92	0x3e7e0020	0.24804735
93	0xbdb14243	-0.086552165
94	0xbd8f751c	-0.07004759
95	0x3e877b89	0.26461437
96	0xbe95da03	-0.29267892
97	0x3e42caa8	0.1902262
98	0xbdf2be47	-0.11852699
99	0x3eaad17c	0.3336295
100	0x3e83089f	0.25592515
101	0xbdc40bfe	-0.095726
102	0x3e2e4b6a	0.17020956
103	0x3e891301	0.2677231
104	0x3e548205	0.20752724
105	0x3dbee637	0.09321254
106	0x3da60b0a	0.08107574
107	0x3ea02477	0.3127782
108	0xbe9b1122	-0.3028651
109	0xbe2d5666	-0.1692749
110	0xbd7d7d7b	-0.061887246
111	0x3c54034c	0.012940239
112	0xbd5df7a1	-0.054191235
113	0x3d8b6d5e	0.068079695
114	0x3e845c20	0.25851536
115	0x3e7412a5	0.23835237
116	0x3d935bdf	0.071952574
117	0xbe14ff0a	-0.14550415
118	0xbe07311e	-0.1320233
119	0x3e66da1f	0.22544144
120	0xbe81bc09	-0.25338772
121	0xbd7c9a4d	-0.06167059
122	0x3e326685	0.1742192
123	0x3c8bc5b1	0.01706204
124	0x3e954e8f	0.29161498
125	0x3e548f6f	0.2075784
126	0x3e2857cf	0.16439746
127	0xbe732fcc	-0.23748702
128	0x3d64fbf7	0.055904355
129	0xbd46e068	-0.048553854
130	0x3dfe11c9	0.12405736
131	0x3e9742eb	0.29543242
132	0xbdc4a04d	-0.096008874
133	0x3da45ecb	0.08025893
134	0xbd86dcc1	-0.06585074
135	0xbd8f7efc	-0.07006642
136	0xbe4cc518	-0.1999706
137	0x3d882323	0.06647327
138	0x3e7a3424	0.24433953
139	0xbde2bda3	-0.110713266
140	0xbe50fbd6	-0.20408568
141	0xbcad6073	-0.021164155
142	0xbe445435	-0.19172747
143	0x3e79c0f8	0.24390018
144	0x3e5734d8	0.21016252
145	0x3dbc8b38	0.09206241
146	0x3dfa2e6e	0.12215887
147	0x3de28eda	0.11062403
148	0xbd22f40d	-0.039783526
149	0xbe91ddce	-0.28489536
150	0xbdea3ea2	-0.114377275
151	0x3e5f8ba6	0.21830615
152	0x3e5266e9	0.2054707
153	0xbe852086	-0.26001376
154	0xbd027d62	-0.031857856
155	0x3e862b44	0.26204884
156	0x3ea2dcf1	0.3180919
157	0x3e7bdde0	0.24596357
158	0xbd014142	-0.031556375
159	0x3e9bc2d2	0.30422074
160	0x3ce8dbd0	0.028425127
161	0x3d26e052	0.040741272
162	0x3d9d2d59	0.07674665
163	0x3e1fff43	0.15624718
164	0x3dca818e	0.09887992
165	0x3e9bcaba	0.30428106
166	0x3e35a950	0.17740369
167	0xbe9d3705	-0.3070604
168	0xbdc12d64	-0.09432486
169	0xbcdc24b5	-0.026872972
170	0xbd2d9b83	-0.042384636
171	0xbe6b8a14	-0.23001891
172	0x3e8446b6	0.25835198
173	0xbe73f6d6	-0.23824629
174	0xbdd3f73c	-0.103498906
175	0x3dda26c1	0.10651923
176	0xbeadab99	-0.3391998
177	0xbe9a3728	-0.30120206
178	0x3e74ccf8	0.23906314
179	0x3e75217a	0.23938552
180	0xbd478a7b	-0.04871605
181	0x3e875a9c	0.26436317
182	0xbdf12cc5	-0.11776117
183	0x3e038ea4	0.12847382
184	0x3e86b37f	0.2630882
185	0xbe903a05	-0.28169265
186	0x3d6297bb	0.055320483
187	0x3c9b73a1	0.018976035
188	0xbe99fefd	-0.30077353
189	0x3e5be6ba	0.21474734
190	0x3eb1ae24	0.3470317
191	0x3eb24644	0.34819233
192	0x3e0689c7	0.13138495
193	0xbe9b545d	-0.30337802
194	0xbe200e2d	-0.15630408
195	0x3b9bd254	0.0047552977
196	0xbea5275f	-0.322566
197	0x3e0889ec	0.13333863
198	0xbe9dc240	-0.30812263
199	0xbe08f78a	-0.13375679
200	0x3e118de4	0.14214283
201	0x3e96cb8f	0.29452178
202	0xbd2c5ec1	-0.042082552
203	0xbdc828eb	-0.097734295
204	0x3d0d928d	0.03456359
205	0x3e10ca73	0.14139728
206	0x3e45d77d	0.19320484
207	0xbdea533f	-0.11441659
208	0x3e127678	0.14303005
209	0x3e68aa23	0.22721152
210	0xbdd33bb5	-0.103141226
211	0x3ea23fdd	0.3168935
212	0xbe6a7ea2	-0.22899869
213	0x3befe79f	0.0073213126
214	0xbe8dec2d	-0.2771925
215	0xbe96ff82	-0.29491812
216	0xbd427e16	-0.047483526
217	0xbe9e4f6c	-0.3091997
218	0xbe95c2db	-0.29250225
219	0xbe8c1296	-0.2735793
220	0x3d4f7c1a	0.05065546
221	0xbe665a62	-0.22495416
222	0x3e2ffea2	0.17186978
223	0xbe557df8	-0.20848835
224	0x3deec963	0.11659505
225	0x3e352626	0.17690334
226	0x3e3ebbc6	0.18626317
227	0x3e5ca051	0.21545531
228	0xbeb5526f	-0.35414454
229	0x3dbaee00	0.09127426
230	0x3ce6a431	0.028154464
231	0xbda6c964	-0.08143881
232	0x3cecf043	0.02892316
233	0x3e03011f	0.12793396
234	0xbcdb0a31	-0.026738258
235	0xbe8a71d9	-0.27039984
236	0xbd14a673	-0.03629155
237	0xbe6e6abe	-0.23282906
238	0xbec05ad6	-0.37569302
239	0x3d80801c	0.06274435
240	0xbb647820	-0.003486164
241	0xbe13e2d6	-0.14442
242	0x3e8bda9a	0.27315217
243	0x3e571b75	0.21006568
244	0x3c83afb6	0.016074996
245	0xbdb4b3d4	-0.08823362
246	0xbdfe8773	-0.12428179
247	0xbea7c356	-0.32766217
248	0x3e30c609	0.17263044
249	0x3e5dacc3	0.21647935
250	0xbd64fb4c	-0.055903718
251	0xbea2717a	-0.317272
252	0x3eb22f1c	0.34801567
253	0xbe1fb5e3	-0.15596728
254	0x3ded552f	0.11588513
255	0x3e2adfd0	0.1668694

bias f4 [50]
0	0x3ab8198b	0.0014045698
1	0x3ecd5fbd	0.40112105
2	0xbe4592f5	-0.19294341
3	0xbdeb6309	-0.11493499
4	0x3e9d4295	0.3071486
5	0x3de5c6c7	0.112195544
6	0x3d2e5ff6	0.042571984
7	0x3e51e3a0	0.20496988
8	0x3d9932c0	0.07480383
9	0x3e682f2b	0.22674243
10	0x3e9f41d8	0.31104922
11	0x3e5c60eb	0.21521346
12	0x3c5e172e	0.013555331
13	0xbe63d67e	-0.22249791
14	0xbe2cbd6d	-0.16869135
15	0x3e98b5f9	0.29826334
16	0x3dcca5b4	0.09992543
17	0xbdef676a	-0.116896465
18	0x3e42e298	0.19031751
19	0x3dff0c5b	0.124535285
20	0xbe5217af	-0.20516847
21	0xbcd9c199	-0.026581572
22	0x3d668684	0.056280628
23	0x3dcc0e38	0.099636495
24	0xbea114ca	-0.31461173
25	0xbe88dadb	-0.26729473
26	0xbe76825e	-0.24073169
27	0x3eb4e555	0.35331216
28	0xbe4a42d6	-0.19752058
29	0xbe755b64	-0.23960644
30	0x3cbe136a	0.023202617
31	0xbe2bf8ee	-0.16794178
32	0x3e95a939	0.2923067
33	0xbe2a6b35	-0.16642459
34	0xbe48674f	-0.19570659
35	0xbdfcab97	-0.12337416
36	0xbec521f5	-0.3850247
37	0xbd3fa8e9	-0.046791945
38	0xbe0efbc0	-0.13963223
39	0xbe9aa381	-0.3020287
40	0x3bbad744	0.005701931
41	0xbe8090de	-0.25110525
42	0xbb1db371	-0.0024063254
43	0xbe51ab4e	-0.20475504
44	0xbdf5cdb0	-0.120021224
45	0x3dc831eb	0.09775146
46	0x3e8f19cf	0.27949378
47	0xbe11ebc9	-0.14250101
48	0x3de23672	0.11045541
49	0x3e9decd4	0.30844748

weight f4 [50, 50]
0	0x3d76f670	0.060293615
1	0x3dbee29c	0.09320566
2	0xbd51daa5	-0.051233906
3	0x3d5efa62	0.054438002
4	0x3d005210	0.03132826
5	0xbcf1e9f5	-0.029530505
6	0x3c9f5800	0.019451141
7	0xbd6de878	-0.058083028
8	0xbda8c439	-0.082405515
9	0xbe26db60	-0.16294622
10	0xbdc01b23	-0.09380176
11	0x3d990858	0.074722946
12	0x3dba8790	0.09107888
13	0xbd11a7d2	-0.035560437
14	0xbdfa497f	-0.122210495
15	0x3d5c5d9c	0.05380021
16	0xbe11b19c	-0.14227909
17	0xbd853224	-0.06503704
18	0x3d855be0	0.065116644
19	0x3cc29272	0.023751471
20	0xbd657da5	-0.056028027
21	0xbd39ce0c	-0.045362517
22	0xbe0b8204	-0.13623816
23	0x3dbd5a04	0.09245685
24	0xbe2665e6	-0.16249809
25	0xbd6608a4	-0.056160584
26	0x3b0d0480	0.0021517575
27	0xbda64b63	-0.081198476
28	0x3dbcd6f5	0.09220687
29	0xbdc201c8	-0.09472996
30	0x3dc3a919	0.09553737
31	0xbe13493c	-0.14383405
32	0xbd892891	-0.066971906
33	0x3dee98f5	0.11650268
34	0xbde8f404	-0.11374667
35	0xbd3edfe5	-0.04660024
36	0xbcd81dc6	-0.026381385
37	0xbd613ed6	-0.054991566
38	0x3db3d26b	0.087803684
39	0xbd81ddf4	-0.06341162
40	0xbe1c00f1	-0.15234734
41	0xbe18e0fb	-0.14929573
42	0x3df0be9a	0.11755104
43	0x3dc35f67	0.09539681
44	0x3caae443	0.020860797
45	0xbcf10c6d	-0.02942487
46	0x3d2eacfa	0.042645432
47	0xbc62bc3b	-0.013838823
48	0x3c13374a	0.00898535
49	0xbe24b1ec	-0.16083497
50	0x3d2ce9a0	0.04221499
51	0x3e302062	0.17199853
52	0xbdc0ed2b	-0.09420236
53	0x3d37e363	0.044894587
54	0x3e409d37	0.18809973
55	0x3e313470	0.1730516
56	0x3e3b205d	0.18274064
57	0xbc55e4d1	-0.013055042
58	0x3e1477a2	0.14498761
59	0xbe063499	-0.13106002
60	0x3d0c3bf0	0.03423685
61	0x3dac2876	0.08406155
62	0x3e2c6f83	0.16839413
63	0x3d027065	0.03184547
64	0x3da8ae98	0.08236426
65	0xbd43f3db	-0.04783998
66	0x3d36c444	0.044620767
67	0x3d3a41a2	0.04547275
68	0xbd74136e	-0.059588842
69	0xbc342288	-0.010994561
70	0x3e203d19	0.15648307
71	0xbd8e5dc9	-0.06951482
72	0x3e14733a	0.1449708
73	0x3db9b13e	0.090670094
74	0x3e3bb9d0	0.183326
75	0xbc541844	-0.0129452385
76	0x3e0e23d8	0.13880861
77	0x3db7f8aa	0.08982976
78	0xbcf7c3f5	-0.030244807
79	0x3d8c1b51	0.06841148
80	0xbe302c61	-0.17204429
81	0xbd178f6b	-0.03700201
82	0x3cf4df8a	0.029891748
83	0xbbb35729	-0.005473037
84	0x3d154667	0.036444094
85	0x3e044460	0.12916708
86	0xbd92ad9e	-0.07162021
87	0x3d903591	0.07041467
88	0x3d26461e	0.040594213
89	0x3dd709fb	0.104999505
90	0xbdacfde1	-0.08446861
91	0xbd18955a	-0.037251808
92	0xbd93572a	-0.071943596
93	0xbd9f6594	-0.07783046
94	0x3e16949e	0.1470513
95	0x3c03ec3a	0.008051926
96	0x3d9be97c	0.07612893
97	0xbe15b1d4	-0.14618617
98	0x3e26c324	0.16285378
99	0x3cfa1a5d	0.03053015
100	0x3dc72a27	0.09724837
101	0x3d2b22a2	0.041781075
102	0xbc745fe6	-0.014915442
103	0x3dc6eb8d	0.097128965
104	0x3bf1ad99	0.007375431
105	0x3d1d9785	0.03847458
106	0x3c46ec06	0.012141233
107	0x3e02eeaf	0.12786363
108	0xbddd41b5	-0.10803548
109	0xbce69dec	-0.028151475
110	0x3d159c42	0.036525972
111	0x3e016251	0.12635161
112	0x3c5f6a27	0.013636149
113	0x3dfe094d	0.12404118
114	0xbbe8649d	-0.007092072
115	0x3dbc78c9	0.092027254
116	0xbd924501	-0.07142068
117	0xbb86265b	-0.004093928
118	0xbdbc21d7	-0.09186142
119	0x3d31068a	0.043219127
120	0xbd2a136e	-0.041522436
121	0xbe0888c5	-0.13333423
122	0xbd600325	-0.0546905
123	0xbb0050b2	-0.0019579348
124	0xbd870ff7	-0.06594842
125	0xbd46bee4	-0.04852189
126	0x3dc8fd9d	0.09813998
127	0x3db9e529	0.09076912
128	0xbd938f12	-0.07205023
129	0xbd3346c9	-0.043768678
130	0xbd6192fd	-0.05507182
131	0x3cdad94c	0.026714943
132	0x3d7bb3f8	0.06145093
133	0xbdb9811c	-0.09057829
134	0x3dca061d	0.09864447
135	0x3d9cfb98	0.07665175
136	0xbdb223f1	-0.086982615
137	0x3c0c3834	0.008558322
138	0x3df7bd62	0.12096669
139	0x3d2e9834	0.04262562
140	0xbd48f796	-0.04906424
141	0x3cb7ae59	0.022422003
142	0x3dae7191	0.08517755
143	0x3cd9b3bb	0.02657496
144	0xbdf9757e	-0.12180613
145	0xbe01ea3f	-0.12687014
146	0x3e13e41b	0.14442484
147	0x39bc29ba	0.00035889243
148	0xbd98013e	-0.07422112
149	0x3da69bcc	0.08135185
150	0xbc7f01eb	-0.015564422
151	0x3dde4925	0.10853795
152	0xbdeefe3e	-0.116695866
153	0xbde9c055	-0.114136375
154	0xbe37e9a0	-0.17960215
155	0xbd965580	-0.073405266
156	0xbdc8e34c	-0.098089784
157	0xbd8d01aa	-0.06885083
158	0x3dd2bbe0	0.102897406
159	0x3d74fb12	0.05980975
160	0x3cffdb38	0.031232461
161	0x3e0ffc4c	0.14061087
162	0xbd137a2f	-0.036005195
163	0xbd9a3c54	-0.07531038
164	0x3e09299e	0.13394782
165	0x3d8efed0	0.069821954
166	0x3da106ed	0.07862649
167	0xbe09d9e7	-0.1346203
168	0x3da831f0	0.0821265
169	0x3d89f6ec	0.0673655
170	0xbdccd944	-0.10002378
171	0xbc243155	-0.010021527
172	0x3dcd2343	0.10016491
173	0x3c782898	0.015146397
174	0x3e06e4e3	0.13173251
175	0xbdc411be	-0.095736966
176	0x3e4bdb87	0.19907962
177	0xbcfda766	-0.03096361
178	0x3df14254	0.11780229
179	0x3dcee7d0	0.101028085
180	0x3ad0dde7	0.0015935273
181	0x3de992b3	0.11404934
182	0xbd212169	-0.039338503
183	0xbd33a23b	-0.043855887
184	0x3e01b968	0.12668383
185	0xbd9217e4	-0.07133463
186	0x3d74d50d	0.059773494
187	0x3df6f51b	0.12058469
188	0xbdf3bbf7	-0.11901086
189	0xbe143a38	-0.14475334
190	0xbd45e965	-0.048318285
191	0x3cbada8f	0.022809295
192	0x3e2018b4	0.15634423
193	0xbd706210	-0.05868727
194	0x3da7277e	0.081618294
195	0x3e23f026	0.16009578
196	0x3db5024c	0.08838329
197	0x3d7a7506	0.06114676
198	0x3d290c23	0.04127134
199	0x3d9b9300	0.075963974
200	0xbdb41d30	-0.087946296
201	0x3df0f508	0.11765486
202	0x3d22a38e	0.03970676
203	0xbe0b5690	-0.1360724
204	0x3d123b27	0.035700943
205	0x3d36fa12	0.04467208
206	0x3d9a03bf	0.07520246
207	0x3e4508a9	0.19241585
208	0x38063985	3.200166e-05
209	0x3a62f9d5	0.00086584437
210	0xbda7cc79	-0.08193297
211	0x3d88903e	0.06668137
212	0xbdb1ab6f	-0.086752765
213	0x3d26d34c	0.040728852
214	0xbdf0c8dc	-0.11757061
215	0xbd8cebb7	-0.068808965
216	0x3dd37cd0	0.103265405
217	0x3d9b1038	0.07571453
218	0xbd224c3a	-0.039623477
219	0x3e01ba1c	0.12668651
220	0x3db67b29	0.0891021
221	0xbe51e12d	-0.20496054
222	0xbc5f731a	-0.013638282
223	0xbd3f6b12	-0.04673297
224	0xbe2d4dca	-0.16924205
225	0xbe86858d	-0.26273766
226	0x3db089d0	0.08620036
227	0x3cad3531	0.021143528
228	0xbcd93fb6	-0.026519638
229	0xbe2d829c	-0.16944355
230	0x3bf3a523	0.0074354573
231	0xbdd5bf8c	-0.10436925
232	0xbc2bb5b3	-0.010480332
233	0xbc8eb352	-0.017419491
234	0xbe4b6c3f	-0.19865511
235	0x3d977770	0.07395828
236	0x3dc39c39	0.095512815
237	0xbdc22c36	-0.09481089
238	0xbd86f795	-0.06590191
239	0x3d2d34da	0.04228673
240	0x3d1fc725	0.03900828
241	0xbdb91c0b	-0.09038552
242	0x3c2ba093	0.010475296
243	0xbd278956	-0.040902458
244	0xbc7fdb62	-0.01561627
245	0x3c2c4eba	0.010516817
246	0xbd9a536e	-0.07535444
247	0xbc5fbe3e	-0.013656197
248	0x3da0c988	0.07850939
249	0x3e037692	0.128382
250	0x3df767e4	0.120803624
251	0x3e4b8290	0.19874024
252	0x3e10ef12	0.14153698
253	0x3d46ace9	0.048504744
254	0x3af56164	0.0018721041
255	0xbd9e91ec	-0.07742676

bias f4 [50]
0	0xbdff3bb6	-0.12462561
1	0xbd4eb866	-0.050468825
2	0xbe18ec79	-0.14933957
3	0xbd9e35ed	-0.07725129
4	0x3e34428e	0.17603514
5	0x3e358e7a	0.17730132
6	0xbb21b872	-0.0024676588
7	0x3c1c4918	0.009538911
8	0x3dd13d0f	0.10216724
9	0xbdaef7a2	-0.08543326
10	0x3d22cdd0	0.03974706
11	0xbe21e0d8	-0.15808427
12	0x3d86e9de	0.065875754
13	0xbc55da39	-0.013052517
14	0x3d4eb2c3	0.05046345
15	0x3de88306	0.11353116
16	0xba3fbd3f	-0.00073142716
17	0x3ca5e304	0.020249851
18	0xbd90e9ee	-0.070758685
19	0xbdb66bc4	-0.089072734
20	0x3e0d8fb2	0.13824347
21	0xbd909806	-0.07060246
22	0x3bfec5fc	0.0077750664
23	0x3e10b9fe	0.1413345
24	0x3e384fce	0.17999193
25	0xbd494632	-0.04913921
26	0x3d8c4d81	0.0685072
27	0xbdad73fb	-0.08469387
28	0xbdea072e	-0.11427151
29	0x3e44b33c	0.19208997
30	0xbe14ff5c	-0.14550537
31	0x3e0f1e2e	0.13976356
32	0x3d13af0d	0.036055613
33	0xbdf58f5b	-0.119902335
34	0xbd4c8a50	-0.049936593
35	0x3dd5adab	0.10433515
36	0x3e432f4b	0.1906101
37	0x3dcf5829	0.10124237
38	0x3d769d96	0.06020888
39	0x3d15599c	0.03646241
40	0xbe126ebc	-0.14300054
41	0xbe151622	-0.14559224
42	0xbdceaeb9	-0.100919195
43	0xbe1065e7	-0.14101373
44	0xbd16c1f8	-0.036806077
45	0x3d14dbb9	0.036342356
46	0x3da70486	0.0815516
47	0x3e23f771	0.1601236
48	0xbe0fd4a5	-0.14045961
49	0xbc6e4065	-0.01454172

weight f4 [29, 50]
0	0x3e113170	0.14179015
1	0x3df5e5db	0.12006732
2	0xbda18750	-0.07887137
3	0x3d0621d3	0.0327471
4	0x3d85051c	0.06495115
5	0x3dc99254	0.09842363
6	0xbca01500	-0.019541264
7	0xbde81ac5	-0.11333231
8	0xbe077759	-0.13229121
9	0x3c4bf42a	0.01244835
10	0xbd75451b	-0.059880357
11	0x3d9cd45b	0.07657691
12	0xbe090dd2	-0.13384178
13	0x3d9fcab6	0.07802336
14	0x3dd15f41	0.10223246
15	0x3c2819ea	0.010260085
16	0x3dca20c5	0.098695315
17	0x3d0cc8b6	0.0343711
18	0x3cbf333b	0.023339858
19	0xbdcaa390	-0.09894478
20	0xbe0356c1	-0.12826063
21	0x3e09b855	0.13449223
22	0xbdd49ed5	-0.10381857
23	0xbdd06f6b	-0.10177501
24	0x3d866f96	0.06564252
25	0xbe065c8d	-0.13121243
26	0xbdc5f019	-0.096649356
27	0xbde0edcf	-0.109828584
28	0xbdba4126	-0.09094457
29	0xbd594fbb	-0.053054553
30	0x3dd636c7	0.10459667
31	0xbc4130bb	-0.011791403
32	0xbe09a0d0	-0.13440251
33	0xbde1cb50	-0.11025107
34	0x3e04c6d1	0.12966467
35	0x3e017261	0.12641288
36	0x3d231e44	0.039823785
37	0x3ae67e72	0.0017585291
38	0xbd89c6aa	-0.06727345
39	0x3db01388	0.08597475
40	0xbd96f795	-0.07371441
41	0x3de65f4c	0.11248645
42	0x3ddd9c18	0.10820788
43	0xbdd365e3	-0.10322168
44	0x3e0b2393	0.13587789
45	0x3d0593ae	0.03261154
46	0x3dd5d866	0.10441665
47	0xbdf21f5d	-0.11822388
48	0xbd8e678c	-0.06953344
49	0x3d449259	0.04799113
50	0xbdc2dae2	-0.09514405
51	0x3d06ccdf	0.032910224
52	0x3df1a25e	0.11798547
53	0xbcca7ec3	-0.024718648
54	0x3d291d0b	0.041287463
55	0x3d5c8739	0.053839896
56	0x3d933f47	0.071898036
57	0x3b8c29c6	0.0042774407
58	0x3ddc243e	0.107491
59	0xbd316784	-0.04331161
60	0xbd4cadb3	-0.04997034
61	0xbd1f5ffe	-0.038909905
62	0x3da0ffdc	0.07861301
63	0xbdeef955	-0.1166865
64	0x3dd003f9	0.10157008
65	0x3db68a63	0.08913114
66	0xbd29038a	-0.04126314
67	0xbd6dee2c	-0.058088467
68	0xba4c4002	-0.00077915203
69	0x3d5d2e0c	0.05399899
70	0x3db11999	0.086474605
71	0xbdbf1f1b	-0.09332105
72	0xbda401f2	-0.080081835
73	0xbd8e7acd	-0.06957016
74	0x3ddc9ef3	0.10772505
75	0x3db369b9	0.08760399
76	0xbda81923	-0.082079194
77	0x3dd8672d	0.10566554
78	0x3d91bc65	0.071160115
79	0x3be79b8f	0.0070681046
80	0xba859c7a	-0.0010193728
81	0x3d55e135	0.052216727
82	0xbe0d03b7	-0.13770948
83	0x3c240f2e	0.010013385
84	0xbdcae5cf	-0.09907114
85	0xbd947095	-0.07248036
86	0xbe3275ef	-0.174278
87	0xbdbcfe8f	-0.09228241
88	0x3c296725	0.010339533
89	0xbdfacde5	-0.122463025
90	0x3df9eb70	0.12203109
91	0x3dc90aa4	0.09816483
92	0x3dbf36f4	0.09336653
93	0xbd9bff7f	-0.076170914
94	0x3dac69f1	0.08418644
95	0x3de30a99	0.11086006
96	0x3de57804	0.11204532
97	0xbde9d67a	-0.11417861
98	0x3d18cf31	0.037306968
99	0xbcd8c9a9	-0.026463347
100	0xbc92d7c2	-0.017925147
101	0x3d83ecf5	0.0644168
102	0xbd060988	-0.032723933
103	0x3dd84c20	0.10561395
104	0xbd41a2b3	-0.047274303
105	0xbda513e7	-0.08060437
106	0xbd19e0d3	-0.037567925
107	0x3de8540d	0.113441564
108	0xbe0bc179	-0.13648023
109	0x3d1587b3	0.036506366
110	0x3d749b78	0.05971858
111	0xbdd58304	-0.1042538
112	0xbd3c6f31	-0.046004478
113	0xbe0d74f5	-0.13814147
114	0x3d953729	0.072859116
115	0xbdccf0d1	-0.100068696
116	0x3b7fe73b	0.0039047736
117	0x3d845ebb	0.06463381
118	0x3d9edb24	0.077566415
119	0xbc636269	-0.013878443
120	0xbdb74d0f	-0.08950245
121	0x3d7ae6dc	0.06125532
122	0x3d46ce6a	0.048536696
123	0xbd822767	-0.06355172
124	0xbe2c8f65	-0.16851576
125	0x3c22544d	0.009907794
126	0xbd9c3b1f	-0.07628464
127	0x3d319095	0.043350775
128	0xbd247aac	-0.04015605
129	0xbe1264ec	-0.14296311
130	0x3de4d557	0.11173504
131	0xbe11ce27	-0.14238797
132	0x3aeab475	0.0017906564
133	0xbbefd181	-0.007318676
134	0x3d3b05d0	0.04565984
135	0xbd6fcee0	-0.0585469
136	0x3c4e71e2	0.012600394
137	0xbd962c69	-0.07332689
138	0xbd185d36	-0.037198268
139	0x3d928cec	0.07155785
140	0x3dd1e855	0.10249392
141	0xbdd10c5c	-0.102074355
142	0xbdf09724	-0.11747578
143	0xbdc3c22d	-0.095585205
144	0xbcf444f9	-0.029818045
145	0xbe229409	-0.15876783
146	0x3d3a7de1	0.045530204
147	0xbd8749e5	-0.06605891
148	0xbd1bfcc5	-0.038082857
149	0x3d938a33	0.07204094
150	0xbddd8ec4	-0.10818246
151	0x3aabc253	0.0013104178
152	0xbcf54adf	-0.029942928
153	0x3dbd310b	0.0923787
154	0xbdb0f010	-0.08639538
155	0xbdceeba9	-0.10103542
156	0x3dbf37f1	0.09336842
157	0xbd3328a4	-0.04373993
158	0xbc80b993	-0.015713489
159	0xbd9ce6a9	-0.076611824
160	0x3d5421b3	0.05178995
161	0xbde49954	-0.111620575
162	0xbb910183	-0.004425229
163	0x3e036737	0.12832342
164	0x3d9b5443	0.07584431
165	0xbd0403d6	-0.03223022
166	0xbda06503	-0.078317665
167	0x3dc547b9	0.09632821
168	0xbe079f1f	-0.13244294
169	0x3a8378e2	0.0010030533
170	0xbe15a681	-0.14614297
171	0xbe0823a4	-0.13294846
172	0xbdcd42b4	-0.10022488
173	0x3d3ff799	0.046866987
174	0x3db3492e	0.08754192
175	0xbe087699	-0.13326491
176	0xbd411b10	-0.04714495
177	0xbcb4195a	-0.021984745
178	0x3c68414a	0.014175722
179	0xbe2ebaec	-0.17063493
180	0x3d9878ef	0.07444941
181	0x3d679e2b	0.056547325
182	0x3ccc9ace	0.02497616
183	0xbd8f8eef	-0.07009684
184	0x3ddd532b	0.10806879
185	0x3c5d262d	0.013497871
186	0xbe2259c3	-0.15854554
187	0xbdf853ac	-0.12125334
188	0xbe1b5576	-0.1516932
189	0xbe163a5a	-0.14670697
190	0x3dca3697	0.098736934
191	0xbdaa0ef3	-0.083036326
192	0x3d9b8b8f	0.07594978
193	0xbb3ed568	-0.00291189
194	0xbdf446cc	-0.11927566
195	0xbdebd47d	-0.11515138
196	0xbcef91e5	-0.029244373
197	0x3d7d265b	0.061804157
198	0xbc6b7f48	-0.014373608
199	0x3d6be2ac	0.057589218
200	0x3df85ad0	0.12126696
201	0xbcbd1279	-0.023080098
202	0x3dedaf82	0.11605741
203	0xbd61e45d	-0.055149425
204	0xbd2910ae	-0.041275673
205	0x3d29ed21	0.04148591
206	0x3e05d9b0	0.13071322
207	0x3da7063d	0.08155487
208	0x3d9a3b5d	0.07530854
209	0x3d83bd64	0.06432608
210	0xbe03d031	-0.12872387
211	0xbd89d681	-0.067303665
212	0xbcceac59	-0.025228666
213	0x3d514b20	0.051097035
214	0xbdc811a4	-0.0976899
215	0xbdce5ba6	-0.10076074
216	0x3dd03361	0.1016605
217	0xbe041576	-0.12898812
218	0xbcc1f602	-0.023676876
219	0xbe21119f	-0.15729378
220	0xbe149811	-0.14511134
221	0x3e07c0dc	0.13257164
222	0x3d117cfc	0.035519585
223	0x3cd4b2ab	0.025964102
224	0xbe187b30	-0.14890742
225	0x3e063156	0.13104758
226	0x3d6330a8	0.055466324
227	0xbd3c3026	-0.045944355
228	0x3da2bf63	0.0794666
229	0x3dcd5804	0.10026553
230	0xbd8df220	-0.06930947
231	0xbd1dc847	-0.038521077
232	0xbd3ff2c2	-0.04686237
233	0xbbfa087e	-0.007630407
234	0xbcb72e4f	-0.022360949
235	0x3dee08be	0.11622761
236	0xbdbf1582	-0.09330274
237	0xbdcadcfa	-0.09905429
238	0x3c28ef9d	0.0103110345
239	0x3d7a95bd	0.061177958
240	0x3e068756	0.13137564
241	0x3dc694d4	0.096963555
242	0x3d81b0d9	0.06332559
243	0xbcdd7ce9	-0.0270371
244	0xbd38e8d2	-0.04514391
245	0x3d50a97f	0.050942894
246	0xbd5e6173	-0.054292154
247	0xbd58b96e	-0.052911215
248	0x3d81372b	0.063093506
249	0x3cb557a9	0.022136526
250	0xbda900e4	-0.08252123
251	0xbd001777	-0.031272378
252	0x3e04d29a	0.12970963
253	0xbdf811e8	-0.1211279
254	0x3e1508ab	0.14554088
255	0x3e1fb606	0.1559678

bias f4 [29]
0	0xbdc59cd8	-0.09649056
1	0x3d35a0da	0.044342853
2	0x3d6c7a9e	0.057734124
3	0x3d823183	0.063571
4	0xbdbd5a15	-0.092456974
5	0xbd036951	-0.03208286
6	0x3be60015	0.0070190527
7	0xbcf29e34	-0.029616453
8	0x3e1a9475	0.15095694
9	0xbcb3a884	-0.02193094
10	0xbdc8acb6	-0.09798567
11	0x3dffbed2	0.12487568
12	0xbda14105	-0.078737296
13	0xbd66216d	-0.05618422
14	0x3e019fa7	0.12658559
15	0xbe0f0747	-0.1396762
16	0x3ccff817	0.025386853
17	0xbd05b950	-0.03264743
18	0x3d804903	0.06263926
19	0xbd1e5984	-0.038659588
20	0x3e08533e	0.13313004
21	0xbd8088cd	-0.06276093
22	0x3cda51ec	0.026650392
23	0xbce769b3	-0.028248644
24	0xbc80d916	-0.015728515
25	0xbe012b54	-0.12614185
26	0x3df7fddb	0.12108966
27	0xbb444863	-0.0029950372
28	0x3de9bfe3	0.114135526

weight f4 [50, 9]
0	0x3e9d308f	0.3070111
1	0xbe4a7733	-0.19772033
2	0xbe1c1f6e	-0.15246364
3	0xbe8eb9aa	-0.27876025
4	0xbc4c6a3e	-0.012476502
5	0xbd6c0d26	-0.057629727
6	0x3e8b5006	0.2720949
7	0xbdd3fb47	-0.10350662
8	0xbcd1566a	-0.0255539
9	0xbb68a0ef	-0.0035496315
10	0x3d9dd967	0.07707482
11	0x3eac7632	0.33683926
12	0xbedd1108	-0.43177056
13	0x3e2e04ae	0.16993973
14	0xbecd04bc	-0.40042675
15	0xbeca3092	-0.3949018
16	0xbd203efb	-0.039122563
17	0x3dee1aef	0.11626231
18	0x3e5668eb	0.2093846
19	0xbe3a34a5	-0.18184145
20	0x3de4794d	0.11155949
21	0x3e89ae10	0.26890612
22	0x3e678be6	0.22611961
23	0x3dbe4902	0.09291269
24	0xbb766c14	-0.003760104
25	0xbe3771e4	-0.1791454
26	0x3c87c6b1	0.016574236
27	0x3e692efd	0.22771831
28	0x3ab93f6a	0.0014133279
29	0x3eac23e3	0.3362113
30	0x3e3e8b1b	0.18607752
31	0xbe8116de	-0.2521276
32	0xbe1bd325	-0.15217264
33	0xbe962355	-0.2932383
34	0xbe781b40	-0.24229145
35	0xbe9daaae	-0.3079428
36	0x3d3425b9	0.043981288
37	0x3e00a77c	0.1256389
38	0xbe624e99	-0.22100295
39	0x3e864778	0.262264
40	0xbe7ad33e	-0.24494645
41	0x3de1b143	0.11020138
42	0xbe4bcdfd	-0.19902797
43	0x3d5003e6	0.050784968
44	0x3e1620d4	0.1466096
45	0xbe924c87	-0.2857401
46	0xbe834d0c	-0.2564472
47	0x3e260251	0.16211821
48	0x3d745c28	0.0596582
49	0xbe923b7a	-0.28561002
50	0x3e2482fc	0.16065592
51	0xbe13898f	-0.14407943
52	0xbe72ba93	-0.23703985
53	0x3e5a8de8	0.21343195
54	0xbd713de8	-0.05889693
55	0xbe0e6c48	-0.13908494
56	0xbdbea6f0	-0.093091846
57	0x3e0bc9e0	0.13651228
58	0xbeb4ec69	-0.35336617
59	0xbebfc9dd	-0.37458697
60	0x3e98f2c4	0.29872715
61	0x3d665c7d	0.056240547
62	0xbea0ed87	-0.3143122
63	0xbea3fd2c	-0.32029092
64	0xbde1eae2	-0.110311285
65	0xbeea9d9b	-0.45823368
66	0xbeb0486b	-0.3443025
67	0x3e92d15c	0.28675354
68	0xbe41d60f	-0.18929313
69	0xbe14a361	-0.14515449
70	0x3e7cda26	0.24692592
71	0xbe9843b3	-0.2973915
72	0xbeadea96	-0.33968037
73	0xbe77e478	-0.24208248
74	0xbd88ae9f	-0.06673931
75	0xbda558ff	-0.08073615
76	0x3e891bbc	0.26778972
77	0xbe0eead8	-0.13956773
78	0xbe73a013	-0.23791532
79	0xbe690324	-0.22755104
80	0xbe4f0ab0	-0.2021892
81	0xbdd66679	-0.10468764
82	0x3eb5f789	0.35540417
83	0x3ebf714c	0.37391126
84	0x3e8c217d	0.273693
85	0xbe699e61	-0.22814323
86	0xbe91c7e2	-0.2847281
87	0xbe51945b	-0.2046675
88	0x3e97fb2f	0.29683825
89	0xbe81e83a	-0.25372487
90	0x3d51a2e4	0.051180735
91	0x3d475eeb	0.048674505
92	0xbd2b974a	-0.041892327
93	0xbcfc08fb	-0.030766001
94	0x3e8a410d	0.27002755
95	0x3e27995d	0.16367097
96	0xbdf4048d	-0.119149305
97	0xbd12f172	-0.03587479
98	0xbdfc2d90	-0.12313378
99	0x3cc83ea8	0.02444394
100	0xbec3be52	-0.3823114
101	0xbe30032b	-0.17188708
102	0xbe92ff75	-0.28710523
103	0x3e2a2541	0.16615774
104	0xbea16119	-0.31519392
105	0x3e70e9d8	0.23526704
106	0x3de46472	0.11151971
107	0x3cd282f5	0.02569721
108	0x3e38c96b	0.18045585
109	0x3e9dc35e	0.30813116
110	0x3e440755	0.19143422
111	0xbe9fe5a7	-0.31229898
112	0x3e927070	0.28601408
113	0x3d276a69	0.040872965
114	0x3e63e0e6	0.2225376
115	0x3d252e32	0.04032726
116	0xbe9479e5	-0.28999248
117	0x3e235131	0.15948941
118	0xbe893f65	-0.2680618
119	0xbe97b267	-0.29628298
120	0xbe668351	-0.2251103
121	0x3c910616	0.017703097
122	0xbd8dc941	-0.06923152
123	0xbe1df61f	-0.15425919
124	0xbe45e9f9	-0.19327535
125	0xbe940092	-0.28906685
126	0x3d2c7298	0.042101473
127	0x3e91d877	0.28485462
128	0xbe193529	-0.14961685
129	0x3ea2b127	0.31775782
130	0xbe23a0eb	-0.15979354
131	0x3e0468bf	0.12930582
132	0xbe993ecb	-0.2993072
133	0xbe045f63	-0.12927012
134	0x3e4042c3	0.18775468
135	0x3c75086b	0.01495562
136	0xbe832188	-0.2561152
137	0x3cc7916a	0.024361331
138	0x3e3064b0	0.17225909
139	0xbe82b7d2	-0.2553087
140	0xbe062951	-0.13101698
141	0xbd4a291a	-0.049355604
142	0x3e1c8de6	0.15288505
143	0x3dff0fbe	0.124541745
144	0x3d1d0613	0.03833587
145	0x3e1246a6	0.14284763
146	0x3df9081b	0.12159749
147	0xbe206fb1	-0.15667607
148	0x3bb352b0	0.0054725036
149	0xbe151e6c	-0.14562386
150	0x3a0918f2	0.00052298524
151	0xbe6491fc	-0.22321314
152	0xbd0b48df	-0.034005042
153	0x3d9f9215	0.07791535
154	0x3ead7089	0.3387492
155	0x3ec12b65	0.3772842
156	0x3e452c6f	0.19255231
157	0xbe6c69c4	-0.23087221
158	0xbda28de6	-0.07937221
159	0x3d6fa196	0.05850371
160	0xbdb0165c	-0.08598015
161	0xbdca740d	-0.09885416
162	0x3b38999f	0.0028167737
163	0x3e8b104e	0.27160877
164	0x3e25fd4c	0.16209906
165	0xbe360748	-0.17776215
166	0xbda68ed1	-0.08132709
167	0xbeb3c7d6	-0.351134
168	0x3c5bcb34	0.013415147
169	0xbd96e6f0	-0.073682666
170	0x3e5d29b2	0.21597937
171	0xbdab6276	-0.08368389
172	0x3d40d7c3	0.047080766
173	0xbdf3851b	-0.11890622
174	0xbda6340e	-0.081153974
175	0xbd95dc72	-0.07317437
176	0x3e277930	0.16354823
177	0x3cfb1848	0.030651227
178	0x3e923862	0.28558642
179	0xbe82a814	-0.25518858
180	0xbe85ddbe	-0.26145738
181	0x3d7dc56d	0.061955858
182	0x3d5f1704	0.05446531
183	0xbc048d99	-0.0080904
184	0x3cc0c341	0.023530604
185	0xbc4ff80c	-0.012693416
186	0xbe97df12	-0.29662377
187	0x3e2b1f4a	0.16711155
188	0xbe50c73d	-0.20388503
189	0xbe7b1efa	-0.24523535
190	0xbeb37abb	-0.35054573
191	0xbd83cc4e	-0.064354524
192	0xbe320408	-0.1738435
193	0xbe8f456b	-0.2798265
194	0x3e2aca1d	0.16678663
195	0xbe2aac13	-0.16667204
196	0xbe9fe139	-0.3122652
197	0x3e170044	0.14746195
198	0x3ddbba0d	0.10728846
199	0x3e1ba7bb	0.15200703
200	0xbe3a4cab	-0.18193309
201	0x3d092b00	0.033488274
202	0xbe8ecd63	-0.27891073
203	0x3e389c72	0.18028429
204	0xbd9bcd43	-0.0760751
205	0xbdc35d54	-0.09539285
206	0xbe930796	-0.28716725
207	0xbad1a985	-0.0015995955
208	0x3e17eb61	0.14835884
209	0x3e8c5269	0.27406624
210	0x3c2777b9	0.010221415
211	0xbe7c1342	-0.24616721
212	0xbe5c99dd	-0.21543069
213	0x3e942c9b	0.2894028
214	0x3c9bb516	0.019007247
215	0xbe4de0e9	-0.20105328
216	0xbe0e9146	-0.13922605
217	0x3dba0a02	0.0908394
218	0x3e9ce4d3	0.3064333
219	0x3ea63ea5	0.3246967
220	0xbe25394d	-0.1613514
221	0xbe7630c9	-0.24042048
222	0x3e681b82	0.22666743
223	0x3dfb1a6e	0.122609004
224	0x3e49fbf6	0.19725022
225	0x3ebfebd1	0.374846
226	0xbd9f25f4	-0.07770911
227	0x3e8fba35	0.28071752
228	0xbe8a7ffc	-0.2705077
229	0x3e447547	0.19185363
230	0x3e05b085	0.13055618
231	0x3d16f4a4	0.0368544
232	0x3e8f8844	0.2803365
233	0x3cbe598a	0.023236055
234	0xbe3b37f3	-0.18283062
235	0xbd658a7b	-0.05604027
236	0xbecc9ce4	-0.39963448
237	0xbe8540ba	-0.26025945
238	0xbe3e04bb	-0.18556492
239	0xbe083865	-0.13302763
240	0x3d7b5f4c	0.06137018
241	0x3e068ebe	0.1314039
242	0x3e71f208	0.23627484
243	0xbd8f09db	-0.06984302
244	0x3a8a8e8b	0.0010571046
245	0xbe07dc88	-0.1326772
246	0x3e84affe	0.2591552
247	0xbe15d96f	-0.14633726
248	0xbe1fc779	-0.15603437
249	0x3e87afe6	0.26501387
250	0xbe93a1be	-0.28834337
251	0x3e04a99f	0.1295533
252	0x3e433742	0.19064048
253	0x3e51d60e	0.20491812
254	0xbd81c2f0	-0.063360095
255	0xbe3968b8	-0.18106353

bias f4 [50]
0	0xbeb72b45	-0.357752
1	0xbd13b118	-0.03605756
2	0xbe9631a8	-0.2933476
3	0xbd8ed6c9	-0.06974561
4	0x3e85ed7a	0.26157743
5	0xbe263764	-0.16232067
6	0xbe3c7850	-0.1840527
7	0xbe5de55d	-0.21669526
8	0x3cb16f4e	0.02165952
9	0xbd207f22	-0.039183743
10	0xbead3ecb	-0.3383697
11	0x3e4125c3	0.18862061
12	0xbda3e363	-0.08002355
13	0x3b84bbd0	0.0040507093
14	0x3eaea876	0.341129
15	0xbeb42759	-0.3518627
16	0x3e74804e	0.2387707
17	0x3efd9aa4	0.49532044
18	0x3ebc120d	0.36732522
19	0x3eb49788	0.3527186
20	0xbdffd6a7	-0.124921136
21	0xbda26b33	-0.07930603
22	0xbe70f707	-0.23531733
23	0x3e4066e7	0.18789254
24	0x3de1f2f7	0.1103267
25	0x3e4500da	0.19238606
26	0xbe1c2fed	-0.15252657
27	0x3e1401cd	0.14453812
28	0xbe256bf9	-0.1615447
29	0xbd872d1c	-0.06600401
30	0xbdb3601d	-0.087585665
31	0xbd392e13	-0.045209955
32	0x3d03575c	0.032065734
33	0x3e4113b7	0.18855177
34	0x3e0a34a0	0.13496637
35	0x3eb9d5ec	0.36296022
36	0xbe619fff	-0.2203369
37	0xbe5bb239	-0.21454705
38	0xbe771ec8	-0.24132836
39	0x3eb44263	0.352069
40	0xbe792998	-0.24332273
41	0x3db5307c	0.08847138
42	0x3ec944ae	0.3931021
43	0xbe05940d	-0.13044758
44	0x3e52d89a	0.2059044
45	0x3e4f716a	0.20258108
46	0xbe0566e5	-0.13027532
47	0x3d201791	0.039084975
48	0xbe0ab00f	-0.13543724
49	0x3e8738fc	0.26410663

weight f4 [50, 50]
0	0xbdc107b7	-0.094252996
1	0xbe185207	-0.14875041
2	0xbd46dc50	-0.04854995
3	0xbd12c0c6	-0.035828374
4	0x3d87fb6f	0.06639754
5	0x3d75cecc	0.06001167
6	0xbc9ad3de	-0.018899854
7	0x3dac7d73	0.08422365
8	0xbda4fe01	-0.0805626
9	0x3daf318a	0.08554371
10	0xbd3495dc	-0.04408823
11	0xbdcc663d	-0.09980438
12	0xbdec5700	-0.115400314
13	0x3d37b2cb	0.044848245
14	0xbd880c93	-0.06643023
15	0x3d55514f	0.052079495
16	0x3e14c3e9	0.14527859
17	0x3d36a5b1	0.04459161
18	0x3d02dca2	0.031948693
19	0x3d1f5117	0.038895693
20	0x3d30aa56	0.043131195
21	0x3ccfd6dc	0.025371008
22	0x3d33cb4b	0.043895047
23	0x3ddc615c	0.10760757
24	0xbdba504d	-0.090973474
25	0x3ddfb20b	0.10922631
26	0xbc546b79	-0.012965077
27	0x3d774a5e	0.060373656
28	0x3def0b92	0.11672129
29	0xbdeafe56	-0.11474292
30	0xbd96c19d	-0.073611476
31	0xbda10381	-0.078619964
32	0x3d915cf4	0.070978075
33	0x3d3cd34a	0.04609994
34	0xbd25e017	-0.04049691
35	0xbd8ed89b	-0.06974908
36	0x3dac5e69	0.08416445
37	0xbb894375	-0.0041889497
38	0x3c3a7a4c	0.011381697
39	0x3d8757ed	0.066085674
40	0xbdb51b40	-0.08843088
41	0x3d30aaea	0.043131746
42	0x3da107e2	0.07862832
43	0xbdc52752	-0.096266404
44	0x3e336eda	0.17522755
45	0x3cb9ce1b	0.022681287
46	0x3d9dadfb	0.076992
47	0x3dbecc13	0.09316268
48	0xbe16c3c5	-0.14723118
49	0x3de6f4ea	0.112771824
50	0xbd9f2553	-0.07770791
51	0x3deab7df	0.11460852
52	0x3b102725	0.0021995988
53	0x3bed3e29	0.007240076
54	0xbd3d5d16	-0.04623135
55	0xbd5faa8f	-0.054606017
56	0x3de81d47	0.11333709
57	0xbdb14b0a	-0.08656891
58	0x3dedc7a9	0.11610348
59	0x3d013f90	0.03155476
60	0xbda4b637	-0.08042567
61	0x3b2ff011	0.0026845972
62	0x3d7cd8b5	0.061730105
63	0x3cfc4ec4	0.030799277
64	0x3e3590ed	0.17731066
65	0xbda0ed14	-0.07857719
66	0x3e55bf13	0.2087367
67	0xbc1544c3	-0.009110632
68	0x3e2730bf	0.16327189
69	0xbcfdb0c5	-0.03096808
70	0xbd04e45c	-0.032444343
71	0xbcf473d4	-0.029840387
72	0x3d2c092a	0.042000927
73	0x3ccdcce3	0.025122112
74	0xbd7511e9	-0.059831534
75	0xbdded617	-0.10880678
76	0xbe113c77	-0.14183222
77	0x3dd7c57a	0.105357125
78	0x3d96c7a8	0.073623
79	0xbe000216	-0.12500796
80	0xbe3f9fe9	-0.18713345
81	0x3e04af4d	0.12957497
82	0x3da9a816	0.08284013
83	0xbdde253f	-0.10846948
84	0x3d88ae2f	0.06673848
85	0x3ccbc136	0.024872404
86	0xbd391cd5	-0.045193512
87	0x3ddb5c3f	0.10710954
88	0x3d5d478c	0.05402331
89	0xbdc28117	-0.09497278
90	0x3d8bcc14	0.06826034
91	0x3e0f141b	0.13972513
92	0xbbedfd04	-0.007262828
93	0xbdf5ff39	-0.120115705
94	0xbd1dde3f	-0.03854203
95	0xbc29f0cc	-0.010372352
96	0xbc9e4559	-0.019320177
97	0xbbe556d3	-0.0069988756
98	0xbcdb5079	-0.02677177
99	0xbc8305f9	-0.015994059
100	0x3de15889	0.11003215
101	0x3dcc5aa4	0.09978226
102	0x3b3ccf57	0.0028810108
103	0xbda2b963	-0.07945516
104	0x3d66d80c	0.056358382
105	0xbcf206df	-0.029544292
106	0x3de95fa8	0.11395198
107	0xbc352d50	-0.011058167
108	0x3e789de2	0.24278978
109	0xbc674415	-0.014115353
110	0x3ded73d8	0.11594361
111	0x3dd49c53	0.10381379
112	0xbcdf573c	-0.027263276
113	0x3e69ad47	0.22820006
114	0xbdce2263	-0.100651525
115	0x3e13b4c8	0.14424431
116	0x3cbb1970	0.022839278
117	0x3dab4502	0.083627716
118	0xbc9c90ad	-0.019111956
119	0x3e30af2f	0.17254327
120	0xbd053fbd	-0.03253149
121	0x3db97d94	0.09057155
122	0x3d2e579f	0.04256403
123	0x3e0b2d4e	0.13591501
124	0xbdaf8b85	-0.08571533
125	0x3d1d6c42	0.03843332
126	0x3d1fbc90	0.038998187
127	0x3e06890b	0.13138215
128	0x3c8e37ac	0.01736053
129	0x3e4db6b9	0.20089234
130	0x3c5e4183	0.013565424
131	0x3d2b18c2	0.041771658
132	0x3de4e958	0.11177319
133	0x3e4a695d	0.19766755
134	0xbd4bdb9e	-0.04976999
135	0x3d9f4483	0.077767394
136	0x3d96db38	0.073660314
137	0x3e30a795	0.17251427
138	0x3d20a971	0.039224092
139	0x3e3ac19f	0.18237923
140	0x3e210882	0.15725902
141	0x3e4c0a3b	0.19925778
142	0x3cbc5ac4	0.0229925
143	0xbd28a3f6	-0.04117199
144	0x3dd3a2f2	0.10333814
145	0xba0e42f0	-0.00054268446
146	0x3d38f9c0	0.045160055
147	0x3d0bac34	0.034099773
148	0xbdc717f4	-0.097213656
149	0x3dae7c77	0.085198335
150	0xbd4c4731	-0.04987258
151	0xbd7336b3	-0.059378337
152	0x3d451da2	0.048123963
153	0xbc18f8fc	-0.009336706
154	0xbd827ae3	-0.06371095
155	0xbd860568	-0.06544
156	0xbc9ee2b9	-0.01939522
157	0x3de01d3a	0.109430745
158	0x3e0fd53a	0.14046183
159	0x3d98f42a	0.074684456
160	0x3dfb4177	0.12268346
161	0x3ca88878	0.020572886
162	0x3d962adf	0.07332396
163	0x3d733265	0.05937423
164	0xbd9c5bc0	-0.076346874
165	0x3c2d4906	0.010576492
166	0x3d845864	0.06462172
167	0xbd712f55	-0.05888303
168	0x3b8a205f	0.0042152847
169	0x3d429635	0.04750653
170	0xbdba1638	-0.09086269
171	0xbd80cc60	-0.062889814
172	0x3c4ddad4	0.01256438
173	0xbe22fd90	-0.15917039
174	0xbc8851bd	-0.016640538
175	0xbd609505	-0.054829616
176	0x3e0c5811	0.1370547
177	0xbe0b6176	-0.13611397
178	0xbdbb64b5	-0.09150068
179	0x3de1dda0	0.110286
180	0x3dd40ccb	0.103540026
181	0x3c36b9e9	0.011152723
182	0x3d83d19c	0.06436464
183	0xbdbefe47	-0.09325843
184	0xbda377e0	-0.07981849
185	0x3e08a4b6	0.13344082
186	0xbd015654	-0.03157647
187	0x3d11f3ee	0.03563302
188	0x3c5f735b	0.013638343
189	0x3d2c2393	0.042026114
190	0xbc67f3ea	-0.014157275
191	0xbd479304	-0.04872419
192	0x3de4e323	0.111761354
193	0x3c99f688	0.018794313
194	0x3dd60da5	0.10451821
195	0xbdff8897	-0.12477224
196	0xbd3db2dd	-0.046313155
197	0xbbffec93	-0.0078101843
198	0x3de711e0	0.11282706
199	0x3ddd52cf	0.1080681
200	0xbe0a6e81	-0.13518716
201	0x3da09194	0.07840267
202	0xbdcb38a3	-0.09922912
203	0x3e063c9a	0.13109055
204	0xbd8e1321	-0.06937242
205	0xbd68018f	-0.05664211
206	0xbdd1d936	-0.10246508
207	0x3c8cb4a9	0.01717599
208	0xbde486bb	-0.1115851
209	0xbdc189dd	-0.094501235
210	0xbce9d805	-0.028545389
211	0x3cdeff50	0.027221352
212	0x3de7398d	0.11290274
213	0x3cdadb3b	0.026715865
214	0xba2214d3	-0.00061829126
215	0xbdd79d94	-0.105281025
216	0xbdb645f5	-0.08900062
217	0x3da68116	0.0813009
218	0x3e1d871d	0.15383573
219	0x3dfc44bc	0.123177975
220	0xbd272080	-0.04080248
221	0xbd63a720	-0.055579305
222	0x3da4dceb	0.08049949
223	0xbd0380bf	-0.032105204
224	0x3dc66fa1	0.0968926
225	0xbdd8b7e3	-0.105819486
226	0xbe1559ea	-0.1458508
227	0xbd529302	-0.05140973
228	0xbd7d0e4a	-0.061781205
229	0x3d16b427	0.0367929
230	0xbda6688c	-0.081254095
231	0xbd7d9609	-0.061910663
232	0xbe1e24ea	-0.15443769
233	0xbdc2aa0e	-0.095050916
234	0x3d14db7f	0.03634214
235	0x3d8c4689	0.06849391
236	0xbe7948ea	-0.24344221
237	0xbe6b386d	-0.22970743
238	0x3ddd028a	0.107915
239	0xbab973fb	-0.0014148945
240	0xbdbf75a7	-0.09348612
241	0x3c1a262d	0.009408516
242	0x3e15b1d4	0.14618617
243	0x3dea1262	0.114292875
244	0x3d687af6	0.05675789
245	0x3e03a981	0.1285763
246	0xbdaae421	-0.083442934
247	0xbe091706	-0.13387689
248	0x3d9261c1	0.07147551
249	0x3d88bcd5	0.06676642
250	0x3e070858	0.13186777
251	0xbd4760f5	-0.04867645
252	0xbdb59e2d	-0.0886806
253	0x3e13e3ed	0.14442416
254	0xbd9c135a	-0.076208785
255	0x3deb3752	0.11485161

bias f4 [50]
0	0x3e1f32c8	0.15546715
1	0xbd37511c	-0.044755086
2	0x3deecc10	0.116600156
3	0xbdad06ff	-0.084486
4	0x3e189742	0.1490145
5	0xbdb93e7a	-0.090451196
6	0x3de27c8a	0.1105891
7	0x3dec3cd6	0.11535041
8	0x3d80f6d3	0.06297078
9	0xbc0fc9bb	-0.008776124
10	0xbe2f9d25	-0.1714979
11	0x3e25acc0	0.1617918
12	0x3d8e4a74	0.069477946
13	0x3df2008b	0.1181651
14	0x3e3f60d6	0.18689284
15	0xbe18dc28	-0.14927733
16	0x3d8a3a03	0.06749346
17	0x3e20f18f	0.15717147
18	0x3d1a738f	0.03770786
19	0xbcb4ab27	-0.022054268
20	0x3d4d3102	0.050095566
21	0xbdd336e1	-0.10313202
22	0x3de10931	0.10988081
23	0x3d483ba2	0.048884995
24	0x3db7586f	0.08952414
25	0x3e06ab00	0.13151169
26	0xbccc8bbb	-0.024968972
27	0xbe0cbee2	-0.13744691
28	0x3da5ea6a	0.081013516
29	0xbe218f3d	-0.15777297
30	0x3d571715	0.052512247
31	0xbcf8de60	-0.030379474
32	0x3e02695e	0.12735507
33	0x3d0bde64	0.034147635
34	0xbe073cc9	-0.13206781
35	0x3e04d7be	0.12972924
36	0xbbbbd889	-0.0057326
37	0x3dd55a20	0.104175806
38	0x3c8cc5db	0.017184189
39	0xbda3ca4d	-0.0799757
40	0xbd8f383d	-0.069931485
41	0x3e16dc6c	0.14732522
42	0xbdfc3fb5	-0.12316839
43	0x3d7f8193	0.06237943
44	0x3ca0f673	0.019648766
45	0xbdb35b65	-0.087576665
46	0x3e519300	0.20466232
47	0x3cf7e683	0.030261284
48	0x3e3c4229	0.18384613
49	0x3e43868e	0.19094297

weight f4 [29, 50]
0	0xbde4f656	-0.11179797
1	0xbe020c04	-0.12699896
2	0x3d6c9742	0.05776144
3	0x3df1e155	0.11810557
4	0xbdbb65ca	-0.09150274
5	0xbd203179	-0.03910968
6	0xbbc2a1e3	-0.0059397086
7	0x3d557bf3	0.05212016
8	0x3cd8fc1c	0.026487403
9	0xbde29765	-0.110640325
10	0x3cd28dd7	0.0257024
11	0xbdf2cb9a	-0.1185524
12	0xbe0ce4d0	-0.1375916
13	0xbd60dc15	-0.054897387
14	0x3c58e237	0.013237528
15	0xbd41b777	-0.047294106
16	0x3e0d0798	0.13772428
17	0xbdbbd9fb	-0.09172436
18	0xbdca414c	-0.09875736
19	0x3b8b5ae9	0.0042527807
20	0xbdb8f442	-0.090309635
21	0xbd5a7adf	-0.053339835
22	0xbd38fed8	-0.045164913
23	0xbcd7d7a0	-0.026347935
24	0x3e02b541	0.12764455
25	0x3e0d0e30	0.13774943
26	0x3b7c5c1a	0.0038507045
27	0xbdc71340	-0.097204685
28	0x3dcbe69c	0.099560946
29	0xbcc54357	-0.024079962
30	0xbd618245	-0.055055875
31	0xbce42f29	-0.027854519
32	0x3d1c7959	0.038201664
33	0xbd1bd6b9	-0.038046572
34	0xbd65f620	-0.056142926
35	0x3dd55010	0.10415661
36	0x3d2b9258	0.04188761
37	0xbcc84526	-0.024447035
38	0x3d759be0	0.059963107
39	0x3c9dd76a	0.019267756
40	0xbda66c67	-0.08126145
41	0xbda41ad2	-0.08012928
42	0x3d509db4	0.050931647
43	0x3dcb2c68	0.09920579
44	0xbd3fce76	-0.046827756
45	0xba546569	-0.00081022695
46	0x3d44fe28	0.048093945
47	0x3d0e4a67	0.034738924
48	0x3da47978	0.08030981
49	0x3c0b30c5	0.008495514
50	0xbc45d62c	-0.012074988
51	0x3ce01b0d	0.027356649
52	0x3c14da13	0.009085196
53	0x3b9ff148	0.004881058
54	0xbe1e4baa	-0.15458551
55	0xbda7d08b	-0.08194073
56	0x3d9e8cf0	0.077417254
57	0x3af53aa8	0.0018709498
58	0xbd98df65	-0.07464484
59	0xbdc0e875	-0.09419338
60	0x3d965798	0.07340926
61	0xbd54d5e7	-0.051961806
62	0x3de67b9d	0.11254046
63	0x3de9ed00	0.11422157
64	0xbddd602c	-0.10809359
65	0x3e093776	0.13400063
66	0xbda77c9e	-0.08178066
67	0xbcc145ec	-0.023592912
68	0xbd9f9242	-0.07791568
69	0x3d2333fd	0.0398445
70	0xbdb3c9f8	-0.08778757
71	0x3d37a4d1	0.044834916
72	0xbd362543	-0.04446913
73	0x3dc52e53	0.09627976
74	0xbdb671c7	-0.0890842
75	0xbd5203fc	-0.05127333
76	0x3d6fa2d2	0.058504887
77	0x3dad7728	0.08469993
78	0x3d8b4045	0.06799368
79	0x3e0dc39d	0.13844152
80	0xbc54e40c	-0.012993824
81	0x3d2df1d6	0.04246696
82	0x3d39ea16	0.045389257
83	0x3db5eeb6	0.08883421
84	0x3e042002	0.12902835
85	0x3d818fc5	0.0632625
86	0x3db6379e	0.08897327
87	0xbd8e9921	-0.06962801
88	0x3dce3254	0.10068193
89	0x3d7dc248	0.06195286
90	0xbdbcea6c	-0.092244
91	0x3dfc62ef	0.123235576
92	0x3d582de0	0.052778125
93	0xbcf946c3	-0.03042925
94	0x3daa4454	0.08313814
95	0xbdaab6f4	-0.08335677
96	0xbde581ef	-0.112064235
97	0x3dcb097c	0.099139184
98	0xbb9d0ffc	-0.0047931653
99	0x3cbddc83	0.023176437
100	0x3dde6a9b	0.10860177
101	0x3bb16b0f	0.0054143737
102	0xbd395140	-0.0452435
103	0x3df56bd7	0.119834594
104	0x3d8e5a8d	0.06950865
105	0xbd358be4	-0.044322863
106	0x3d95a70a	0.07307251
107	0xbdbc5afa	-0.0919704
108	0xbd28cc55	-0.04121049
109	0x3cce5347	0.025186194
110	0x3c83dd4b	0.016096732
111	0x3cb3f58d	0.021967674
112	0xbd41efc5	-0.047347803
113	0x3cff83cb	0.031190773
114	0xbd9fe9d9	-0.07808275
115	0xbdb21ae8	-0.08696538
116	0x3e0d131b	0.1377682
117	0x3aaee9cb	0.0013344822
118	0xbd9019a6	-0.07036142
119	0xbe0aef88	-0.13567936
120	0x3d4d4779	0.05011699
121	0x3dbab190	0.091158986
122	0x3ba337b8	0.0049810074
123	0x3d223d00	0.039608955
124	0x3df7ce38	0.1209988
125	0xbde74015	-0.112915196
126	0xbd77c56a	-0.060491003
127	0xbd6fd395	-0.05855139
128	0x3c561f48	0.0130689815
129	0x3b8cd248	0.0042975284
130	0x3c70fc24	0.0147085525
131	0x3d9e94eb	0.077432476
132	0xbd9fc9b6	-0.07802145
133	0x3cb94011	0.022613557
134	0xbe0faeb2	-0.14031485
135	0x3deacc98	0.114648044
136	0xbcf13af0	-0.029447049
137	0x3d82b39d	0.06381915
138	0x3d6d18aa	0.05788485
139	0xbcfc7820	-0.030818999
140	0xbdd03164	-0.101656705
141	0xbd93cc80	-0.0721674
142	0xbcd24d6b	-0.025671681
143	0x3d777912	0.060418196
144	0xbcaac3b3	-0.02084527
145	0xbd90f084	-0.07077125
146	0xbdca6989	-0.098834105
147	0xbd3c4989	-0.045968566
148	0xbd7847da	-0.060615398
149	0x3d4c9b75	0.049952943
150	0xbd2ed991	-0.042687956
151	0x3e10b962	0.14133218
152	0xbde9661d	-0.1139643
153	0xbd98f9aa	-0.07469495
154	0x3d8eb385	0.069678344
155	0x3d267a45	0.04064395
156	0xbd87774f	-0.06614553
157	0xbd95c123	-0.073122285
158	0x3d86b74e	0.06577931
159	0x3d03dedd	0.03219496
160	0x3d004a71	0.031320993
161	0x3d4e4fe2	0.05036915
162	0xbd24e001	-0.04025269
163	0xbda4ae8f	-0.08041107
164	0xbbee2e51	-0.007268705
165	0x3d1c17d5	0.038108665
166	0xbe32e743	-0.17471032
167	0xbc6ab3a9	-0.014325061
168	0x3d12fada	0.035883762
169	0xbe24a5b3	-0.16078834
170	0xbe1bf311	-0.15229441
171	0xbdd5338a	-0.10410221
172	0xbce78d45	-0.028265605
173	0x3dc03c93	0.093865536
174	0xbd9b78f6	-0.07591431
175	0xbe1066f4	-0.14101774
176	0xbbd5f9e2	-0.0065300325
177	0xbdf69ab8	-0.12041229
178	0x3dc6b2ce	0.09702073
179	0x3dc03528	0.09385139
180	0xbdb6aa3c	-0.089191884
181	0xbc9ce67a	-0.019152869
182	0x3d2ffe26	0.042966984
183	0xbe0da478	-0.13832271
184	0xbdb898d8	-0.09013528
185	0xbd4fac38	-0.05070135
186	0xbd24e9ef	-0.04026216
187	0xbe342f2a	-0.17596117
188	0xbd13caa3	-0.03608192
189	0xbb8ec56f	-0.004357032
190	0xbda022bc	-0.07819125
191	0xbdccf136	-0.10006945
192	0xbd01d619	-0.03169832
193	0x3dcf1f2f	0.1011337
194	0x3df32fae	0.118743286
195	0x3dbe4cd3	0.09291997
196	0x3c9685e9	0.0183744
197	0xbc3dd457	-0.01158627
198	0xbd1ca0b5	-0.0382392
199	0x3c98fdc3	0.01867569
200	0xbde0f449	-0.10984094
201	0xbbaea322	-0.0053295055
202	0x3d3d9ff3	0.046295118
203	0xbc69915f	-0.014255851
204	0xbd9670f7	-0.07345765
205	0xbdeb1237	-0.114780836
206	0x3d39696b	0.04526655
207	0x3d211ddb	0.039335113
208	0x3b9c0b4d	0.0047620893
209	0x3df7f79d	0.12107775
210	0x3e0fbb02	0.14036182
211	0x3dbe576f	0.092940204
212	0x3dbb5bfb	0.09148403
213	0x3d1ef19b	0.03880463
214	0xbc0f0ed2	-0.008731561
215	0xbd88f332	-0.06687011
216	0x3e0783ae	0.13233826
217	0xbd087c8c	-0.033321902
218	0x3db02b3d	0.08601997
219	0xbe1fbd3f	-0.15599535
220	0x3b9310bd	0.0044880793
221	0xbcd6e2d0	-0.0262312
222	0xbe113877	-0.14181696
223	0x3cae9d68	0.021315292
224	0x3b22ac48	0.0024821926
225	0x3cec109d	0.028816516
226	0x3b08bfd1	0.0020866285
227	0xbd83cc0a	-0.06435402
228	0x3c68bfd0	0.014205888
229	0x3e276ed4	0.16350871
230	0xbd9aa0e3	-0.07550218
231	0xbdb75748	-0.089521945
232	0x3dcf2786	0.1011496
233	0x3db40c09	0.08791358
234	0xbda52ac5	-0.08064798
235	0x3d844af7	0.06459611
236	0x3a2db42a	0.0006626273
237	0xbd288106	-0.04113867
238	0xbdf06476	-0.117379114
239	0xbd04fc61	-0.03246725
240	0xbdf3422a	-0.11877854
241	0x3ccfeaaa	0.025380451
242	0xbd848b14	-0.064718395
243	0xbcfbf7b4	-0.030757762
244	0xbcc245eb	-0.02371498
245	0x3e0d15b5	0.13777812
246	0x3d79ea1f	0.06101429
247	0xbb5e4838	-0.0033917557
248	0xbe27962d	-0.16365881
249	0x3da04499	0.07825584
250	0x3e0ee438	0.13954246
251	0x3d827574	0.06370059
252	0x3d973388	0.07382876
253	0xbcf683e6	-0.030092191
254	0xbd868249	-0.06567819
255	0xbcf6160d	-0.030039812

bias f4 [29]
0	0x3d40d813	0.047081064
1	0xbc9f8feb	-0.019477805
2	0xbdfcc624	-0.1234248
3	0x3cbf2663	0.023333734
4	0xbdeda5c8	-0.11603886
5	0x3e2471e5	0.16059072
6	0x3ca212f9	0.019784437
7	0x3e002b2e	0.12516472
8	0x3d9d3cf9	0.07677645
9	0x3dc57018	0.09640521
10	0x3d114c88	0.035473377
11	0x3d4b0fd3	0.049575638
12	0x3e0402bc	0.12891668
13	0xbc6f8f9e	-0.014621643
14	0xbcf0ea4c	-0.029408596
15	0x3de4b75f	0.11167788
16	0x3dc3a259	0.0955245
17	0xbcf4ae8c	-0.029868387
18	0x3ce80d0b	0.028326532
19	0xbc9a054b	-0.018801352
20	0x3da9a3e9	0.082832165
21	0xbb5b7983	-0.0033489175
22	0x3de28d32	0.11062087
23	0xbe3c876b	-0.18411033
24	0xbd873761	-0.066023596
25	0xbdacc825	-0.08436612
26	0x3de1e8c6	0.11030726
27	0x3d89c162	0.06726338
28	0x3dcdd09c	0.10049555
