srim-sbi/data/trained_posterior.pt (torch, 112220 bytes, 32 tensors)

weight f4 [50, 3]
000000 ab 8d 1f 3c b2 61 0b 3e b0 d8 a3 bd 9f d2 03 bf
       0.009738366 0.13611487 -0.08000314 -0.5149326
000010 1b f7 04 bf b2 74 b7 3e 03 5c 47 bd 2e 60 63 bd
       -0.51939553 0.3583122 -0.048671734 -0.055511646
000020 6d 95 d2 3e 83 8e 09 bd 44 7c 27 bd ba 55 de 3d
       0.41129628 -0.033583175 -0.040889993 0.10856195
000030 8c 70 10 be b5 2e 5a 3d 49 3e f9 3e 05 15 99 3d
       -0.14105433 0.0532672 0.48680332 0.07474712
000040 79 99 13 3d 52 4d 92 3e 3d 0b c3 bd b8 38 a9 be
       0.036035035 0.28574616 -0.09523628 -0.33051085
000050 15 b4 d0 bd 4d 66 00 bf d9 9a 14 be 17 04 ba 3e
       -0.10190598 -0.501561 -0.14512195 0.36331245
000060 d5 46 aa 3e 44 3b f2 3e 44 eb 87 3e a5 5e 5d 3e
       0.33257166 0.4731084 0.2654668 0.21618135
000070 c7 e5 13 be 5b 33 a4 3d 84 82 15 be 26 4b fd be
       -0.14443122 0.08017608 -0.14600569 -0.49471396
000080 f6 f5 c5 3e d6 5a 01 3e a5 e2 ef be b5 3f 9d 3e
       0.38664216 0.12632307 -0.46852604 0.30712667
000090 bc 6e a3 be 00 00 3e be 7b 95 30 3e b2 4c 16 bd
       -0.3192042 -0.18554688 0.17244522 -0.036694236
0000a0 d4 ba 25 be f1 ad eb be 71 c8 12 3f 49 3e 9f 3e
       -0.1618455 -0.46031144 0.573371 0.31102207
0000b0 a3 96 b5 3e 76 81 e2 be 5d 27 82 3e c2 dc 80 be
       0.3546649 -0.44239396 0.25420657 -0.25168425
0000c0 75 ac 9d bc 6e 34 97 3e 86 c6 a0 be 74 43 a1 bd
       -0.019247273 0.29532188 -0.3140146 -0.07874194
0000d0 26 c2 eb be ca 35 1f 3e 0e 30 e3 3e 51 41 fe 3d
       -0.4604656 0.15547863 0.443726 0.12414802
0000e0 ac c3 be 3d 7a a1 e8 3e 57 31 c6 be 24 f1 8a 3e
       0.09314665 0.45435697 -0.38709518 0.271371
0000f0 f2 f5 9e be 73 c4 fb 3e b3 8a 9d be 96 fd df 3e
       -0.31047016 0.49173316 -0.30769882 0.43748158
000100 80 e4 09 3f d4 56 0a 3f 75 36 b0 3e 0b 40 af 3e
       0.5386429 0.5403874 0.34416547 0.34228548
000110 fe a6 47 3d a1 95 6a be 41 ac a6 bb 27 ab df 3e
       0.04874324 -0.22908641 -0.0050864522 0.43685266
000120 20 92 d3 be f2 51 59 be e4 79 49 3e 19 8e 0c bf
       -0.41322422 -0.21222666 0.19675404 -0.54904324
000130 56 74 52 3e 15 b5 6f 3e 74 9f c5 be 63 e7 66 be
       0.20552191 0.23408921 -0.38598216 -0.22549205
000140 e2 ff 45 be 8d 04 e5 3e 96 be 91 3e 4d 44 8d 3e
       -0.19335893 0.44730034 0.28465718 0.27591172
000150 3b 21 f3 be c6 17 bd be f3 17 01 be 83 26 b7 be
       -0.4748629 -0.369322 -0.12606792 -0.3577157
000160 c5 4f 19 be da 87 e3 bd 71 4c 59 3e 35 e5 be bd
       -0.14971836 -0.11109896 0.21220566 -0.093210615
000170 d6 66 0b bf 6e fe c2 3d 42 33 72 be 92 f3 97 be
       -0.5445379 0.09521185 -0.23652366 -0.29678017
000180 d3 a3 a6 be fe 7f 01 bf 21 0e af be b8 33 bc 3e
       -0.32546863 -0.50585926 -0.34190467 0.36758208
000190 e2 8e 08 be f8 b7 36 bd 64 44 0a 3f 49 17 f2 be
       -0.13335755 -0.04460904 0.54010606 -0.4728339
0001a0 ac f1 5b bc 8d fb 89 bb fa 63 0c 3f d4 f0 e5 be
       -0.013424318 -0.0042108954 0.5484005 -0.449103
0001b0 8f 8e f2 3e 98 05 c4 be 20 ad ff be bc 47 bf be
       0.4737439 -0.38285518 -0.4993677 -0.37359416
0001c0 f6 1b b6 be fd 07 da 3d 9a c0 ea be b4 1b f8 3e
       -0.35568208 0.10646055 -0.45850068 0.48458636
0001d0 64 34 9e be a8 c6 8b be 6a 14 f2 be 61 f6 9f be
       -0.30899346 -0.273 -0.472812 -0.3124266
0001e0 b6 58 99 be c6 b2 03 3f fd a6 70 3e c1 94 b9 be
       -0.29950494 0.5144466 0.23501201 -0.36246303
0001f0 94 e9 9d 3e f9 91 d1 3e 16 94 09 3e ba 72 84 3d
       0.30842268 0.4093168 0.13435397 0.06467195
000200 3c 5b f3 3e 0d e4 e9 3e e0 a7 63 3e 88 a4 27 3c
       0.47530544 0.456818 0.22232008 0.010232098
000210 15 51 5b bd 02 92 80 3e d6 77 a6 bd 9d 12 4d 3e
       -0.053544123 0.25111395 -0.08128326 0.20026632
000220 03 4d d1 be f8 dd b6 be 82 2a 91 3e 5f fe d0 bc
       -0.40879068 -0.35716224 0.28352743 -0.025511919
000230 31 90 44 3d f8 d1 84 3e 51 6a ee 3e 85 c1 a8 3e
       0.047989074 0.25941443 0.46565488 0.32960144
000240 e8 06 56 bd 90 c9 92 be dc 3a f4 be dc 93 00 bf
       -0.05225268 -0.28669405 -0.47701156 -0.50225616
000250 67 18 04 3d 15 95 db bd
       0.032249834 -0.107217945

bias f4 [50]
000000 3d 96 53 be 9d b1 ef 3a c3 35 d1 3e 86 af a7 3e
       -0.2066278 0.0018287186 0.4086133 0.327511
000010 8b bf 83 3c 6f d5 aa bd 39 fe a4 be 56 ad 19 3f
       0.016082546 -0.083414905 -0.32225206 0.60030115
000020 05 b9 a2 3e ed ba af 3e 8d db 4e be ce 4e d8 3e
       0.31781784 0.343223 -0.2020094 0.42247623
000030 5f 5c 22 3e 47 4b ef bd d5 a6 6b be 54 c9 05 bf
       0.1585555 -0.1168428 -0.2301286 -0.5226033
000040 a4 5c c1 bd 2e 5f 4f be a0 06 ad be 20 1c 90 3d
       -0.09441498 -0.20251152 -0.33794117 0.070366144
000050 6c af a0 be 1d 35 98 bd 24 11 88 be fc 38 30 3d
       -0.31383836 -0.074320056 -0.26575577 0.043023095
000060 3c 5b c3 bd 1d 0b cf 3c f9 36 f4 be 6a 7d 50 be
       -0.09538886 0.025273854 -0.4769819 -0.20360342
000070 b2 09 a2 3e ca a2 b1 3e 02 43 59 be 4d 10 82 3e
       0.31648022 0.3469451 -0.21216968 0.25403062
000080 47 8d 1e 3c 90 cb a6 3e c9 22 3f 3e 24 1c e5 ba
       0.009677238 0.3257718 0.18665613 -0.00174797
000090 a5 89 bc b8 84 e3 cf be 74 c4 a5 3e 55 e0 9f be
       -8.990177e-05 -0.40603268 0.32376444 -0.3122584
0000a0 f1 a0 9a bd cc 46 8b 3e c2 57 0e 3f f3 56 ab 3e
       -0.075502284 0.2720245 0.5560266 0.33464774
0000b0 ba 95 87 bd 0a ed 40 3e df 79 fe 3e 12 fa 0a bf
       -0.06620355 0.18840423 0.49702355 -0.54287827
0000c0 73 77 5d be 29 50 b4 be
       -0.21627598 -0.35217407

weight f4 [50, 50]
000000 d1 1a 8f bc 24 55 b0 3d 57 87 80 bd 6f 5d ad 3d
       -0.017468842 0.08609989 -0.06275814 0.08465087
000010 d0 68 f9 bd 45 b4 cc 3d 53 48 db 3c 75 95 ce bd
       -0.121781945 0.09995321 0.026767885 -0.100871004
000020 24 a8 59 3d cf b5 13 3a dd 5b e4 bd 5f 67 96 3d
       0.053138867 0.00056346966 -0.11150334 0.07343935
000030 c9 03 c2 3c df 84 af bd b7 83 05 be 5a 75 06 3e
       0.023683446 -0.08570265 -0.13038526 0.13130704
000040 67 90 62 bd 48 27 2c bd 1d e5 f8 bd 06 4f ea b9
       -0.055313494 -0.04202965 -0.12153075 -0.00044690835
000050 d1 25 7e 3c 3f 91 73 bc b6 3e 64 bc 5c e3 d2 bc
       0.015511946 -0.014866172 -0.013930967 -0.025743179
000060 ce 8b f9 3d 7f 49 c1 3c bc 76 e1 3d e0 f1 ef bd
       0.12184869 0.023594616 0.11008975 -0.11716056
000070 75 d3 88 bd 3d 69 09 be 07 39 c5 bd e8 d0 ac bd
       -0.06680957 -0.13419051 -0.09630018 -0.08438283
000080 56 ce 21 bd 2a 38 75 3d 1a 66 74 bd a3 6a 54 bd
       -0.039503418 0.059868015 -0.059667684 -0.05185951
000090 18 af 7b 3d 99 f4 36 bd 7c 00 64 3c d3 ab 86 3d
       0.06144628 -0.04466686 0.013916131 0.065757416
0000a0 d3 03 07 bd 7c 9b 0a bd fb cb 90 bd b2 2b 51 3d
       -0.03296263 -0.033839688 -0.07070156 0.05106706
0000b0 0f 55 57 bd 58 66 db 3a 9a 65 17 3d e2 e8 e8 3d
       -0.052571353 0.0016738875 0.03696213 0.11372544
0000c0 32 15 44 bd 49 41 00 3e 90 45 3f bc ef 59 b4 3d
       -0.047871776 0.12524904 -0.0116743 0.08806216
0000d0 0b 9c 7c bd fa b1 62 3c 70 10 c0 3d ba e0 a1 3d
       -0.06167225 0.013836378 0.09378135 0.07904191
0000e0 01 e3 cf bd 8a 54 f3 bd 86 fb 0d bd 6a ed 8d 3b
       -0.101507194 -0.11881359 -0.0346637 0.0043312805
0000f0 4d 01 86 b9 55 3c 1f 3c d2 b7 13 3e 4c f4 b2 3c
       -0.0002555944 0.009718974 0.1442559 0.021845005
000100 da 07 9f ba 9c e2 25 3d f1 be a2 bd da 0d 6e 3d
       -0.0012133077 0.040499315 -0.079465754 0.05811868
000110 e4 c5 37 3e f9 be 8f bb 1f 4a 72 3d fd 3d d4 3d
       0.17946583 -0.0043867794 0.05915272 0.10363386
000120 1e ce 50 bd 54 70 0e be ca 2b fc bd 68 f2 4f 3d
       -0.05097782 -0.13910037 -0.123130396 0.050768286
000130 32 71 2f 3e 3f 32 f4 bc db da d7 bd 62 f7 62 3d
       0.17133024 -0.029809115 -0.1053979 0.055411704
000140 09 0e 18 3e 84 68 10 3a 21 3f cf 3d d0 e8 e8 3d
       0.14849104 0.0005508738 0.10119463 0.113725305
000150 de 1e 8e 3d aa 7a a1 bd 70 18 98 bb 46 3c d3 3d
       0.06939481 -0.078847244 -0.004641585 0.103142306
000160 4d 83 71 bd ef d4 c4 3c 46 fd ee bc 9c e3 c3 bd
       -0.05896311 0.024027316 -0.029173505 -0.095648974
000170 ef 4f 64 3d 15 c6 c2 3d 73 5a 9d bd 5b 23 ec bd
       0.055740293 0.095104374 -0.076832674 -0.11530181
000180 b9 6a d4 bd 1f 1f 8b 3b 0f 27 bd 3c c7 33 bc 3d
       -0.10371918 0.0042456533 0.023089914 0.09189563
000190 31 fc 89 3d 98 b6 d8 3d b7 aa b1 bd 9a 6e b9 3d
       0.06737555 0.10581702 -0.086751394 0.09054299
0001a0 51 5e 18 be db 24 0a 3d 1b c7 9e 3c 61 a4 ac 3b
       -0.14879729 0.033726554 0.01938205 0.005268619
0001b0 0e de a1 bd 79 ff 6e 3c 06 5c ef 3d 6e f7 28 bd
       -0.07903682 0.014587277 0.11687474 -0.041251592
0001c0 0b 1f 3d 3d cc 42 49 bd 54 51 42 3d 96 96 8e bc
       0.046172183 -0.049135968 0.04744084 -0.01740579
0001d0 e5 f5 bf 3d 38 ba 54 3b da 28 79 3c 66 55 8f 3d
       0.093730725 0.0032459628 0.015207494 0.0699871
0001e0 7c 4f bc 3d 9e c2 81 bd 3f 18 0b 3e f3 03 45 3c
       0.09194848 -0.063359484 0.13583468 0.012024867
0001f0 40 31 ab bd 7c ee 1e be 5e 08 08 be 45 41 1b be
       -0.08359003 -0.15520662 -0.13284442 -0.15161617
000200 81 3e 73 3d a3 34 23 be 64 eb 65 3d 90 9b d7 3d
       0.05938578 -0.15938048 0.05613269 0.10527718
000210 c9 15 05 be a0 e1 eb 3c 9c 90 d3 3d 70 27 03 bd
       -0.12996592 0.02879411 0.103303164 -0.032020032
000220 5b 42 b6 3d e6 d3 ec bc c2 e0 a1 3d c6 8d e6 bb
       0.08899375 -0.028909635 0.07904197 -0.0070359437
000230 3c b9 d5 3c 12 ac 1a be 70 ea 4e bc c3 51 a8 bd
       0.026089303 -0.15104702 -0.012629136 -0.0821872
000240 ff f3 80 3d ef 0b 02 be 4c 98 fb bd 3a 5a 0b 3d
       0.062965386 -0.12699865 -0.12284908 0.034021594
000250 98 e5 01 be 34 e5 a7 bd fb 46 50 3c d6 46 17 3d
       -0.1268524 -0.08198014 0.012712236 0.03693279
000260 80 0b 42 3d 91 50 99 3d f5 05 09 be 72 6f e2 3d
       0.04737425 0.0748607 -0.13381179 0.11056413
000270 c2 1a 00 3e 06 94 75 be 3e 3c cf 3d 8f f9 f3 bd
       0.12510207 -0.23982248 0.10118912 -0.11912834
000280 b9 f6 3a 3e 08 31 c1 bd f8 61 62 bd 10 ba 90 3d
       0.1825818 -0.0943318 -0.05526921 0.070667386
000290 39 6e ad 3c f9 15 f9 3d 02 03 01 3e 48 a7 07 3c
       0.021170722 0.12162394 0.12598804 0.008279629
0002a0 7c 62 c0 3d aa 08 09 3e 92 b8 e2 bd 48 7a 0b 3e
       0.093937844 0.13382211 -0.1107036 0.13620865
0002b0 79 c5 e2 bc 56 78 4e 3d 78 b6 0a be a5 ee c3 bd
       -0.027682053 0.05040773 -0.13546169 -0.09567002
0002c0 f8 d1 d5 3d 35 56 03 3e b7 a9 8f bd 4c 36 46 be
       0.10440439 0.12825854 -0.070147924 -0.1935665
0002d0 1e d2 6c be 88 a5 3a 3e ba cb 82 3d 46 a8 d0 3d
       -0.23127028 0.18227208 0.06386514 0.101883456
0002e0 e8 8d 54 3c a9 bd fa 3d 5c 1e e3 bc 6b 72 21 3d
       0.012973286 0.12243206 -0.027724437 0.039415758
0002f0 f4 b0 47 be 80 ee 4b 3d 2c 46 0a 3d 6c cc 29 3d
       -0.19501096 0.049788 0.033758327 0.041454718
000300 d8 a9 26 bd 8c 24 bf 3c 8a 71 89 bd 69 b9 0c 3d
       -0.04068932 0.023332857 -0.06711109 0.03435651
000310 2b 67 cb bd 95 32 53 3d e7 13 a7 3d 0c b2 fa bd
       -0.09931787 0.05156191 0.08158093 -0.12240991
000320 50 99 a0 bd b7 a1 bf 3d ff 07 05 3e 1a 10 c4 3d
       -0.07841742 0.093570165 0.12991332 0.09573384
000330 74 ee b1 3d 08 c6 1e bd e8 7f 0a bd 4d 68 cf 3d
       0.086880594 -0.038763076 -0.033813387 0.10127316
000340 09 bc 13 be 20 38 2b 3d a2 76 b3 bc 05 88 4f bc
       -0.14427198 0.04180157 -0.021907154 -0.012666707
000350 19 b6 01 3d 0b f4 d7 bd e7 ef a0 bd fc 5e a9 bd
       0.031667802 -0.105445944 -0.07858258 -0.0827007
000360 22 27 33 3e 71 34 3e bd b8 9f 27 3d 90 af fb bc
       0.17495397 -0.04643673 0.040923804 -0.030723363
000370 08 9c 60 be 8a 26 9f 3d 4b 25 23 be e5 87 20 bd
       -0.21934521 0.077710226 -0.15932195 -0.0391921
000380 fd 50 38 3d 0a 72 6e bd ff 31 cf 3c 69 66 b8 3c
       0.04499911 -0.058214225 0.025292395 0.02250977
000390 38 05 94 3d 89 d7 12 3e 7f 7a cb bd 86 ee 26 bd
       0.07227558 0.14340033 -0.09935474 -0.040754817
0003a0 fd d9 b0 bd 09 d8 95 bd 10 ab 0c 3e c9 ab f9 3d
       -0.08635328 -0.07316596 0.1373713 0.121909685
0003b0 e2 16 0d 3d 06 ab 35 be a8 af a3 bc 65 99 dc bd
       0.03444565 -0.17741022 -0.01998122 -0.10771445
0003c0 7c fc 23 3c c4 82 95 3c 6b 27 8b bc 07 18 13 be
       0.010008927 0.01825083 -0.01698657 -0.14364634
0003d0 75 75 81 3d 59 6f ab bd 0c a4 0e 3e de 1e a5 bd
       0.06321231 -0.08370847 0.13929766 -0.08062528
0003e0 f9 93 ea bd 32 7f 77 bd 3e 69 0a be 19 61 2a 3d
       -0.11454005 -0.060424037 -0.13516709 0.041596506
0003f0 33 a8 91 3c 86 85 2b 3e 2d 04 12 3e d3 82 c5 bd
       0.017780399 0.16750154 0.14259405 -0.09644093

bias f4 [50]
000000 57 67 fe bd ec d1 d7 3d d1 01 8b bb 67 fd dc bd
       -0.12422054 0.10538086 -0.00424216 -0.1079052
000010 ea bf be 3d 41 97 0c 3d 3e aa e0 bb 2f 10 03 3d
       0.093139485 0.034323934 -0.006856232 0.031997856
000020 80 4e 0d 3e c4 18 af bd b7 4c c0 bd 02 9d df 3d
       0.13799477 -0.085496455 -0.09389632 0.10918619
000030 f4 33 dd 3c 9f 83 ac bd 84 0e 8e 3c 5b 4f 0d 3c
       0.027002312 -0.08423542 0.017340906 0.008624877
000040 dc 68 2e 3e e6 6d 0d 3e d7 67 18 3e 41 ee 0e 3e
       0.17032188 0.13811454 0.14883362 0.13958074
000050 47 59 bd 3d 90 ff 95 bd c7 d6 02 3e 7d 02 02 3d
       0.09245544 -0.07324135 0.12777244 0.031740654
000060 df 7a a7 3d 93 ce b2 bd 5f 97 9d bd ab 1e fa 3d
       0.08177733 -0.08730807 -0.07694887 0.12212881
000070 8b 53 71 bd b8 4d 97 3d 8d 7c 05 be 11 3a 93 3d
       -0.058917563 0.073878706 -0.13035794 0.0718881
000080 35 a5 b9 3b 6a 94 25 3d b1 a5 a1 3d 64 ae b7 3d
       0.005665446 0.04042474 0.07892931 0.08968809
000090 50 45 03 3e 57 b2 99 3c d7 d6 d1 3d 33 a1 9b 3c
       0.1281941 0.018761797 0.102460556 0.018997764
0000a0 d8 1b 34 bd 40 ec 69 be 33 53 af 3d fb 42 0e bd
       -0.043971866 -0.22844028 0.08560791 -0.034731846
0000b0 f4 54 12 3e 06 31 8e 3d 08 2d d0 3c 83 9b 7d 3d
       0.1429022 0.06942944 0.025412098 0.061915886
0000c0 37 15 2d 3d b3 26 66 bd
       0.04225656 -0.05618925

weight f4 [29, 50]
000000 e9 57 06 be 3e 1c d3 bd 1a fc e7 bc 22 20 fa bd
       -0.13119473 -0.10308121 -0.028318454 -0.1221316
000010 9f 87 25 3d 7f 57 11 3e 4e c5 17 be af 32 cd bd
       0.04041254 0.14193533 -0.1482136 -0.10019433
000020 01 e4 af 3d c4 48 a8 3c 76 dc c6 3d e2 b8 e9 3d
       0.0858841 0.02054251 0.09710018 0.11412217
000030 95 9d 05 3e 6b 82 1b bd b6 e4 ba 3c 2c 67 a1 bd
       0.13048394 -0.037966173 0.022814136 -0.078810066
000040 61 99 cd bd f7 cc e1 3d 81 32 a6 3d 31 e6 2c 3d
       -0.1003902 0.11025422 0.081151016 0.042211715
000050 32 3b 93 bc 29 aa 00 3c cf 08 8f 3d ab 86 e4 bc
       -0.017972562 0.007853069 0.06984102 -0.027896246
000060 ce f5 91 3e 52 49 d0 bd fd 23 f4 bd 16 e5 a1 3c
       0.28507847 -0.10170235 -0.11920927 0.019762557
000070 83 49 12 be c8 a6 03 be c6 bf a8 bc 72 34 3e 3d
       -0.14285855 -0.12856591 -0.020599257 0.046436734
000080 c4 69 01 3e 2d a0 30 bd a9 bc 9f 3d eb 0a 57 bd
       0.12638003 -0.043121506 0.07799656 -0.052500647
000090 3f 85 8c bd fd 14 0d 3d f3 c5 f4 3c 15 d9 e3 bc
       -0.06861352 0.034443844 0.029879546 -0.027813474
0000a0 05 df d8 bd 24 b3 63 3e a3 e4 0b 3d d8 82 f2 bc
       -0.105894126 0.22236305 0.03415359 -0.029603407
0000b0 97 67 d6 3c d8 a1 63 3c 12 8d bc 3d da c3 e7 bd
       0.026172442 0.013893567 0.092065945 -0.113166526
0000c0 c1 10 f3 bd 37 b8 4f 3d 9f ca 81 bd ce f5 0e 3d
       -0.1186843 0.05071279 -0.06337475 0.034902386
0000d0 13 82 6a 3c e5 eb 0d be 48 c8 9d 3d 90 1c f3 3d
       0.014313239 -0.13859518 0.07704216 0.11870682
0000e0 b5 9d cd 3d 6b ed 23 be 3d 24 b0 bd 26 69 42 3c
       0.10039846 -0.16008537 -0.08600662 0.01186589
0000f0 e1 24 b2 3d a2 54 ca 3d 55 ba 3b 3d 99 e9 ca bc
       0.0869844 0.09879424 0.045831997 -0.024769591
000100 48 94 85 bd 8d b9 00 3e 8f 95 d3 bd 02 48 e6 bd
       -0.06522423 0.12570782 -0.103312604 -0.11244203
000110 f4 67 a5 bd 5d bf 46 be 92 be fa 3c d2 2b 71 3d
       -0.08076468 -0.19408937 0.03060845 0.05887968
000120 7a 71 97 3d 95 78 6b bc de 1d b8 3e 1c 16 c0 ba
       0.07394691 -0.014372011 0.35960287 -0.0014655027
000130 f4 cc 0a be d6 62 ee bd 65 c6 ff bc df 7e b8 bd
       -0.13554746 -0.11639945 -0.031222532 -0.09008574
000140 1e 8a a0 bd bf 09 ef 3d 46 0e b9 3c 9c e9 86 3d
       -0.07838844 0.11671781 0.022589814 0.06587526
000150 52 e8 14 bd 44 32 30 3d 39 fb a9 3d bf fb 07 bd
       -0.03635437 0.043016687 0.0829987 -0.03319907
000160 6a 86 12 be 8b b9 dc bd da 2a f3 3d a8 1e af 3e
       -0.14309087 -0.10777577 0.11873408 0.34203076
000170 28 c7 c5 bc 7a 47 1e bc 0c 32 8b 3d 1a 56 d6 bd
       -0.024142817 -0.009660596 0.06796655 -0.10465641
000180 cc ac e5 bd 03 c6 dd 3d 48 f1 09 3e fd ef bc bd
       -0.11214599 0.10828783 0.13470948 -0.09225462
000190 fc 57 12 3d e5 bc 4e bd 21 bc 62 bd 02 4b c5 bd
       0.03572844 -0.050473113 -0.055355195 -0.09633447
0001a0 19 e1 ee 3d 88 b4 09 3d ba 6f 80 3d b6 b5 9b 3d
       0.11664028 0.033619434 0.0627131 0.07603018
0001b0 53 c3 3d bd c4 8f 00 be eb 9b ab bd 67 af 3f 3c
       -0.046328854 -0.12554842 -0.08379348 0.011699534
0001c0 93 d8 87 bc 2c 23 ab bd 6e e6 2f bc 49 a8 8f bd
       -0.016582763 -0.08356318 -0.010736091 -0.0701452
0001d0 2a c5 3a 3d 61 28 12 3e 7e 68 82 bd 35 fb 33 be
       0.045598187 0.14273216 -0.063675866 -0.17576297
0001e0 91 15 26 3d 0f 31 87 3b 04 0a 08 3e 4c 52 7c 3c
       0.04054791 0.0041257213 0.1328507 0.0154004805
0001f0 86 1a 63 3e 8d 5b 0b 3d 85 e5 39 3d 2e d0 3a 3d
       0.22178087 0.034022857 0.045384903 0.045608692
000200 67 51 2d be b4 12 99 bd d1 03 05 be 6d a1 52 bc
       -0.16925584 -0.074742705 -0.12989737 -0.01285587
000210 0a a0 9b 3d 94 ac 01 3e bd 82 c3 bc 1e 7b 37 bd
       0.075988844 0.1266349 -0.023866052 -0.044795148
000220 1b 1c 77 bb a0 33 84 3d f0 55 df bd 66 8f 25 3d
       -0.003770596 0.06455159 -0.10905063 0.04041996
000230 e3 7b 3d bd 6b f7 c7 3e 3d 13 fe 3d b5 bf 49 3a
       -0.046260726 0.39055952 0.12406013 0.0007696108
000240 88 5f 3a bc 6f 2c d1 3c aa 08 b6 bd de 3b 8a bd
       -0.0113753155 0.025533883 -0.08888371 -0.067497
000250 93 f7 1e 3b 74 4b 2c 3d 79 97 20 bb 24 8c 2c be
       0.0024256452 0.042064145 -0.0024504347 -0.16850334
000260 0f c9 b5 bc fc ee 0f be 0f e8 bc bd 91 ce 05 3d
       -0.022190599 -0.14056009 -0.09223949 0.0326677
000270 36 6a 81 bc 42 19 d4 bc 23 e1 25 be e7 b9 89 bb
       -0.015797716 -0.02589095 -0.16199164 -0.0042030695
000280 63 54 fc bc 45 4a 77 bc 7c 84 3f 3d 30 25 16 be
       -0.030801957 -0.015093391 0.046757206 -0.14662623
000290 de ec 84 bd 49 8f d3 bd c2 3c 5f 3d bb 72 22 be
       -0.06490491 -0.10330064 0.054501303 -0.15864079
0002a0 cc eb 2c be ef 8f 0f be c0 87 62 3d c8 ab 2a be
       -0.16886824 -0.1401975 0.055305243 -0.16667092
0002b0 35 2f d7 3c 22 f0 4b 3c 07 21 2d 3e 84 bd 29 be
       0.026267627 0.012447389 0.1690713 -0.165762
0002c0 48 48 90 bd d8 6e e1 bd 97 4e 6d 3d f6 ac 01 be
       -0.070450366 -0.1100747 0.057936277 -0.12663636
0002d0 81 25 a3 bd 92 85 06 bd d8 d0 2a be cd 95 1e be
       -0.07966138 -0.032842226 -0.1668123 -0.15486832
0002e0 01 11 30 bd fc 98 ee bd 3d 96 38 bd 67 b7 ba 3d
       -0.042984966 -0.11650273 -0.045065153 0.091170125
0002f0 f5 fe d1 bd 60 71 18 be b7 4d d4 3c 6b 68 ce 3e
       -0.10253707 -0.14886999 0.025915964 0.4031404
000300 fe 84 4f 3c 65 42 8c bd fe b7 f9 bd 93 3a eb 3d
       0.012665985 -0.06848601 -0.12193297 0.114857815
000310 93 24 06 be b3 aa ad bd b9 93 97 3d f1 bf cb 3d
       -0.1309989 -0.08479824 0.07401223 0.09948719
000320 a4 7d 9d 3d 92 92 61 bd 5c d7 9a bd 5f fd 40 bd
       0.0768998 -0.05507142 -0.07560608 -0.047116634
000330 a6 c1 d2 bb 24 e8 08 3b d2 61 22 be 4d bd e6 bc
       -0.006431776 0.002089032 -0.15857628 -0.028166438
000340 9e 0e 17 be 89 05 01 be ab c2 bb bd e5 51 8e bc
       -0.1475167 -0.12599768 -0.09167989 -0.017373035
000350 23 5f e6 bd 8a 50 0c be 62 07 7b 3c 24 12 d1 3c
       -0.11248615 -0.13702598 0.015321584 0.025521345
000360 c3 02 e5 bd 43 54 ee bd 4b dc 0c be 83 81 4f bd
       -0.111821674 -0.116371654 -0.1375591 -0.05066062
000370 3f 59 c7 3d 5b 63 89 bd 7f 73 28 be 4b fe c7 3d
       0.09733819 -0.06708404 -0.16450308 0.097652994
000380 6f 48 b6 be 6a 07 e2 3d 17 ea db 3c 0d 91 0b be
       -0.35602137 0.1103657 0.026845021 -0.13629551
000390 8b ce ed bb 3f ab f9 3d 58 42 a5 bd 70 c3 46 3c
       -0.007257288 0.12190866 -0.08069295 0.012131557
0003a0 cb e8 1c 3e 42 46 ff bd c9 9c 53 3d ad 86 4c bd
       0.15323178 -0.124645725 0.051663194 -0.049933124
0003b0 bd cd e0 bd 86 3a 33 be 96 d8 4b bd a3 5e 6c bd
       -0.109767415 -0.17502794 -0.0497671 -0.05770744
0003c0 27 40 a4 3d eb c8 cc 3e b5 78 13 be d3 21 95 bd
       0.080200486 0.39997038 -0.14401515 -0.07281842
0003d0 99 b5 17 be 69 9d 05 be 12 0d 5e bd 81 50 01 3d
       -0.14815368 -0.13048328 -0.054211684 0.031570915
0003e0 3e 8b df bd 8a 21 8a 3c a5 bf d8 3d e7 af bd 3d
       -0.1091523 0.016861696 0.10583428 0.09262066
0003f0 87 5b 86 bd af c1 a1 3d 01 e5 d2 bd b7 a5 f3 bd
       -0.06560426 0.0789827 -0.10297585 -0.11896842

bias f4 [29]
000000 19 88 51 bd cf 4c d0 3d c9 46 a3 3d e7 12 12 bd
       -0.051155183 0.101709 0.079724856 -0.035662558
000010 2b ba 5d 3b 89 5a 0a be 2a 3a ad 3c 4b c4 c3 bd
       0.0033832889 -0.13511099 0.021145899 -0.09558924
000020 b1 70 a4 3d 0c 1a 28 3e 0b 21 ad bd b2 a9 01 be
       0.08029307 0.16416186 -0.08453568 -0.1266239
000030 ff 82 2b bd a2 1d 48 3d f8 b1 17 3e 99 fb 98 3d
       -0.041872974 0.048856385 0.14813983 0.074698634
000040 b1 53 14 3d 54 90 35 bd 1a 98 a4 bd 45 28 0e 3d
       0.036212627 -0.044327095 -0.080368236 0.034706373
000050 c6 8d dc 3d d6 c4 09 3e b1 0d 0e be 21 4d cd 3d
       0.10769229 0.13453993 -0.1387241 0.10024477
000060 a6 2a 06 be 98 99 36 be e8 37 86 3d 1c f5 88 bd
       -0.13102207 -0.17832029 0.06553632 -0.06687376
000070 08 d8 20 be
       -0.1570741

weight f4 [50, 3]
000000 55 82 2b bb dc 5d b5 3d 5b 7c 22 3d 6d 9c 84 3d
       -0.0026170213 0.08855793 0.039669376 0.06475148
000010 df 4f ee 3e 15 26 e7 bd 3b ca a8 be 4f 0b 6f be
       0.46545312 -0.112865604 -0.3296679 -0.23344158
000020 6a d7 b8 be 8e 0d bc be 8e b1 e9 be fb e5 1b 3c
       -0.36101848 -0.3672909 -0.45643276 0.009515281
000030 1f a1 fa be 5c ba 0a bf 0a 0f 53 be 2d a5 96 be
       -0.4895105 -0.5419061 -0.20611206 -0.29422894
000040 4c 07 01 3e 58 b2 49 bd 14 91 b3 3e ff 5c b5 3e
       0.1260044 -0.049242347 0.35071623 0.35422513
000050 0b a1 3e 3e b1 95 be 3e f7 19 a2 bd 9b 74 06 be
       0.1861612 0.3722358 -0.07915109 -0.13130419
000060 3a af f1 bd ee 5e fc 3e 63 6c dc 3d 7e 99 74 3e
       -0.11801 0.49291176 0.107628606 0.23886678
000070 c4 ef 83 be 67 c7 03 3f 3b 6f df 3e 56 9a a2 be
       -0.25768864 0.5147614 0.4363955 -0.31758374
000080 70 a6 9c 3e 98 da f5 3d 64 e7 f0 3e 92 a8 5e be
       0.30595732 0.12004584 0.47051537 -0.21743992
000090 f0 9a 94 3e 9b 1d 16 be 69 28 13 3f 86 2b ec bd
       0.29024458 -0.14659731 0.57483536 -0.11531739
0000a0 34 0b 9f be 1c 1c 1d be 04 c5 90 3d 5d 23 8e be
       -0.31063235 -0.15342754 0.07068828 -0.27761355
0000b0 a6 e4 7d bd fa b6 16 3e fa 56 45 be 49 54 56 3e
       -0.061985634 0.14718238 -0.1927146 0.2093059
0000c0 76 19 d7 be 55 4d 01 3e 5a 26 bb be 1b ac 16 bf
       -0.42011613 0.12627156 -0.36552697 -0.5885636
0000d0 83 bf 8d 3e f1 5f c8 be 9e 24 f1 3e 26 87 f4 bd
       0.27685174 -0.39135697 0.4709825 -0.1193984
0000e0 b2 7b ad 3d 07 48 07 3f 1e 24 7c be fc b9 e5 be
       0.08470859 0.5284428 -0.24623153 -0.44868457
0000f0 93 c2 04 3f 8d 6c 25 3e bb c4 ef be 33 3a 4d 3e
       0.51859397 0.1615469 -0.4682978 0.20041732
000100 39 c1 da 3e 40 19 80 3e 04 b2 76 3e 92 68 d8 3e
       0.42725542 0.25019264 0.24091345 0.4226728
000110 52 4a bd 3e e3 54 8f 3e 12 af ab be 61 70 d0 be
       0.36970764 0.2799445 -0.33532006 -0.40710738
000120 41 78 56 3e 25 72 06 3f 90 4b bb be 38 2b 05 bf
       0.2094431 0.5251792 -0.36581087 -0.5201907
000130 1e 4e 81 be 71 e3 15 be 27 dc b5 be 4e 4a 78 3e
       -0.2525491 -0.14637543 -0.35519525 0.24247095
000140 ee 5e 20 3e df 6d c9 3e 3e 5e d8 3e 0a f3 02 be
       0.15661213 0.39341637 0.422594 -0.12788025
000150 01 ef 81 bd b2 d0 b9 be 7c 1b 94 be b4 c4 08 bf
       -0.063444145 -0.36292034 -0.2892722 -0.53425145
000160 05 bd c6 be e4 62 0d bd 5b dc ea 3d 71 68 ab 3e
       -0.38816085 -0.034518138 0.11467811 0.3347812
000170 c4 7b d6 be 9c d8 09 3e f3 f1 5d be 70 0a a4 3e
       -0.418913 0.13461536 -0.21674328 0.32039213
000180 33 ba 6f be dd fa e6 3e cb df 0b be 55 bc 01 3d
       -0.23410873 0.45113268 -0.13659589 0.031673748
000190 10 df f5 3e b9 18 90 3e 32 fd c7 be 17 4a 65 bd
       0.48021746 0.28143862 -0.3906036 -0.05597886
0001a0 e7 6a bb be a5 e1 55 be d8 e8 86 3e 31 21 b4 3e
       -0.36604998 -0.20886858 0.2634952 0.35181573
0001b0 14 2e 33 ba 16 14 bc 3e 13 25 7f 3e 75 41 8c 3e
       -0.0006835174 0.36734074 0.24916486 0.2739369
0001c0 55 3e 99 be ca 91 85 3e 0b fe ba 3e 7c c4 d7 be
       -0.29930368 0.2608779 0.36521944 -0.42142093
0001d0 2c 70 14 bf 07 f8 98 bd 15 06 1a 3f 77 cf bd 3e
       -0.5798366 -0.074691825 0.6016553 0.37072346
0001e0 94 a2 99 3e 95 12 33 be 38 9d 2d be c1 76 30 3d
       0.3000685 -0.17487557 -0.16954505 0.043082003
0001f0 a7 3f bd be 59 31 96 3d d9 07 fa be d8 67 52 3e
       -0.36962625 0.07333631 -0.48834112 0.20547426
000200 74 7e bd be 5d b9 8a 3d 62 6a a3 be 58 f4 6b 3d
       -0.3701054 0.067736365 -0.319171 0.05760607
000210 ef 35 a7 3c 84 31 dc be 33 6c a7 3e f3 32 06 3e
       0.02041146 -0.43006527 0.32699737 0.13105373
000220 32 26 44 bd cd fe 58 3e 4e d5 dd be 75 d8 e6 be
       -0.04788799 0.21190949 -0.433268 -0.4508702
000230 a0 5d 0a be 7e 8d e7 3e 1e 9e 98 3d 8d aa b9 be
       -0.13512278 0.45225137 0.074520335 -0.36262932
000240 86 75 8f 3e c8 f8 0b bf 36 bc 49 3c 03 2e 6d bd
       0.2801935 -0.54676485 0.012312939 -0.05790521
000250 96 6b 06 bf e9 10 39 bd
       -0.52507913 -0.045182142

bias f4 [50]
000000 ed 23 df be 30 bb 08 3e e5 ef 10 bf 17 c0 8f 3e
       -0.43582097 0.13352656 -0.5661605 0.2807624
000010 a8 00 06 bf e0 2e 99 3d e8 47 1f 3f 99 1e 04 bd
       -0.5234475 0.07479644 0.62219095 -0.032255743
000020 49 ae a0 3e ef c2 a2 3b 88 a9 0c bf f4 61 01 bf
       0.3138297 0.0049670856 -0.54946184 -0.5054009
000030 13 d5 d6 bc 0d 9b 7f 3e a4 62 8f be ee 85 f6 3e
       -0.026224649 0.24961491 -0.28004944 0.48149055
000040 0e b8 67 bc 9c b6 c4 3e 76 ac 66 be ca 90 d1 bc
       -0.014143003 0.3842057 -0.22526726 -0.025581736
000050 71 0d fd 3e 8c f4 69 3e 83 ea 1a 3f 0b 38 fe 3e
       0.49424317 0.22847193 0.60514086 0.49652132
000060 72 1e 92 3e 80 88 28 be 48 b4 17 3f c5 2d 18 3f
       0.28538853 -0.1645832 0.5925946 0.5944484
000070 3a a5 ee bc 72 e2 9d be 8c 9f 86 3e 27 23 f6 be
       -0.02913152 -0.30836827 0.262936 -0.48073694
000080 ed 82 d6 3e a7 00 ea 3e 97 52 94 be 24 7a c8 3e
       0.41896763 0.45703623 -0.2896926 0.39155686
000090 f5 7b be be a9 d8 09 3e 4e 36 91 3e 29 18 13 be
       -0.37203947 0.13461556 0.28361744 -0.14364685
0000a0 49 f8 8e 3d e1 ea dd 3e 9a 73 79 be 42 d6 25 3d
       0.069809504 0.4334326 -0.24360505 0.040487535
0000b0 63 39 b3 3e 9e 2a 0d 3f c5 57 26 bd 24 28 22 3f
       0.3500472 0.55143154 -0.040611047 0.633425
0000c0 9b c1 7f 3c b0 26 76 be
       0.015610124 -0.24038196

weight f4 [50, 50]
000000 d1 5a 90 3b ac 0d bd 3d 2e 4c 38 be 69 17 81 3a
       0.0044053574 0.09231123 -0.1799781 0.0009848896
000010 61 e8 76 bd 0f 7b 9d 3d 6b ba d6 3d 23 0f 21 3d
       -0.060280208 0.07689487 0.10484775 0.039321076
000020 b2 34 98 bc 58 a8 11 3d f2 11 3a be 9f 9c 96 be
       -0.018579815 0.035560936 -0.18170908 -0.29416367
000030 45 6c e6 3d 11 c5 81 3d 9f c4 0a bd 1c bb 2c 3d
       0.112511195 0.063364156 -0.03387892 0.04217063
000040 b5 c5 b1 bb d3 4d aa 3c 1b 1d a6 3d a8 22 4d be
       -0.00542518 0.020789063 0.0811102 -0.20032752
000050 ba 82 42 3e 09 3a a8 bd 47 16 16 3e 92 3c 10 bd
       0.1899518 -0.08214194 0.14656936 -0.035214014
000060 8c ab 8d bd 98 9c 21 be 95 13 92 3d cb 54 ea 3d
       -0.069174856 -0.15782392 0.07132641 0.11441954
000070 75 16 ab 3d 79 1a 36 3c 62 a5 91 3b 20 ac 15 be
       0.08353893 0.01111471 0.004444764 -0.14616442
000080 c3 49 40 bd b8 be 88 3c 15 db c7 bb 18 48 79 bd
       -0.046945345 0.016692504 -0.0060991147 -0.06085977
000090 39 ed 0a be 66 7c 2e 3c fb 3a 80 bd 6b fb c3 3d
       -0.13567056 0.010649776 -0.0626125 0.095694385
0000a0 e6 00 16 3e 14 0d 03 bd 51 40 11 bd 96 69 cb 3d
       0.1464878 -0.031994894 -0.035461728 0.09932248
0000b0 99 81 b2 3b c3 2d 38 bb b9 1b db 3c ec fe b9 3d
       0.005447578 -0.0028103448 0.026746618 0.090818256
0000c0 c2 14 66 3c 26 5b 2a be 55 a6 00 3e ba f5 3d 3d
       0.014043035 -0.16636333 0.1256345 0.04637692
0000d0 2f a8 f2 bc 95 3d 8b bc 90 05 34 3d 94 34 bf bd
       -0.029621212 -0.016997138 0.043950617 -0.093362
0000e0 72 1f 23 3d e0 56 30 bd 17 68 bf bd 25 4f dc bd
       0.03982491 -0.0430516 -0.093460254 -0.10757283
0000f0 9b c0 f1 3d 84 59 b7 bd 29 e5 0e be 8c a5 06 be
       0.11804315 -0.089526206 -0.13954605 -0.13149089
000100 5c 60 23 3d c0 bb 0d be 01 a9 71 3d bb 3c e0 3d
       0.039886817 -0.13841152 0.058999065 0.109490834
000110 47 64 0a 3d c1 c1 d7 3d 79 b9 e6 bd 6c 03 43 bd
       0.03378704 0.105350025 -0.11265845 -0.047610685
000120 22 6b ee 3d e0 4f 0c be fd f8 bf bd e7 c8 df bd
       0.11641528 -0.13702345 -0.093736626 -0.10926991
000130 7b da 96 bd e8 98 e5 3d b1 a8 bf bd 30 e9 35 3d
       -0.073658906 0.11210805 -0.09358347 0.044411838
000140 9d d8 e4 3d a5 28 35 3d 14 59 bc bd 57 8e c7 bd
       0.11174128 0.044228215 -0.09196678 -0.09743946
000150 36 d1 69 bd 38 8f b6 3d 27 b9 27 3c 39 d6 be 3d
       -0.057084285 0.089140356 0.010237015 0.093182035
000160 77 fe 75 bd 8b d6 2a bd cf c2 84 ba 3b bb 86 3d
       -0.06005713 -0.04170851 -0.0010128858 0.0657868
000170 3e fd f6 bd a7 68 0a 3e 67 90 92 3c c6 06 3c ba
       -0.12060021 0.13516484 0.017891122 -0.000717264
000180 92 1f a6 bd 98 61 26 3d 22 36 b1 bd 33 24 27 bd
       -0.0811149 0.040620416 -0.08652903 -0.040806007
000190 09 34 ce bd 80 29 34 3d b1 11 66 3d ec 72 69 bd
       -0.10068519 0.04398489 0.056169216 -0.056994364
0001a0 ef ee 77 3d ad 1a a3 3d c7 2c da 3c 03 26 6a bd
       0.0605306 0.079640724 0.02663268 -0.057165157
0001b0 2f 78 91 bd dc ad 9c bc d3 cf 71 3d 59 29 c4 bd
       -0.07103001 -0.019125871 0.059036087 -0.09578199
0001c0 6d 31 0b 3d e5 2d 8b 3d 97 88 e8 bd de c4 f1 bd
       0.033982683 0.06795863 -0.113541774 -0.118051276
0001d0 e9 ef 7d bd ac 3f 06 3d d4 87 b8 3a cc 9c 8a bd
       -0.061996374 0.032775566 0.0014078566 -0.06768188
0001e0 4f d4 c1 bd 2c 83 c2 bd e6 56 1d 3a 80 0e c4 bd
       -0.09464323 -0.09497675 0.00060020236 -0.09573078
0001f0 b1 1d c3 3d e2 00 16 be 23 de 04 be 48 f7 74 bd
       0.095271476 -0.14648774 -0.12975363 -0.05980614
000200 45 26 fa bd 47 98 4e bd 7d f4 1a 3d 50 00 2e 3c
       -0.122143306 -0.05043819 0.03783082 0.010620192
000210 0b c7 ec bd 42 bc 2e bd 2e 4f c9 3c 3d ca c2 3d
       -0.11561402 -0.042660005 0.024573889 0.0951123
000220 36 5a f5 3d 39 a8 29 bd 3f 68 81 3d 41 84 a2 bc
       0.11980097 -0.041420195 0.063187115 -0.019838454
000230 ff e3 90 3c 05 43 c9 3d eb c0 30 bc 7f 1c 0a be
       0.017686842 0.09827236 -0.010788183 -0.13487433
000240 63 f5 1f bd 92 03 da 3b 19 8c e2 3d ae 0d 24 3d
       -0.03905238 0.0066532576 0.11061878 0.04005211
000250 9a 87 52 3d 80 90 dd 3d 9a 55 f3 bc 63 f2 05 3e
       0.05139885 0.10818577 -0.029703904 0.13080744
000260 34 f7 4f be 40 a9 f6 bc ca 09 eb be 2a 6f f2 bd
       -0.20309144 -0.030110002 -0.45905906 -0.11837609
000270 f6 b6 a7 3d df 4c 56 bd e7 50 98 bd 48 3d 3a 3d
       0.08189194 -0.052319404 -0.07437306 0.0454686
000280 11 ac 0a bd a4 0a 6b bd 32 06 a9 3c 7c c8 83 bd
       -0.0338555 -0.057383195 0.020632837 -0.06434724
000290 ef 71 10 3e 58 f7 95 3d b6 f0 0c bc 0b c8 98 bd
       0.14105962 0.07322568 -0.008602312 -0.0746003
0002a0 b1 20 0a be 40 a7 4d 3d 45 56 f8 3c 29 f5 fa bd
       -0.13489033 0.05020833 0.030314574 -0.12253792
0002b0 cc 23 85 bd d9 bd 4b 3e 73 74 5a 3c a8 f9 00 be
       -0.06500968 0.1989664 0.013333428 -0.12595236
0002c0 68 07 1b 3e 7d 2a 0f 3e 9c 22 70 be 49 1f 17 be
       0.15139544 0.13981052 -0.23450702 -0.14758028
0002d0 0f fc 0a 3c e9 5e f0 3c 0e dd ca 3d 53 26 d4 3c
       0.008482947 0.029342132 0.09905444 0.02589718
0002e0 6b 29 2f bf 0d 59 ba bd c6 63 c4 bd 38 1f 7f bc
       -0.68422574 -0.09099016 -0.09589343 -0.015571408
0002f0 91 3d 28 3e 45 9e 35 3b c8 c4 7a bd 3c 5a b2 3d
       0.16429736 0.0027712744 -0.06122282 0.08708617
000300 e4 a7 ae be 81 b1 1c 3e 94 60 19 bd 2e 76 17 bc
       -0.34112465 0.15302087 -0.03744562 -0.009244485
000310 9c 8a 9e bd 13 6e 0b 3e 1c 29 5a 3e 2a d3 18 be
       -0.077412814 0.13616209 0.21304744 -0.14924303
000320 c5 88 f2 3d c8 49 0c be 38 d9 01 3e c5 07 0e bd
       0.11842493 -0.1370002 0.12680519 -0.03467538
000330 fd a9 86 bd b5 ba 06 be 67 d4 1b 3e 1b d6 b8 3d
       -0.065753914 -0.1315716 0.15217744 0.090252124
000340 d9 e0 8e bd 5f 47 16 be 59 5d 6c be a3 20 1c be
       -0.0697648 -0.14675663 -0.23082484 -0.15246825
000350 b0 99 3f 3d 70 23 10 3e 62 60 c0 3d 7e 57 5e 3d
       0.046777427 0.14076018 0.093933836 0.054282658
000360 8a 42 b9 bd e2 d3 e6 bb ca 54 35 3c 4d bd a8 3d
       -0.090458944 -0.0070443014 0.011067579 0.08239231
000370 c5 9c 75 3d 79 ad 3e 3d c0 4f 89 bd e8 a8 8e 3d
       0.05996396 0.046552155 -0.06704664 0.0696581
000380 64 19 e0 bd c5 f5 d7 bd 62 26 d2 3b fb 13 76 3d
       -0.10942343 -0.10544924 0.006413267 0.06007765
000390 bf c9 ad 3c 5c a9 45 bd c7 55 27 3e c8 5d 96 be
       0.021214364 -0.048257217 0.16341315 -0.29368424
0003a0 71 ee ad bd 00 77 7c ba 97 a0 2a bd ab 49 e1 bc
       -0.08492745 -0.00096307695 -0.041657057 -0.027500948
0003b0 6f 49 47 bc f9 d2 8c 3d ad a9 91 bc a2 88 95 3d
       -0.012163504 0.06876177 -0.017781103 0.07301451
0003c0 dc 84 4f 3e b2 b0 0d bb 84 6f 07 be 62 1d 1f bd
       0.20265526 -0.0021620211 -0.13226134 -0.03884638
0003d0 62 ce 5e bd 97 3d 9b 3d c7 99 b4 b9 41 7a 05 3e
       -0.05439604 0.07580107 -0.00034446848 0.13034917
0003e0 c0 8a 2d 3e 5e c2 13 bd 32 36 c7 bd 94 42 d8 bd
       0.1694746 -0.036074035 -0.09727134 -0.10559574
0003f0 26 fe a5 3d f9 1f 05 3e 5d 0a a3 3d f9 29 dd bd
       0.081051156 0.13000478 0.07960961 -0.10799021

bias f4 [50]
000000 3c 0c 82 3d 85 1e 42 bc 6e be c1 3c f6 20 fc 3d
       0.0634999 -0.011848097 0.023650374 0.12310974
000010 6c 65 c3 bc be 65 c5 bd 0a e6 4e bc 70 54 67 3d
       -0.023852073 -0.096385464 -0.012628088 0.05647701
000020 31 ce 1c 3e bd d9 62 bc c7 c7 04 3e f9 63 9e 3d
       0.15313031 -0.013845858 0.12966834 0.07733912
000030 cb 1c 82 3d 34 ae ba bc 2c dc 88 bd db 2e f0 3d
       0.06353148 -0.022788145 -0.066826195 0.11727687
000040 84 08 b1 bd af bc b2 3d a7 86 12 be f8 8c 10 be
       -0.08644202 0.08727395 -0.14309178 -0.14116275
000050 2c f9 1d bc 22 45 2f bd fb 09 24 3e c4 26 83 3d
       -0.009641927 -0.04279054 0.16019432 0.06403878
000060 f3 3f 48 3e d3 08 28 3d 61 1f 6b 3d 20 20 1b 3e
       0.19555645 0.04102404 0.057402972 0.15148973
000070 cc 14 94 bc 16 91 1c 3d 5c c1 a3 bc 9d 78 06 be
       -0.018076323 0.038224302 -0.019989662 -0.13131948
000080 d1 37 11 3e d2 14 c2 bd f0 4e 2b bd 7b 26 d1 3d
       0.14181449 -0.094766274 -0.041823328 0.10212418
000090 db b8 9b 3d 7b e0 ab 3c 35 d4 d9 bd 11 05 a7 3c
       0.07603618 0.020981064 -0.106361784 0.020388158
0000a0 fe f0 31 bd 10 63 fa 3d 9a d3 06 3e 2a 2e 9b bb
       -0.04344272 0.12225926 0.13166657 -0.004735728
0000b0 90 18 04 3e 16 20 ba 3d c2 c2 91 3d 41 c1 fe bd
       0.12899995 0.09088151 0.07117225 -0.12439204
0000c0 1a d2 11 be d3 a8 76 3d
       -0.14240304 0.060219597

weight f4 [29, 50]
000000 9e 7e 0a 3e 58 b4 89 3d ec e1 d5 bc cc e2 9a 3c
       0.13524863 0.06723851 -0.026108705 0.018906973
000010 e3 49 09 bd 65 92 9f 3c 81 9a 04 bd c1 35 b4 3d
       -0.03351773 0.019478986 -0.03237391 0.08799315
000020 e2 ea ad bd 9e a2 ba bd 02 ae 87 be e1 31 20 3c
       -0.08492066 -0.09113048 -0.26499945 0.009777517
000030 b5 5c 63 3d 04 eb 6f 3c 0c 02 92 bd e9 5b 56 bc
       0.055508334 0.014643434 -0.07129297 -0.0130834365
000040 75 28 70 bb ab 12 fb bd ec 8d a3 3d 59 fd 0c 3e
       -0.0036645208 -0.1225942 0.07986054 0.1376852
000050 fe a2 f7 3d d1 1d a0 bd e2 78 f0 3d 94 49 9d 3d
       0.12091635 -0.07818187 0.117418066 0.076800495
000060 3e 6d e8 bd be 82 ce bd 8f d6 55 bd fd ae 71 bd
       -0.11348961 -0.10083531 -0.052206572 -0.059004772
000070 62 c7 00 3e 51 3b 8b bd c1 49 93 bd 6a 84 08 3e
       0.12576059 -0.06798423 -0.07191802 0.13331762
000080 18 5d f3 3d 14 38 91 bd 17 ce ec bd 90 8d 2a be
       0.118829906 -0.07090774 -0.11562746 -0.16655564
000090 e7 48 11 3e a6 ea 70 3d 5e e5 02 3c 78 ec d7 bc
       0.14187966 0.05881753 0.007989256 -0.026357874
0000a0 79 38 0a 3d 63 95 b1 3d 5d 41 ee 3d 7a c6 95 bb
       0.033745263 0.086710714 0.11633561 -0.0045707794
0000b0 19 c1 95 3c eb 9c 77 3d d8 c1 ad bd da 2d e4 bd
       0.018280553 0.060452383 -0.084842384 -0.11141558
0000c0 c6 fe 51 bd c3 83 7d bc 99 cd 8b 3d 9e b6 f9 bd
       -0.05126836 -0.015473309 0.06826324 -0.121930346
0000d0 71 66 96 3d 75 02 0a be da c1 d3 bb ee 54 eb bd
       0.07343758 -0.134775 -0.006462318 -0.114908084
0000e0 50 4c 9f bd 38 39 a8 bd 4f 73 9a bc 4c e8 87 bd
       -0.07778227 -0.082140386 -0.018853812 -0.06636104
0000f0 77 d6 dd bd f6 8a 89 bd 56 3b c7 bd 45 a7 b2 bd
       -0.108319215 -0.06715958 -0.09728114 -0.087233104
000100 0f b2 d8 3d 77 42 1c bc 1f 0b 4d 3d ea c6 fa 3d
       0.10580837 -0.009537331 0.050059434 0.12244971
000110 ca ae 66 3c 9e 88 a6 3d af 22 f5 3d f0 2f e3 bd
       0.014079759 0.081315264 0.11969506 -0.11093128
000120 b1 fc 15 3e b3 a0 8b bd ee 83 e1 bd 87 ab 0f be
       0.14647175 -0.0681776 -0.11011492 -0.14030276
000130 b7 6a bd bd cc a1 15 3e 2d c9 03 3c 79 98 29 3d
       -0.0924887 0.14612502 0.0080435695 0.041405175
000140 93 d0 6b bd ee f0 85 bd ff 83 1a ba 52 bf 7a 3b
       -0.05757196 -0.06540094 -0.0005894303 0.0038261008
000150 f0 43 68 3c 6d 5f a9 3d 2d 55 ee bd 20 29 1e be
       0.014176354 0.08270154 -0.1163734 -0.15445375
000160 8c 36 c3 3d 9f 95 02 3d eb b9 8f 3c 92 1b 33 bd
       0.09531888 0.03188097 0.017544707 -0.043727465
000170 a7 ce 9b 3d 4e 18 b8 bd 8d af 08 3e e9 ac 95 bd
       0.07607775 -0.08989011 0.13348217 -0.073083706
000180 2a 12 a9 bd c0 e1 4c 3d 4e bd 8c 3d a3 db e8 bc
       -0.08255418 0.05001998 0.068720445 -0.028425043
000190 50 b3 a8 3b 6e d0 00 be 87 d3 06 3e d5 5a 63 3d
       0.005148329 -0.1257951 0.13166629 0.055506546
0001a0 17 e7 40 bd d7 f2 0d 3d d1 a8 04 3e 30 14 54 3d
       -0.047095384 0.03465542 0.12955023 0.051777065
0001b0 35 33 a1 3d 5f 32 9f bc 34 62 07 be 15 9e 2f bd
       0.07871095 -0.019433198 -0.13221055 -0.04287537
0001c0 10 a2 4e bd 0f ab 8d bd 66 46 a4 3c 08 2b e9 3d
       -0.050447524 -0.069173925 0.0200531 0.11385161
0001d0 7e 36 1d bd 93 47 d7 bc ab ae 99 3d 99 9c 0d be
       -0.038382046 -0.026279246 0.075040184 -0.13829269
0001e0 88 c1 a6 bd 10 04 0f 3e 47 c4 cd bd 9c 5e e4 bd
       -0.08142382 0.13966393 -0.100472026 -0.11150858
0001f0 85 a3 cf bd a3 e6 72 bd e9 6b a7 bd 32 e0 67 3d
       -0.10138611 -0.059301984 -0.08174879 0.056610294
000200 2c 52 56 3d 04 dd ba bd e8 dd 7d 3b ef 16 c9 bd
       0.05232446 -0.09124187 0.0038737003 -0.09818827
000210 da 8f af 3c 91 68 37 3d 04 85 a7 bd c6 c6 66 bc
       0.021430898 0.044777457 -0.081796676 -0.014085477
000220 d0 c4 07 3e f3 93 08 be f9 b1 1f be b3 3a a7 bd
       0.13258672 -0.13337688 -0.15595235 -0.08165493
000230 e0 f1 af bd b3 27 03 3e f8 e5 cd 3c 38 ff 19 bd
       -0.08591056 0.12808113 0.025134072 -0.03759691
000240 f2 a0 fa 3d 5b 8d a9 bd 93 04 c6 bd 94 51 fe 3d
       0.12237729 -0.082789145 -0.09668841 0.124179035
000250 54 f7 ff bd 14 9a 52 3b 8d c8 e2 3d 4a 74 70 bd
       -0.12498346 0.0032135295 0.11073408 -0.058704652
000260 b5 0a 94 3d c1 b0 82 bd c4 28 13 be df d1 25 be
       0.07228605 -0.063813694 -0.1437102 -0.1619334
000270 08 fe 33 be 99 5e 4a be 32 ac db 3d 8d a4 bb bc
       -0.17577374 -0.19762649 0.10726203 -0.022905612
000280 b3 57 81 be 9a 73 5e 3d c8 ed 77 3d 6f 05 52 3c
       -0.25262222 0.054309465 0.0605295 0.012818678
000290 b2 3c c6 3d 6a 72 b3 bd a5 67 06 3e 38 fe bb bd
       0.096795455 -0.08762057 0.13125475 -0.09179348
0002a0 01 7b 17 3d ff f5 64 bd 99 53 fe bd fa 1a 58 3b
       0.03698254 -0.055898663 -0.12418289 0.0032975064
0002b0 aa d4 34 3d d6 d7 d8 bd dd 5e e0 bd f5 28 05 3e
       0.044148125 -0.105880424 -0.10955594 0.13003905
0002c0 53 79 c5 bd af ee 30 be 16 d1 14 bb 41 27 07 be
       -0.096422814 -0.1727855 -0.0022707633 -0.13198568
0002d0 01 4b 8e 3d d8 25 9c 3d 97 49 17 3d 90 e9 36 be
       0.069478996 0.076244056 0.036935415 -0.17862535
0002e0 17 49 93 3d c9 34 02 be ed a7 81 3c a1 fd 9f 3d
       0.07191675 -0.12715448 0.015827144 0.07812048
0002f0 81 d2 37 3d 84 fb a1 bc 5a cf 49 bd 8f 76 1b 3d
       0.044878487 -0.019773252 -0.04927001 0.037954863
000300 c2 91 ff bd 5a 25 11 be c6 7a fd 3d 80 2d e9 3c
       -0.12478973 -0.14174405 0.12376933 0.028464079
000310 e0 a0 df 3d 7b 4f 72 bd 27 3b 82 3d ab 5e 2f 3c
       0.10919356 -0.05915783 0.06358939 0.010703723
000320 07 ff 65 bd 30 aa 87 3c a1 b7 e7 bd 90 64 44 3d
       -0.056151416 0.016560644 -0.11314321 0.047947466
000330 f0 0c a7 3d 01 4f c8 3d 4f fd 02 be be 66 ea 3d
       0.081567645 0.09780694 -0.12791942 0.11445378
000340 ab 78 0c be 4a 02 bb bc c9 e4 03 3e 52 e0 dc 3d
       -0.13717906 -0.02282824 0.12880243 0.10784973
000350 75 02 34 3d fa 8c 0b 3e 2c a7 00 be 19 61 12 bd
       0.043947656 0.13627997 -0.12563771 -0.03573713
000360 08 5c 03 bc e3 5a c2 bd c6 ff 01 3d bf ce 55 3d
       -0.008017547 -0.094899915 0.031738065 0.05219912
000370 d4 ae 9a 3d a3 c7 25 3c 80 a9 1e 3d dc 01 08 be
       0.07552877 0.010118398 0.038735867 -0.1328196
000380 f2 94 99 3c 7d 66 ed 3d 4c 44 57 3c 49 bd 7c bd
       0.01874778 0.11591814 0.013138842 -0.061703954
000390 a0 74 11 3a d8 b4 9f bd 55 8d 58 3d 03 ad e3 bd
       0.00055486895 -0.07798165 0.05286916 -0.11116984
0003a0 85 66 a3 bd 27 b8 24 3d 3c be ab bd b4 1f c4 3d
       -0.079785384 0.040214684 -0.08385894 0.095763594
0003b0 79 d1 0b be 10 87 da bc 78 f2 18 be 95 56 82 3d
       -0.13654126 -0.026675731 -0.14936244 0.063641705
0003c0 8b fc 5f 3d 99 71 87 bd 6c a2 05 3e b4 83 da bd
       0.054684203 -0.06613464 0.1305024 -0.10669652
0003d0 48 db 1d bd 36 a0 ab 3d 40 af 13 3e d7 9b f1 3d
       -0.0385392 0.08380167 0.14422321 0.11797302
0003e0 e4 48 6c 3d 87 02 ab bd 14 a2 ed bb cb 70 10 be
       0.0576867 -0.083500914 -0.0072519872 -0.14105527
0003f0 0c ef f6 bd 45 a0 ef bb 6e fc e8 bd 00 c7 8d 3a
       -0.12057313 -0.007312807 -0.11376272 0.0010816753

bias f4 [29]
000000 7e 77 89 3d 64 f6 e2 3d 20 73 26 3e f9 36 e0 bd
       0.067122445 0.110821515 0.16254854 -0.10947985
000010 29 92 da 3d 92 47 d7 3d ca ea ae 3d 6f 18 ad bc
       0.10672409 0.10511698 0.08540876 -0.021129815
000020 13 8b 79 3d 35 50 c7 bd f7 ac 2e be ea ee 81 3d
       0.060923647 -0.09732095 -0.17058168 0.06344397
000030 90 1f 0e be 8e c0 f3 3d 69 75 da bd f1 7a 8a bd
       -0.13879228 0.11901961 -0.106669255 -0.067617305
000040 d2 fd cc bd e6 68 8e bd 6f 25 f7 3b 3c e3 d6 bd
       -0.1000935 -0.069536015 0.007542304 -0.1049256
000050 8f f1 0a 3e 74 14 ec 3c 92 51 7b 3d 08 97 12 bd
       0.1356871 0.028818347 0.06135709 -0.035788566
000060 ee 4a 4c be 83 bf 6c be 62 38 48 3c 14 c6 cd be
       -0.19950458 -0.23119931 0.012220474 -0.40190184
000070 ca 8c 80 be
       -0.25107414

weight f4 [50, 3]
000000 b1 98 0e 3e 5b 8a ef bd e7 63 bc 3e 59 ea 08 3e
       0.13925435 -0.11696311 0.3679497 0.13370647
000010 b8 ee d5 3e d7 35 3f bd 24 9c 00 3f 03 18 bb 3e
       0.4178369 -0.046682205 0.5023825 0.36541757
000020 3a b1 63 be 7d c4 d3 bd f2 c1 8f 3e 40 5b c2 3d
       -0.22235575 -0.103402115 0.28077656 0.09490061
000030 40 2a 33 be e8 d3 cc 3e 99 79 3e be 8f 3b 15 3f
       -0.17496586 0.40005422 -0.18601073 0.58294004
000040 ab 16 c5 be e9 51 06 3e 9a 1f 18 bf 94 59 f6 be
       -0.38493857 0.13117184 -0.5942322 -0.48115218
000050 68 b7 ea 3e a8 33 41 3c 6f 14 c6 3e 1b 43 41 be
       0.45843053 0.011792101 0.38687465 -0.18873255
000060 ba c1 45 bd 9d e7 10 3e 68 53 55 3e b5 e3 0f bf
       -0.048280455 0.14150853 0.20832598 -0.5620683
000070 36 30 0e bf 30 c0 eb be 56 62 bb 3e c1 40 e3 3e
       -0.55542314 -0.46045065 0.36598462 0.4438534
000080 ef 69 bc 3e 3a 0e 92 3e c9 1b ec 3e e6 93 b5 3e
       0.3679957 0.2852648 0.46114948 0.354644
000090 83 c1 90 be f5 18 2e 3e 6b b0 da 3e dc 05 cf be
       -0.28272638 0.17001708 0.4271272 -0.40434158
0000a0 0e 67 c0 be b1 7d 26 be 4c 93 56 3e 3d b6 62 be
       -0.37578624 -0.16258885 0.20954627 -0.22139831
0000b0 e1 b7 ae 3e 4b 1e 84 3d 22 0b 6b 3d 22 eb ea 3e
       0.34124663 0.064510904 0.057383664 0.45882517
0000c0 73 a6 1f be 38 ef fc be 1e be 11 bf a7 40 f6 3e
       -0.15590839 -0.4940126 -0.5693072 0.480962
0000d0 6d a1 ac be 0d 05 1a bf ba 32 18 bf a6 7c 8d be
       -0.33716908 -0.60163957 -0.594524 -0.27634162
0000e0 5f d1 e1 3e d7 6c c1 3d ea 6b b1 3e c4 e6 16 3d
       0.4410505 0.09444588 0.34652644 0.03684117
0000f0 ee eb 2e 3e 36 f9 13 3d 33 ac ac 3e 2f be a7 3e
       0.17082188 0.036126338 0.33725128 0.32762286
000100 bc ce ef 3e fd cb c2 bd c2 d5 bb be 13 cb c8 3e
       0.46837413 -0.09511564 -0.36686522 0.39217433
000110 6f 6a ef 37 13 7b b3 be f4 8d ad 3e f9 8a 85 bd
       2.8540582e-05 -0.35054836 0.33897364 -0.065206476
000120 75 10 d3 3d 39 95 f0 3b f0 9f b9 be 8d a7 7d be
       0.10305873 0.0073420075 -0.36254835 -0.24770947
000130 6c d5 17 3e 0a 2e 97 3d 43 8c c8 3e 34 6d d0 3e
       0.14827508 0.07381828 0.3916951 0.40708315
000140 d8 80 54 3e 77 64 f3 be 02 50 30 be c0 c8 50 be
       0.20752275 -0.47537586 -0.1721802 -0.2038908
000150 18 c4 0c bf 6a bc b0 3e a7 61 0d bf 7d 63 75 be
       -0.54986715 0.3451875 -0.5522713 -0.23963733
000160 b6 1e 0a bf c4 34 09 3e 1f 11 c5 3e a0 69 0f 3f
       -0.5395311 0.13399035 0.38489625 0.56020546
000170 12 89 70 3e 11 7e fc be ad 84 b8 be ae 5d 4f bb
       0.23489788 -0.4931493 -0.36038724 -0.003164153
000180 4e 00 5d be 34 df 9e 3e 4c 91 36 3e 30 f8 a6 3e
       -0.21582147 0.31029665 0.17828864 0.32611227
000190 f1 f9 0a 3f c0 23 07 3f dc ed 87 be 94 75 e3 3d
       0.5428763 0.52788925 -0.2654866 0.111064106
0001a0 9d 6d a2 3e 2a 46 d5 ba 08 8c 56 3e d4 b7 83 be
       0.31724253 -0.0016271521 0.20951855 -0.25726187
0001b0 48 f8 0d be 5e e0 df 3e 0d 4b 13 bf 0e b3 fa 3c
       -0.13864243 0.43725866 -0.57536393 0.030602958
0001c0 b8 d7 ad be c7 df b3 be 6d 95 5b be 46 b3 0a bf
       -0.33953643 -0.35131666 -0.2144372 -0.541798
0001d0 50 af b5 be 45 8d 1f be 27 39 ec 3e 20 b8 bb bd
       -0.35485315 -0.15581234 0.46137354 -0.091659784
0001e0 73 7d 11 3e bd 94 87 3e 15 07 ca 3e bf f1 f3 be
       0.14208011 0.26480666 0.39458528 -0.47645375
0001f0 2b c2 16 be 4e 24 46 bd 0b 39 9c 3d ee f3 04 bf
       -0.14722507 -0.048374467 0.076280676 -0.5193471
000200 01 8d c1 be b5 8b 14 bf 5f 12 ef 3c 18 ff aa 3e
       -0.3780289 -0.58025676 0.029183565 0.33397746
000210 17 b7 79 be 77 0d d3 bd 27 fa 17 bf ac 95 c3 3d
       -0.2438625 -0.103053026 -0.5936608 0.09550032
000220 2e 8d ce 3e 18 1a 17 3e a4 fd 6f be 0d 37 49 3c
       0.40342087 0.14756048 -0.234366 0.012281192
000230 8a 2d 9d 3e f7 d5 31 be 31 b9 a9 3e f8 5d ca 3c
       0.30698806 -0.17366777 0.33149102 0.02470301
000240 bc 82 6c 3e b7 a8 09 3f 7f cf 24 be 02 4d 00 3f
       0.23096746 0.53773063 -0.16094778 0.50117505
000250 86 fc 09 be 84 2c 98 be
       -0.13475236 -0.29721463

bias f4 [50]
000000 e2 74 84 3e e9 82 b4 be 0d 5e d9 bd 43 b9 8e be
       0.25870425 -0.35256127 -0.10613642 -0.27875718
000010 34 00 8b be b4 32 04 be 02 7e 0e 3f 1f fe 87 3e
       -0.27148592 -0.12909967 0.5566102 0.26561067
000020 7e 9a b0 be 02 f1 29 be f6 8f f5 3d 6c ae 24 be
       -0.34492868 -0.16595843 0.11990349 -0.16082162
000030 42 ea ec be 75 67 17 bf ee 93 49 3e 64 3b 6e 3d
       -0.46272475 -0.5914224 0.19685337 0.058162108
000040 8d 9c f5 be d2 df 80 bd 1e 48 c0 be bf 1c 4c 3e
       -0.47971 -0.0629269 -0.3755502 0.19932841
000050 c8 ab d1 3e d4 13 f7 3e ed 0c 78 3d 1f b9 bd be
       0.4095137 0.48257315 0.060559202 -0.370553
000060 27 12 94 3e 79 e9 7f 3d 15 10 92 be 76 cf 5b 3e
       0.289201 0.062478516 -0.28527895 0.21465859
000070 6d 38 af 3e 42 f4 f8 be ae a3 41 bd a2 fc 99 be
       0.34222737 -0.48623854 -0.047275238 -0.30075556
000080 e9 c8 4c 3e fe cb 00 bf 8c d3 eb 3e fc d9 17 bf
       0.19998516 -0.5031127 0.46059835 -0.5931699
000090 19 4b bf bd ed e0 ca bc ab be 67 3e 70 8d 05 3e
       -0.093404956 -0.024765456 0.22631328 0.13042235
0000a0 ef d7 a9 be 79 ca 70 3d 62 7f 11 be 76 1b 2c be
       -0.33172557 0.058786843 -0.14208749 -0.1680735
0000b0 db 46 f4 3e 8e da e5 be 8e 4b 07 bf fe 94 a0 be
       0.47710308 -0.44893306 -0.5284966 -0.31363672
0000c0 52 fc f1 3e f3 d9 95 be
       0.47262818 -0.29267845
