srim-sbi/data/results/nov19run5/trained_posterior_mnpe.pt (torch, 283254 bytes, 64 tensors)

low f4 [2]
1.0 0.0
00000000: 0000 803f 0000 0000

high f4 [2]
100.0 1.0
00000000: 0000 c842 0000 803f

weight f4 [50, 50]
0.019079583 -0.0866212 0.05974108 -0.13520622 0.04430334 0.058414176 -0.08927297 -0.08393528
0.09438918 0.0006519298 -0.12894441 0.093081504 -0.028396867 0.0056005046 -0.0998994 0.106534705
0.020792298 -0.06865157 -0.117598645 -0.13157098 -0.08731325 -0.10117797 -0.06381487 -0.034938976
-0.055153713 -0.016781434 -0.123114444 0.10875879 0.041282 -0.009806507 0.036963716 -0.04426267
-0.0018290216 -0.07083451 -0.0050124493 0.08790689 0.03275434 0.00753232 -0.015567261 -0.13309875
0.0047442936 0.001466502 -0.11915295 -0.14023684 -0.13770252 0.13228226 -0.14899933 0.12087927
-0.14935654 -0.087406196 -0.093383975 -0.01124534 0.13118902 -0.09786784 0.005976974 -0.11579253
0.06632028 0.051237457 -0.1601069 -0.054205112 -0.045103997 -0.08018199 0.12411029 0.030760754
0.09993577 0.11636655 -0.05147174 -0.023418244 0.04064468 -0.021302048 0.06782585 -0.014773116
0.05772817 0.07228327 -0.0940694 0.06136715 -0.021075852 0.12638259 -0.021365084 0.06413111
0.1009888 -0.052197482 -0.10380401 -0.04623847 0.13889083 -0.08145837 -0.11449808 0.028027695
-0.105218045 -0.100152105 -0.06325944 0.0033775172 -0.040165965 -0.013144465 -0.0900969 -0.056239303
0.02109009 0.08197452 0.11509046 0.01354214 0.028279483 0.09727948 0.12257699 0.059903592
-0.13304792 0.08314381 0.1299304 0.081946336 -0.072642826 0.052082375 -0.10426657 0.1188842
-0.0022283162 -0.081916675 -0.108906575 0.07430957 0.08411566 -0.024142351 -0.122266024 0.033178944
0.012561656 -0.050763097 0.13568917 0.047148157 0.017751217 0.07340561 -0.14618479 0.062365394
-0.009730818 0.066252254 0.0941796 0.11245428 0.003908114 0.024451781 0.030611318 -0.117661096
-0.029135803 -0.10106667 -0.12309093 0.13151442 0.0016151482 -0.057893682 -0.013411331 0.05609988
0.031121235 -0.11704649 0.036965918 0.15798393 0.13347283 0.053383343 -0.09289384 -0.039177604
0.15485336 -0.09411398 -0.06440885 -0.10931752 -0.036904566 -0.068135545 0.03448201 0.07833536
0.069327146 -0.050499283 -0.14551105 0.075780384 0.18501462 0.11161453 0.009199456 -0.024509713
0.0748897 -0.097402714 0.0989725 0.08063218 0.08116826 0.08264829 -0.060710788 -0.047806203
0.021415176 0.098170675 -0.027845474 0.081362985 -0.061799668 0.025907379 0.07604244 -0.095813304
-0.041392796 -0.07211865 -0.1170509 -0.011568592 0.10380214 0.13533294 -0.07298299 -0.0038116074
-0.1514325 0.13114749 -0.16538018 0.12570792 -0.113223575 -0.07019995 -0.028777568 -0.07356674
-0.07436419 0.047836825 -0.08478574 -0.12832993 0.08983633 -0.1359111 0.07983542 -0.11096107
-0.07009612 -0.12373397 0.11173493 0.07967894 0.09422146 -0.11473691 0.10901379 0.09251585
0.06964708 -0.059644148 0.020880297 -0.073650725 -0.03675615 0.011122705 -0.002883266 -0.050488472
-0.022375591 -0.09888607 -0.10845721 0.080810525 -0.1102192 -0.10930027 0.11616254 0.046748485
-0.11929575 -0.07807554 -0.12210325 -0.0028442717 -0.04281031 -0.04991295 0.03816893 0.098944336
0.028431254 -0.109889954 -0.12460579 -0.10095641 0.061256636 -0.10131137 0.0572086 0.1107371
0.0019766958 0.043059804 -0.14115997 0.03283772 -0.12516123 0.08328944 -0.086086534 -0.12247968
00000000: c94c 9c3c 7566 b1bd 10b3 743d 8073 0abe
00000010: 6b77 353d b443 6f3d bfd4 b6bd 43e6 abbd
00000020: 1d4f c13d 45e6 2a3a 010a 04be 84a1 be3d
00000030: 8ca0 e8bc 7084 b73b 0e98 ccbd de2e da3d
00000040: 9c54 aa3c 3299 8cbd 8fd7 f0bd 8bba 06be
00000050: 4ad1 b2bd 6536 cfbd 5fb1 82bd 2c1c 0fbd
00000060: dce8 61bd 3879 89bc 6d23 fcbd eebc de3d
00000070: 5017 293d 79ab 20bc 4467 173d c64c 35bd
00000080: c8bb efba af11 91bd 793f a4bb 8708 b43d
00000090: 6a29 063d aed1 f63b d30d 7fbc 0a4b 08be
000000a0: 0576 9b3b a437 c03a 7606 f4bd 3f9a 0fbe
000000b0: e401 0dbe 0075 073e 4893 18be 8d8f f73d
000000c0: ecf0 18be 0502 b3bd 1940 bfbd 603e 38bc
000000d0: 6a56 063e ef6e c8bd 7eda c33b a224 edbd
000000e0: edd2 873d 5ede 513d 10f3 23be 2e06 5ebd
000000f0: f8be 38bd 7536 a4bd 892d fe3d fafd fb3c
00000100: 20ab cc3d 9651 ee3d 08d4 52bd 9ed7 bfbc
00000110: 097b 263d a281 aebc 47e8 8a3d f10a 72bc
00000120: 6074 6c3d 4009 943d 75a7 c0bd 1f5c 7b3d
00000130: 44a7 acbc 706a 013e d405 afbc 2c57 833d
00000140: 37d3 ce3d 07cd 55bd 3297 d4bd 8d64 3dbd
00000150: 6639 0e3e a5d3 a6bd f87d eabd 569a e53c
00000160: 8f7c d7bd 8c1c cdbd 2a8e 81bd 5659 5d3b
00000170: 1185 24bd e25b 57bc b984 b8bd 2f5b 66bd
00000180: 20c5 ac3c 42e2 a73d 8cb4 eb3d dadf 5d3c
00000190: 60aa e73c 773a c73d a509 fb3d 785d 753d
000001a0: b73d 08be 4d47 aa3d 7a0c 053e 7bd3 a73d
000001b0: c3c5 94bd 5454 553d b689 d5bd 8f79 f33d
000001c0: f108 12bb eec3 a7bd 690a dfbd 9e2f 983d
000001d0: d544 ac3d 2ec6 c5bc 9c66 fabd a5e6 073d
000001e0: 67cf 4d3c f7ec 4fbd 1af2 0a3e 6d1e 413d
000001f0: 006b 913c ae55 963d 77b1 15be db72 7f3d
00000200: 026e 1fbc 43af 873d 3ce1 c03d 6e4e e63d
00000210: a30f 803b 1a4f c83c 96c4 fa3c 4df8 f0bd
00000220: 35ae eebc 0bfc cebd 1917 fcbd b7ab 063e
00000230: 61b3 d33a ed21 6dbd 33bb 5bbc fdc8 653d
00000240: f6f1 fe3c 12b6 efbd 9369 173d 8ac6 213e
00000250: 1aad 083e 7ea8 5a3d 203f bebd b278 20bd
00000260: e191 1e3e d5be c0bd cae8 83bd dde1 dfbd
00000270: 3e29 17bd a68a 8bbd 023d 0d3d 4a6e a03d
00000280: 64fb 8d3d 56d8 4ebd d900 15be bf32 9b3d
00000290: 7974 3d3e 2996 e43d 51b9 163c 98c8 c8bc
000002a0: c55f 993d 137b c7bd 18b2 ca3d 7c22 a53d
000002b0: 8b3b a63d 8243 a93d e0ab 78bd 70d0 43bd
000002c0: e16e af3c b50d c93d 311c e4bc a3a1 a63d
000002d0: a621 7dbd b63b d43c 24bc 9b3d c439 c4bd
000002e0: 7e8b 29bd f1b2 93bd 62b8 efbd 318a 3dbc
000002f0: 3796 d43d b894 0a3e 1b78 95bd 29cc 79bb
00000300: 1f11 1bbe 874b 063e 6c59 29be 94b9 003e
00000310: c3e1 e7bd fec4 8fbd efbe ebbc 29aa 96bd
00000320: 414c 98bd 8cf0 433d 25a4 adbd ec68 03be
00000330: 1cfc b73d 482c 0bbe c180 a33d 8f3f e3bd
00000340: 8e8e 8fbd 3c68 fdbd 48d5 e43d b62e a33d
00000350: 2ef7 c03d 2ffb eabd 9f42 df3d f378 bd3d
00000360: 21a3 8e3d 6c4d 74bd 280d ab3c 31d6 96bd
00000370: 9e8d 16bd 023c 363c 2df5 3cbb 00cd 4ebd
00000380: 044d b7bc c884 cabd d01e debd fd7f a53d
00000390: 9bba e1bd d2d8 dfbd a0e6 ed3d 577b 3f3d
000003a0: 5551 f4bd 12e6 9fbd 4511 fabd f666 3abb
000003b0: dd59 2fbd 8571 4cbd 0657 1c3d 54a3 ca3d
000003c0: a9e8 e83c fc0d e1bd 5231 ffbd 3cc2 cebd
000003d0: 3de8 7a3d 567c cfbd 9153 6a3d 22ca e23d
000003e0: 748b 013b 7a5f 303d 3d8c 10be d880 063d
000003f0: 442a 00be a793 aa3d 234e b0bd a0d6 fabd

bias f4 [50]
-0.070919715 -0.08969886 0.022972189 -0.023508918 -0.034691997 -0.09541265 0.036922198 -0.12610818
0.10933368 -0.12907209 -0.08484774 -0.00090682943 -0.09821265 -0.0624361 0.08827806 0.15613368
-0.03564717 -0.032673612 0.14007702 -0.061292935 -0.011640469 -0.13893726 0.0147567885 -0.20130412
-0.044897787 0.07251087 -0.057931967 0.11323167 0.12674001 -0.122739725 0.0937369 0.19996648
-0.1141098 0.058397196 -0.041676592 0.040266585 0.023717111 -0.12251881 0.0255011 -0.04379107
0.11287076 -0.009852634 -0.0687824 0.15337938 0.07787527 -0.052349653 0.11614404 -0.082788
-0.032157507 0.14805841
00000000: 5b3e 91bd 09b4 b7bd 2c30 bc3c c695 c0bc
00000010: 3219 0ebd b567 c3bd bb3b 173d 8122 01be
00000020: 56ea df3d 792b 04be a7c4 adbd 4bb8 6dba
00000030: b723 c9bd ffbc 7fbd 21cb b43d 82e1 1f3e
00000040: c402 12bd c4d4 05bd 5a70 0f3e 4d0e 7bbd
00000050: aab7 3ebc 9245 0ebe 75c6 713c ab22 4ebe
00000060: bee6 37bd 9480 943d 124a 6dbd 01e6 e73d
00000070: 22c8 013e f75e fbbd 22f9 bf3d 03c4 4c3e
00000080: 66b2 e9bd e631 6f3d 13b5 2abd 93ee 243d
00000090: 634a c23c 24eb fabd afe7 d03c 445e 33bd
000000a0: c928 e73d f16c 21bc c9dd 8cbd 7c0f 1d3e
000000b0: 127d 9f3d 976c 56bd eddc ed3d c18c a9bd
000000c0: 97b7 03bd a09c 173e

weight f4 [50, 50]
0.0923406 0.087658785 0.017551275 -0.03280449 -0.025214596 -0.04925588 -0.08021607 0.06328672
0.06791838 -0.061035655 0.1387976 -0.060277853 -0.10523789 -0.02626364 -0.050892644 -0.0064944546
0.07489477 -0.08512175 -0.0016931093 -0.04049273 -0.09853621 0.0076027657 0.026820263 -0.07988423
-0.02837692 0.013872356 -0.0017931074 -0.050415214 -0.05209408 0.1423052 -0.02253746 0.06914525
0.02356132 0.0067444835 -0.070465945 0.0731172 0.027708305 0.007277699 0.028178887 0.08051557
0.19036095 -0.093271166 -0.025240349 0.08374779 -0.14302263 -0.031244885 0.018922927 -0.010193968
-0.14001246 0.14415455 0.043744083 0.03533295 0.0074985684 -0.041839108 0.011086156 0.11881694
0.021855513 -0.0831725 -0.123734035 0.10584323 0.09179651 -0.034693245 -0.06412475 0.14397866
-0.037318718 0.12368146 -0.010384814 0.09423677 0.09037043 -0.11959372 -0.08974502 0.03519008
-0.059081264 0.020736748 -0.06365691 0.05857552 0.020151157 -0.04172522 -0.10230539 0.023248728
-0.15978028 0.07419249 -0.1326662 0.047756802 0.011860382 -0.07357676 -0.026365673 -0.07374316
0.06045225 0.14254645 -0.113277644 0.14645152 -0.0361547 -0.07112969 -0.046442844 -0.08898481
-0.0060240156 0.052921884 -0.04938129 -0.06350675 -0.079377584 -0.06884693 -0.08877858 -0.06181069
0.07824526 0.104884505 -0.08542734 0.07964068 0.0325175 0.022919094 0.009501697 0.008453619
0.16138531 -0.11646255 0.15818496 0.11309173 -0.07329565 -0.06934226 0.18519084 0.04516052
0.01425654 0.0699911 -0.039967205 -0.018184865 -0.054999042 -0.08403074 0.10533447 -0.024763837
0.115375906 0.12905577 0.09150407 0.012554304 -0.045630474 0.13336985 -0.13922413 -0.03422027
-0.085780665 0.015941117 0.09245725 -0.08014886 0.104291044 -0.04079912 0.07903605 -0.015111063
-0.046890568 -0.037597004 0.14237347 0.13743782 0.1127338 -0.06351352 0.061594345 -0.074824125
0.13637039 -0.11678321 -0.14347179 0.05117692 -0.08159729 -0.1044393 -0.04595962 -0.09790353
-0.039385565 -0.077983044 -0.0017311628 0.042334456 0.10116401 0.060209893 0.09156194 -0.10529493
-0.05526987 -0.13123381 -0.1374141 0.010074868 0.08988611 -0.075871296 0.01902629 -0.1523688
0.10588585 0.0008537091 -0.09202553 -0.044856112 -0.075294554 0.08256525 -0.017901672 0.04126127
-0.13205332 0.12074701 0.08018941 -0.011290782 -0.043866634 0.016467026 0.06657741 -0.15847847
0.1313829 0.12589863 0.119991355 0.012524395 -0.03191664 -0.099852 0.0039592413 -0.01604554
-0.106944665 -0.016463684 -0.11227572 0.02929602 -0.101573296 0.021105183 0.14329104 0.063204646
-0.098957814 0.15506914 0.05398643 0.021833112 -0.09007037 0.083822474 -0.124677315 0.09926882
-0.03940355 -0.11418115 -0.12271685 -0.05221861 0.013592834 0.07873303 0.07419572 0.11939628
-0.074379556 0.043117404 -0.020043701 0.14831744 -0.0904881 0.037980337 0.07971486 0.0609587
-0.14088346 -0.11417408 -0.094672084 0.08027528 -0.011800799 -0.007079996 -0.11506811 0.14866883
-0.11138716 0.040648248 0.03531667 0.08097036 -0.11950714 -0.046156038 -0.0930094 0.110543914
0.07007185 -0.105076194 -0.13794652 0.16418967 0.16209304 0.12982455 -0.09029943 -0.12544538
00000000: 121d bd3d 7386 b33d b1c7 8f3c 005e 06bd
00000010: d78e cebc 89c0 49bd 5348 a4bd 789c 813d
00000020: cb18 8b3d 8600 7abd f520 0e3e e9e5 76bd
00000030: f686 d7bd d826 d7bc ce74 50bd 6fcf d4bb
00000040: 6e62 993d 5054 aebd 52eb ddba b4db 25bd
00000050: 5acd c9bd 9f20 f93b 2bb6 db3c 589a a3bd
00000060: b776 e8bc e148 633c b306 ebba 2f80 4ebd
00000070: 9a60 55bd 74b8 113e 7ba0 b8bc 069c 8d3d
00000080: ab03 c13c d400 dd3b 7350 90bd 78be 953d
00000090: 87fc e23c c479 ee3b 69d7 e63c 59e5 a43d
000000a0: fbed 423e f404 bfbd d9c4 cebc f683 ab3d
000000b0: 8674 12be 46f5 ffbc 4104 9b3c 9a04 27bc
000000c0: 6d5f 0fbe 409d 133e ff2c 333d 49b9 103d
000000d0: 8db6 f53b 7c5f 2bbd b5a2 353c 4c56 f33d
000000e0: 550a b33c 5856 aabd 4568 fdbd 56c4 d83d
000000f0: cfff bb3d 811a 0ebd d653 83bd 246f 133e
00000100: 83db 18bd b54c fd3d 1125 2abc 35ff c03d
00000110: 2214 b93d 8ded f4bd 3dcc b7bd 7923 103d
00000120: 32ff 71bd 1de0 a93c 8e5e 82bd e2ec 6f3d
00000130: 0a14 a53c 10e8 2abd 7d85 d1bd 1e74 be3c
00000140: 719d 23be 3bf2 973d a6d9 07be a39c 433d
00000150: 0c52 423c 6aaf 96bd d3fc d7bc a706 97bd
00000160: c79c 773d b2f7 113e 1cfe e7bd 63f7 153e
00000170: f316 14bd 71ac 91bd da3a 3ebd ab3d b6bd
00000180: 1b65 c5bb 9ec4 583d 0944 4abd d40f 82bd
00000190: b790 a2bd 9fff 8cbd 8bd1 b5bd 352d 7dbd
000001a0: 0d3f a03d b0cd d63d 87f4 aebd a71a a33d
000001b0: 1231 053d d3c0 bb3c 01ad 1b3c 0c81 0a3c
000001c0: 3142 253e eb83 eebd 3dfb 213e a39c e73d
000001d0: 081c 96bd 5103 8ebd aba2 3d3e 3dfa 383d
000001e0: 4394 693c 7e57 8f3d a7b4 23bd 6df8 94bc
000001f0: ad46 61bd 4f18 acbd 99b9 d73d 88dd cabc
00000200: 344a ec3d 3227 043e 7c66 bb3d 91b0 4d3c
00000210: 05e7 3abd 1b92 083e c590 0ebe 8e2a 0cbd
00000220: c6ad afbd f296 823c 3a5a bd3d 1625 a4bd
00000230: 8b96 d53d fa1c 27bd a7dd a13d 6494 77bc
00000240: 5310 40bd 51ff 19bd 5aca 113e 80bc 0c3e
00000250: fbe0 e63d 6013 82bd 5a4a 7c3d 643d 99bd
00000260: aea4 0b3e 092c efbd 45ea 12be e49e 513d
00000270: 7b1c a7bd 46e4 d5bd 2840 3cbd a581 c8bd
00000280: c252 21bd 93b5 9fbd 2fe8 e2ba e566 2d3d
00000290: 142f cf3d a69e 763d d484 bb3d dea4 d7bd
000002a0: a962 62bd 2862 06be 48b6 0cbe 0f11 253c
000002b0: 3516 b83d 6962 9bbd 06dd 9b3c 9106 1cbe
000002c0: aeda d83d 73cb 5f3a e277 bcbd 0bbb 37bd
000002d0: 0834 9abd f817 a93d 87a6 92bc 9401 293d
000002e0: fc38 07be 354a f73d 583a a43d f9fc 38bc
000002f0: 80ad 33bd dbe5 863c bd59 883d 2e48 22be
00000300: 3d89 063e 92eb 003e 07be f53d 1f33 4d3c
00000310: 06bb 02bd 357f ccbd 86bc 813b f071 83bc
00000320: ce05 dbbd d9de 86bc d0f0 e5bd 35fe ef3c
00000330: a905 d0bd c7e4 ac3c e3ba 123e 7071 813d
00000340: 65aa cabd 72ca 1e3e e020 5d3d 5bdb b23c
00000350: d076 b8bd 1eab ab3d d256 ffbd 734d cb3d
00000360: 9e65 21bd cfd7 e9bd f952 fbbd 2ee3 55bd
00000370: 7ab4 5e3c c83e a13d edf3 973d 0986 f43d
00000380: 4f54 98bd e09b 303d b032 a4bc 87e0 173e
00000390: d351 b9bd 4591 1b3d 8b41 a33d d4af 793d
000003a0: c143 10be 1ad4 e9bd 70e3 c1bd 5e67 a43d
000003b0: 2358 41bc 50ff e7bb d4a8 ebbd a43c 183e
000003c0: f41e e4bd c77e 263d 36a8 103d cad3 a53d
000003d0: 29c0 f4bd 1d0e 3dbd b67b bebd d964 e23d
000003e0: d581 8f3d 3032 d7bd da41 0dbe 5621 283e
000003f0: b8fb 253e baf0 043e e8ee b8bd c174 00be

bias f4 [50]
0.12036234 -0.042325515 0.16042092 -0.03894904 0.055926617 -0.072733015 0.07247389 -0.05360749
0.07766417 -0.1694811 -0.019416263 0.11321467 -0.031473536 0.02300133 0.10248385 0.04309085
-0.07558767 -0.10897331 0.03385776 -0.0945766 -0.07988471 0.081315085 -0.021848338 -0.114660226
-0.089950316 -0.053167045 -0.049448855 0.10509599 0.046376273 0.06154055 0.1248008 0.0049011935
-0.11257181 0.0920998 -0.08047079 0.032590937 -0.08418957 0.024192885 0.09890765 -0.13335419
0.07267083 -0.11888961 0.07429018 -0.09724034 0.04500606 -0.070984796 0.13714445 0.114858866
0.070235364 -0.0003652771
00000000: 8880 f63d 855d 2dbd 6245 243e 0789 1fbd
00000010: 4f13 653d 0cf5 94bd 316d 943d 8793 5bbd
00000020: 640e 9f3d 748c 2dbe db0e 9fbc 18dd e73d
00000030: 65ea 00bd 496d bc3c 0ee3 d13d 0880 303d
00000040: b5cd 9abd 662d dfbd 6fae 0a3d 60b1 c1bd
00000050: 989a a3bd 8688 a63d 49fb b2bc fbd2 eabd
00000060: df37 b8bd b0c5 59bd e28a 4abd 913c d73d
00000070: 0cf5 3d3d f211 7c3d 9097 ff3d 319a a03b
00000080: 0d8c e6bd d29e bc3d dfcd a4bd 137e 053d
00000090: 956b acbd 2830 c63c 1890 ca3d 008e 08be
000000a0: 72d4 943d 657c f3bd 7325 983d f225 c7bd
000000b0: 4658 383d 7a60 91bd 986f 0c3e 203b eb3d
000000c0: 8fd7 8f3d aa82 bfb9

weight f4 [29, 50]
0.03958953 -0.1413755 -0.11734634 -0.059422906 -0.03507194 -0.0037030762 -0.0626651 -0.1407849
0.046550296 -0.1331962 -0.03304055 0.07463652 0.08655732 0.038924284 0.06788657 -0.082966484
-0.042041298 0.06536875 -0.10951879 -0.060454752 -0.049938496 0.05168422 0.0583819 -0.0025803815
0.10821088 0.12986684 0.08653493 -0.11397578 -0.07080647 0.07361833 0.14761224 0.1036339
0.08426226 -0.07286837 -0.0511379 0.10579695 -0.11557072 0.09702801 -0.07566349 -0.043364204
0.13047533 0.07386453 0.068457454 -0.06943189 0.04131549 0.050821077 -0.14391421 0.11525353
-0.11271484 0.11137392 -0.028349413 0.031553306 -0.10824563 0.056910124 -0.103205994 -0.121625885
-0.079906024 -0.114351355 0.12964106 -0.1899134 -0.03498912 -0.0010964423 -0.07255433 -0.1069515
0.051752977 -0.111715354 -0.10410343 -0.1460705 -0.05358791 0.09005147 -0.07867848 -0.0068038977
-1.685874e-08 -0.12952621 -0.11610361 0.13355464 -0.15778762 0.10690733 0.013892639 -0.05200564
0.13254483 0.06411551 -0.12270155 0.01720079 -0.013017173 -0.06717934 0.058319457 -0.020884154
-0.042636726 0.11534242 -0.022003483 -0.14362624 -0.079848155 -0.18466294 -0.12229653 -0.041007448
-0.037879165 0.009797902 0.007682664 0.104715966 0.108314335 -0.09564653 -0.099586986 0.096094236
0.054372057 -0.08185461 0.1678693 -0.04164967 -0.07349352 -0.24306628 -0.087337464 -0.07053034
-0.12354102 -0.04983342 -0.023945026 0.074817434 0.043603323 0.062075064 -0.05435286 0.13072516
-0.009264361 0.10354508 -0.13299452 0.12746508 0.044520494 0.05830854 0.019900342 -0.05951979
0.036313284 -0.006059685 -0.043124888 0.14039567 -0.05870461 -0.076013684 -0.12594168 0.04560834
0.09615834 0.081855156 0.07143771 0.08749828 -0.06437461 0.051403124 -0.10481009 -0.07470296
-0.06284784 0.038025334 -0.016672615 -0.13785791 0.12840909 0.0010806086 0.053795747 0.035040535
-0.056409907 -0.03476396 -0.003704261 -0.06617771 0.11497955 0.09041334 0.062622614 -0.25892162
0.053416688 0.041110635 0.09406352 0.11318327 -0.092467785 -0.038048223 0.014711873 0.10160035
0.06616844 -0.081144124 -0.12133606 0.110845685 0.004130172 0.018633064 0.030917345 -0.058961473
-0.052252665 -0.15825862 -0.0088928 -0.094651595 -0.114511386 0.12708434 0.08981533 0.114710614
-0.008528128 0.08247329 -0.11082733 -0.06018617 -0.1250686 -0.01736521 -0.07825399 -0.018662242
0.047144912 -0.022198154 -0.026605854 0.09272773 0.07522312 -0.08884622 -0.034400467 0.08452802
-0.11228144 -0.029215181 0.039474066 -0.061328564 -0.18163818 -0.09125612 0.12836814 -0.028362554
-0.0968796 -0.16134499 -0.19418792 0.0756606 0.10743222 -0.02596159 -0.04266596 0.022522302
0.11838831 0.03798241 -0.009322786 -0.10680124 -0.00067497574 0.034710377 -0.010731971 -0.06099348
-0.051088523 0.11051659 -0.087148674 0.024016447 0.005805553 -0.09192375 0.05686514 0.14910987
-0.07715341 0.04441819 0.061081138 0.026734727 -0.1459214 -0.0048633385 -0.18309695 0.024640145
-0.08493546 -0.08141648 -0.09709875 0.064715184 -0.047011442 0.010955967 -0.109660745 -0.17950971
-0.11517871 0.027323592 -0.06068016 -0.10548596 -0.11485995 0.053085215 -0.02176361 0.033405054
00000000: a228 223d bdc4 10be 4753 f0bd 6f65 73bd
00000010: 98a7 0fbd 4faf 72bb 8f56 80bd eb29 10be
00000020: 86ab 3e3d 9664 08be 8755 07bd 08db 983d
00000030: f744 b13d 126f 1f3d 1d08 8b3d 55ea a9bd
00000040: 7f33 2cbd 0de0 853d 634b e0bd 679f 77bd
00000050: 4f8c 4cbd d5b2 533d dc21 6f3d 9e1b 29bb
00000060: aa9d dd3d d0fb 043e 3a39 b13d 226c e9bd
00000070: fc02 91bd 35c5 963d aa27 173e 033e d43d
00000080: b191 ac3d 033c 95bd fa75 51bd 12ac d83d
00000090: 57b0 ecbd 9fb6 c63d 76f5 9abd aa9e 31bd
000000a0: 539b 053e 4946 973d 6c33 8c3d 4f32 8ebd
000000b0: 6e3a 293d c329 503d 3f5e 13be 0b0a ec3d
000000c0: 0ad7 e6bd 0318 e43d 073d e8bc 0a3e 013d
000000d0: e3af ddbd 971a 693d aa5d d3bd fe16 f9bd
000000e0: c5a5 a3bd 0b31 eabd a0c0 043e a978 42be
000000f0: c050 0fbd 80b6 8fba 5d97 94bd 6309 dbbd
00000100: eefa 533d 05cb e4bd 2e34 d5bd 8193 15be
00000110: ff7e 5bbd e86c b83d 2f22 a1bd 3bf3 debb
00000120: c3d0 90b2 85a2 04be bbc7 edbd 8cc2 083e
00000130: 1493 21be 3bf2 da3d f49d 633c de03 55bd
00000140: d5b9 073e fe4e 833d f34a fbbd ace8 8c3c
00000150: fb45 55bc 5295 89bd 62e0 6e3d 3f15 abbc
00000160: d9a3 2ebd a638 ec3d a640 b4bc c212 13be
00000170: 6e87 a3bd 4818 3dbe 9a76 fabd 6df7 27bd
00000180: 2f27 1bbd 6187 203c dbbe fb3b 5375 d63d
00000190: e8d3 dd3d 54e2 c3bd 43f4 cbbd 0ecd c43d
000001a0: 3cb5 5e3d 64a3 a7bd eee5 2b3e d898 2abd
000001b0: c583 96bd 5ee6 78be fcdd b2bd 3672 90bd
000001c0: 1303 fdbd 211e 4cbd 5c28 c4bc e239 993d
000001d0: 6699 323d 6c42 7e3d 1ba1 5ebd d1dc 053e
000001e0: 8cc9 17bc 710f d43d b72f 08be 3586 023e
000001f0: 1f5b 363d f0d4 6e3d 0b06 a33c 06cb 73bd
00000200: 3dbd 143d 5290 c6bb b9a3 30bd e2c3 0f3e
00000210: 3f74 70bd 10ad 9bbd dbf6 00be d0cf 3a3d
00000220: aaee c43d ada3 a73d ef4d 923d 4c32 b33d
00000230: d6d6 83bd 158c 523d aca6 d6bd defd 98bd
00000240: 5eb6 80bd 74c0 1b3d 0295 88bc a02a 0dbe
00000250: ac7d 033e 35a3 8d3a ee58 5c3d aa86 0f3d
00000260: 130e 67bd a764 0ebd 30c3 72bb 2e88 87bd
00000270: 667a eb3d a12a b93d 4940 803d 6091 84be
00000280: 75cb 5a3d a063 283d 60a4 c03d a1cc e73d
00000290: c05f bdbd 74d8 1bbd 110a 713c d813 d03d
000002a0: 5283 873d e42e a6bd 0a7f f8bd 1003 e33d
000002b0: 6556 873b 5ea4 983c 5f46 fd3c 9681 71bd
000002c0: e406 56bd 8c0e 22be 1bb3 11bc b2d8 c1bd
000002d0: f284 eabd 6622 023e 1af1 b73d 66ed ea3d
000002e0: 90b9 0bbc c2e7 a83d 70f9 e2bd c685 76bd
000002f0: fc11 00be 7c41 8ebc a143 a0bd 8fe1 98bc
00000300: 061b 413d e7d8 b5bc 85f4 d9bc 09e8 bd3d
00000310: 940e 9a3d 02f5 b5bd 81e7 0cbd 071d ad3d
00000320: d0f3 e5bd ad54 efbc 8faf 213d a933 7bbd
00000330: 5cff 39be 7de4 babd f072 033e 9658 e8bc
00000340: d068 c6bd 9f37 25be 33d9 46be f2f3 9a3d
00000350: 6c05 dc3d 67ad d4bc 80c2 2ebd b180 b83c
00000360: 9275 f23d 7293 1b3d 99be 18bc 9cba dabd
00000370: dbf0 30ba 782c 0e3d 26d5 2fbc 4dd4 79bd
00000380: 3342 51bd 8656 e23d 017b b2bd 24be c43c
00000390: 823c be3b 8542 bcbd 6ceb 683d 42b0 183e
000003a0: 9b02 9ebd d9ef 353d 3730 7a3d c902 db3c
000003b0: 6b6c 15be a45c 9fbb c47d 3bbe 21da c93c
000003c0: a4f2 adbd afbd a6bd b6db c6bd 6589 843d
000003d0: 128f 40bd a880 333c d095 e0bd 65d1 37be
000003e0: d1e2 ebbd bad5 df3c c28b 78bd 0609 d8bd
000003f0: b23b ebbd e26f 593d 9949 b2bc bdd3 083d

bias f4 [29]
-0.11084618 -0.09177811 -0.028585613 -0.04292365 0.06347545 -0.0020960986 -0.013370707 0.05044464
-0.119094506 -0.1061397 0.054530367 0.05060955 -0.02917096 0.09595055 0.13406909 -0.1125486
-0.13574994 0.018911032 0.026716191 0.11686901 -0.09883907 -0.13042878 -0.02385006 -0.08860794
0.041793767 -0.075850226 -0.0021520085 0.09286089 0.07415241
00000000: 5203 e3bd 29f6 bbbd 602c eabc b6d0 2fbd
00000010: 6bff 813d b35e 09bb cf10 5bbc 0a9f 4e3d
00000020: d2e7 f3bd c55f d9bd 3c5b 5f3d f64b 4f3d
00000030: f0f7 eebc b981 c43d 6849 093e e17f e6bd
00000040: 0802 0bbe 4feb 9a3c eadb da3c 0559 ef3d
00000050: 236c cabd 1f8f 05be 3361 c3bc 1478 b5bd
00000060: f12f 2b3d 5d57 9bbd b608 0dbb da2d be3d
00000070: 38dd 973d

weight f4 [50, 50]
-0.04730113 0.10612617 0.12975658 0.012583281 0.052536275 -0.020399855 0.011575477 0.035697583
-0.009764641 0.0663756 0.10542563 0.14724147 0.015931437 -0.023902437 -0.024149142 0.1486315
0.07874579 0.09464945 -0.11020312 0.1311172 0.10880723 -0.03222311 -0.106955916 -0.08273189
0.038707454 -0.08536771 0.18600686 0.026139844 0.033055265 0.12503833 -0.107960805 0.06436746
-0.0327258 -0.059035547 0.029799225 0.10218832 -0.095343344 -0.064351246 0.17953134 -0.07038891
-0.061236896 -0.09258982 -0.08886698 -0.119064786 0.10683058 0.16189446 -0.05058248 0.017275795
-0.02051638 -0.057126377 0.06135791 0.11615972 -0.09581632 0.06568168 -0.07913486 0.06832571
0.08470836 0.030577293 -0.10472272 0.011301972 0.109932356 -0.09748092 -0.08906644 -0.010096475
0.060918383 -0.12314314 0.0024869847 -0.11959836 0.11035783 0.09762542 -0.0753514 0.068957865
-0.019116463 0.098160796 -0.072428904 0.05997191 -0.097316355 -0.14989537 -0.13612646 -0.1309536
0.12501949 -0.06570995 -0.10245853 0.050258297 -0.06424184 0.11326912 -0.046421282 -0.11989413
-0.056649487 -0.015365815 0.115864426 0.08068341 0.04495784 -0.13564539 -0.12425832 0.08986666
-0.039147202 -0.117637694 -0.09357426 0.062612236 -0.07531538 0.16877131 -0.1426919 0.016101029
0.14465474 0.14984564 0.06569542 0.115367055 -0.08330459 0.08737894 -0.097873636 0.120171644
0.18269412 -0.07627585 -0.12520148 0.001722746 0.048317652 0.005380792 0.05703971 -0.01237077
-0.09209049 0.06483701 0.093110606 0.122024916 -0.008260811 -0.0025247592 -0.04274138 0.05681806
-0.044073798 0.008977418 0.08493338 0.070785135 -0.12967256 -0.022242099 0.053201187 0.15899336
0.06858232 -0.03010835 0.05146674 0.016540939 -0.035059772 -0.11541922 -0.03492515 0.037809107
0.1338618 -0.012161775 0.08395353 -0.08549958 -0.0032438373 -0.05026412 -0.12374851 -0.062056907
-0.04438123 -0.11912874 -0.110171445 0.00035176871 -0.08291108 -0.020038282 0.045195706 -0.11256939
0.10086148 -0.06914302 0.12864614 0.15582012 0.11296738 0.0061961412 0.14964187 0.085311934
0.06798628 -0.050786283 -0.1059894 0.09314283 -0.0636301 0.00965649 0.02836982 0.042208344
-0.09237665 0.09671674 -0.10279257 -0.13979205 0.08993794 0.0784658 -0.12158762 -0.074477926
-0.12011011 0.075218365 -0.0036449204 0.030167775 -0.11341447 0.034039266 -0.007362551 0.116441846
0.06409431 0.0964657 0.002082559 0.06592711 -0.069226794 0.1472735 -0.13070759 -0.021674834
0.044630975 -0.09979418 -0.045292433 -0.04582931 -0.0072868466 -0.0931866 -0.0006506061 -0.06870956
-0.023247778 -0.008555763 0.010969491 0.12543838 -0.11724783 0.18049212 -0.06011868 0.15232632
-0.08466444 -0.14953944 0.00094807113 -0.02374349 -0.046451952 -0.0753034 -0.08595214 -0.014645528
0.032336302 0.124300994 -0.12489904 0.08766972 0.1356388 0.1393134 0.05997404 -0.06683191
0.13674614 -0.048767857 -0.11652821 0.032390192 0.055627905 0.03674263 0.118550524 0.114927545
-0.04919899 -0.013125416 0.07157259 0.10059496 -0.06777953 -0.06132946 0.026674487 -0.028987363
0.0042213877 0.12715833 0.16169924 -0.062005103 0.14890057 0.03649276 0.062206272 -0.099431634
00000000: d4be 41bd ad58 d93d e9de 043e 1b2a 4e3c
00000010: 4730 573d 991d a7bc 12a7 3d3c a137 123d
00000020: dffb 1fbc eeef 873d 65e9 d73d 78c6 163e
00000030: a582 823c 0bcf c3bc 6cd4 c5bc db32 183e
00000040: 7945 a13d 92d7 c13d 2cb2 e1bd 9643 063e
00000050: 53d6 de3d 61fc 03bd b40b dbbd 566f a9bd
00000060: b58b 1e3d 44d5 aebd 9578 3e3e 3a23 d63c
00000070: f564 073d 0c0a 003e 8e1a ddbd 16d3 833d
00000080: 7d0b 06bd 42cf 71bd 811d f43c 1c48 d13d
00000090: 5f43 c3bd 96ca 83bd 10d7 373e 1028 90bd
000000a0: 8ad3 7abd bb9f bdbd e4ff b5bd 3dd8 f3bd
000000b0: fec9 da3d a9c7 253e 932f 4fbd f885 8d3c
000000c0: f811 a8bc 59fd 69bd 6f52 7b3d 26e5 ed3d
000000d0: 593b c4bd 1e84 863d 7511 a2bd 5aee 8b3d
000000e0: 947b ad3d 3b7d fa3c de78 d6bd e82b 393c
000000f0: 3724 e13d 14a4 c7bd 7768 b6bd af6b 25bc
00000100: 8e85 793d 7832 fcbd aefc 223b fcef f4bd
00000110: 4903 e23d d6ef c73d d651 9abd c839 8d3d
00000120: 219a 9cbc 8708 c93d 9b55 94bd 1ba5 753d
00000130: cc4d c7bd 2c7e 19be bc64 0bbe b318 06be
00000140: 1c05 003e f092 86bd c7d5 d1bd a5db 4d3d
00000150: 3a91 83bd a4f9 e73d 3e24 3ebd 0e8b f5bd
00000160: 4b09 68bd e6c0 7bbc 544a ed3d 583d a53d
00000170: b625 383d a0e6 0abe 257b febd 030c b83d
00000180: d158 20bd 08ec f0bd dda3 bfbd d83a 803d
00000190: f33e 9abd 63d2 2c3e d31d 12be 4ee6 833c
000001a0: 5f20 143e 2371 193e 528b 863d 9045 ec3d
000001b0: 999b aabd bbf3 b23d f971 c8bd 8d1c f63d
000001c0: 2b14 3b3e 8336 9cbd d134 00be c3cd e13a
000001d0: bbe8 453d 5b51 b03b 79a2 693d c5ae 4abc
000001e0: f099 bcbd 44c9 843d c6b0 be3d 33e8 f93d
000001f0: 5a58 07bc 6e76 25bb 9611 2fbd 0eba 683d
00000200: ba86 34bd 0516 133c 8df1 ad3d ccf7 903d
00000210: e2c8 04be 1035 b6bc 7de9 593d 28cf 223e
00000220: e374 8c3d c9a5 f6bc cace 523d dd80 873c
00000230: d69a 0fbd e960 ecbd ad0d 0fbd b9dd 1a3d
00000240: 1113 093e 2e42 47bc d4ef ab3d 671a afbd
00000250: 8f96 54bb c0e1 4dbd dc6f fdbd 622f 7ebd
00000260: 18c9 35bd c5f9 f3bd 91a1 e1bd 996d b839
00000270: 49cd a9bd 5327 a4bc 221f 393d c88a e6bd
00000280: 7790 ce3d db9a 8dbd d0bb 033e 4f8f 1f3e
00000290: 715b e73d 0009 cb3b b83b 193e 06b8 ae3d
000002a0: 643c 8b3d 4705 50bd f810 d9bd abc1 be3d
000002b0: 7f50 82bd 4136 1e3c d367 e83c a8e2 2c3d
000002c0: f82f bdbd 6d13 c63d e984 d2bd a625 0fbe
000002d0: 6231 b83d adb2 a03d ee02 f9bd e287 98bd
000002e0: 4afc f5bd 160c 9a3d 9edf 6ebb 6922 f73c
000002f0: d845 e8bd c26c 0b3d 8e41 f1bb 1079 ee3d
00000300: e143 833d cf8f c53d 8b7b 083b cb04 873d
00000310: c7c6 8dbd ddce 163e 36d8 05be 6c8f b1bc
00000320: f8ce 363d e460 ccbd 8f84 39bd 84b7 3bbd
00000330: 80c6 eebb 9ed8 bebd 708d 2aba 99b7 8cbd
00000340: 2072 bebc 792d 0cbc 61b9 333c eb72 003e
00000350: a11f f0bd edd2 383e 013f 76bd 6efb 1b3e
00000360: 8d64 adbd de20 19be fa87 783a b581 c2bc
00000370: 6744 3ebd ab38 9abd ad07 b0bd ccf3 6fbc
00000380: 1273 043d 8591 fe3d 11cb ffbd 2f8c b33d
00000390: e6e4 0a3e 2ca8 0e3e 57a7 753d 2bdf 88bd
000003a0: 2e07 0c3e cec0 47bd 58a6 eebd 94ab 043d
000003b0: 16da 633d 717f 163d 9eca f23d 225f eb3d
000003c0: e184 49bd fc0b 57bc a694 923d bb04 ce3d
000003d0: ffcf 8abd 9a34 7bbd 7484 da3c e876 edbc
000003e0: 9153 8a3b cb35 023e 7c94 253e 10f9 7dbd
000003f0: 6479 183e 6f79 153d 01cc 7e3d d0a2 cbbd

bias f4 [50]
-0.03372359 -0.08589685 0.076083146 -0.061729178 0.16133954 -0.053078126 -0.10375992 0.011195982
0.050837953 -0.040308226 -0.00051641837 -0.07227521 0.0044225557 -0.09143781 -0.05998364 -0.037473433
0.12686147 0.077501744 0.16828533 0.099321 -0.11773743 0.1609608 -0.1005216 -0.095304176
-0.03098929 0.0026276077 -0.037463874 0.03862041 0.11672892 0.00086847635 -0.040766202 -0.05051619
0.16602063 0.17260453 0.10868647 0.06615519 -0.029471828 0.16789007 -0.04217218 -0.07351295
0.024021393 0.15699348 0.11676635 0.092433214 -0.088644095 -0.016511515 0.06906404 0.07304935
-0.089677885 -0.112088405
00000000: bf21 0abd b0ea afbd 7bd1 9b3d bcd7 7cbd
00000010: 3136 253e 7368 59bd 1580 d4bd 5a6f 373c
00000020: 753b 503d 3d1a 25bd 4060 07ba 0605 94bd
00000030: 16eb 903b bf43 bbbd 68b1 75bd be7d 19bd
00000040: f9e7 013e 3cb9 9e3d fd52 2c3e cf68 cb3d
00000050: 5220 f1bd e8d2 243e 45de cdbd d62e c3bd
00000060: 40dd fdbc f133 2c3b b873 19bd 6f30 1e3d
00000070: 920f ef3d 76aa 633a 76fa 26bd 10ea 4ebd
00000080: 5001 2a3e 3ebf 303e 0397 de3d 5f7c 873d
00000090: e76e f1bc 60eb 2b3e bcbc 2cbd f58d 96bd
000000a0: 83c8 c43c e6c2 203e 3223 ef3d a04d bd3d
000000b0: 098b b5bd 2843 87bc 7371 8d3d e69a 953d
000000c0: 0aa9 b7bd 9b8e e5bd

weight f4 [50, 50]
0.11522409 0.07637805 -0.114629656 -0.090893105 -0.09356547 -0.09823497 -0.13972713 0.08002257
0.120399795 -0.091002785 -0.029346768 -0.11472251 0.08951836 -0.052365523 -0.12605916 -0.13748632
0.006606755 -0.04865739 0.11477309 -0.078356035 0.061725747 -0.12733424 -0.13211082 0.024535941
0.070949316 0.119725145 -0.09156112 -0.011036659 -0.12283715 -0.11317792 0.061495136 0.06311825
0.0010998979 -0.054661397 0.09792775 0.10761715 0.053076778 0.1160099 -0.025777958 0.07329607
0.08416724 0.051106934 0.00033643303 -0.05759136 0.12098543 -0.10261705 -0.027238144 -0.070009984
-0.06417807 -0.04282051 0.10347685 0.11614135 0.0160003 -0.1168413 -0.03270889 -0.13127923
-0.033933 0.020008007 0.014072237 0.059722155 -0.022225231 0.12413382 -0.07409804 0.15740523
0.015073514 0.12887318 0.059731912 0.16683689 -0.09900334 -0.03611845 0.12320988 0.10455751
-0.010535661 0.098063916 -0.020220704 0.13601871 0.04933356 -0.12081645 -0.06749569 0.073915
0.07078281 -0.036850505 -0.06861801 -0.02540462 0.06405521 0.046828225 0.104116 -0.11316931
0.13986693 -0.14193606 -0.027817117 -0.08906337 0.057751514 0.107975125 0.021028345 0.07090701
0.105026305 0.068181776 -0.0010349506 -0.07948726 0.13505219 0.04898032 0.07906405 -0.07380599
-0.13658747 0.1381686 0.1130581 -0.06088796 0.023134727 0.11014024 0.111522116 0.098320745
0.09445425 0.15440309 0.07735469 -0.11406977 -0.1335377 -0.05628362 -0.023869187 -0.12841287
-0.06782681 0.09600453 -0.11683208 -0.0860941 -0.014112199 0.007816269 -0.059731644 0.029465798
-0.04985864 -0.116153866 0.020547219 -0.079709224 0.07714793 -0.033075605 -0.0040579704 0.031871215
-0.058791053 0.10113433 0.15400846 -0.053409822 -0.054869507 -0.031939823 0.09753459 -0.034056734
0.08422075 0.008340384 -0.1276248 -0.13483419 0.07780126 -0.11563344 0.074957184 0.0031301123
-0.00061342516 -0.09883183 0.14280045 0.07335733 -0.009293136 0.06150098 0.10711383 0.09765213
0.041802954 0.122303165 -0.1121499 0.025673348 0.03648668 -0.018544562 0.1319361 -0.045923207
0.06408936 0.12883027 0.12548502 0.0864096 -0.061350137 -0.0573255 0.08660959 0.042051025
-0.014165461 -0.026699558 -0.02376956 0.081974216 0.00113616 -0.0018226538 0.16318744 0.09689464
-0.09307713 0.08988511 -0.05807099 0.053146813 0.12755653 -0.014494279 -0.14253974 0.0794224
-0.033556607 0.13349327 0.054875776 0.05031663 0.023200752 -0.07541534 0.09712455 -0.068549685
-0.0010804329 -0.020484954 0.05858266 0.06841869 -0.13829288 0.09299778 0.091983095 -0.01808103
0.105083756 -0.118710436 0.11141729 -0.09842466 0.12840624 0.077042036 0.05815115 -0.08098101
0.041399382 0.017649407 0.0424484 0.08373514 0.08764394 0.10104206 -0.048508644 -0.1017431
-0.010795824 -0.043037068 0.07612887 0.14047843 -0.046136666 0.029767236 0.08661247 0.023424258
-0.084687606 0.035013244 0.012095619 -0.08450403 -0.040700532 0.00013148386 0.0526337 0.01500436
-0.14124386 -0.103777446 0.027391892 0.05501266 -0.11500238 0.027794769 -0.11680825 -0.14422464
0.07618866 0.12291034 0.022560528 0.07653403 0.15228978 -0.061631303 -0.031901866 -0.17716992
00000000: 9cfa eb3d 186c 9c3d f4c2 eabd 2a26 babd
00000010: 419f bfbd 6a2f c9bd a114 0fbe e0e2 a33d
00000020: 2b94 f63d ab5f babd a268 f0bc a3f3 eabd
00000030: 6755 b73d 3b7d 56bd a715 01be 37c9 0cbe
00000040: 7a7d d83b f94c 47bd 270e eb3d 2179 a0bd
00000050: 23d4 7c3d e863 02be 0f48 07be 99ff c83c
00000060: e04d 913d 7532 f53d 6584 bbbd 1ad3 34bc
00000070: 0b92 fbbd d3c9 e7bd 53e2 7b3d 2444 813d
00000080: 732a 903a a1e4 5fbd 588e c83d 6166 dc3d
00000090: 0967 593d 9996 ed3d 4c2c d3bc 401c 963d
000000a0: e05f ac3d 8155 513d 4763 b039 ebe4 6bbd
000000b0: 36c7 f73d e328 d2bd 8722 dfbc 6561 8fbd
000000c0: cb6f 83bd 8f64 2fbd aceb d33d 84db ed3d
000000d0: 1013 833c 7e4a efbd c2f9 05bd 106e 06be
000000e0: 54fd 0abd d5e7 a33c 3d8f 663c 389f 743d
000000f0: b011 b6bc df39 fe3d b7c0 97bd d62e 213e
00000100: e6f6 763c 55f7 033e 73a9 743d 4ad7 2a3e
00000110: 43c2 cabd f1f0 13bd 7655 fc3d 3f22 d63d
00000120: c49d 2cbc bcd5 c83d e4a5 a5bc 7d48 0b3e
00000130: fd11 4a3d 9d6e f7bd 2e3b 8abd bf60 973d
00000140: 94f6 903d 8ef0 16bd 9987 8cbd 5a1d d0bc
00000150: 612f 833d f4ce 3f3d c53a d53d 50c5 e7bd
00000160: 4739 0f3e b057 11be b9e0 e3bc db66 b6bd
00000170: da8c 6c3d 1022 dd3d a343 ac3c b237 913d
00000180: 0818 d73d e3a2 8b3d 2ea7 87ba 37ca a2bd
00000190: 1f4b 0a3e 979f 483d 55ec a13d 9827 97bd
000001a0: 96dd 0bbe 127c 0d3e 018b e73d a765 79bd
000001b0: 0a85 bd3c 3591 e13d b565 e43d 635c c93d
000001c0: 3b71 c13d d81b 1e3e 236c 9e3d 699d e9bd
000001d0: 1bbe 08be a789 66bd 5089 c3bc aa7e 03be
000001e0: c8e8 8abd 069e c43d a845 efbd 1a52 b0bd
000001f0: da36 67bc cf0f 003c 2ba9 74bd 4262 f13c
00000200: 9338 4cbd 14e2 edbd a452 a83c 973e a3bd
00000210: bcff 9d3d 497a 07bd b9f8 84bb 648b 023d
00000220: e3ce 70bd 841f cf3d 65b4 1d3e 42c4 5abd
00000230: d9be 60bd 55d3 02bd 37c0 c73d 137f 0bbd
00000240: ee7b ac3d 1ba6 083c 13b0 02be f911 0abe
00000250: 4456 9f3d 3ad1 ecbd 2783 993d 9222 4d3b
00000260: 44ce 20ba 5868 cabd 483a 123e 5e3c 963d
00000270: 3d42 18bc 74e8 7b3d 7f5e db3d d7fd c73d
00000280: 9339 2b3d 157a fa3d d9ae e5bd ea50 d23c
00000290: 0f73 153d c4ea 97bc 421a 073e f919 3cbd
000002a0: 4841 833d 15ec 033e 257f 003e 84f7 b03d
000002b0: 484a 7bbd 25ce 6abd 5e60 b13d b23d 2c3d
000002c0: 4016 68bc 08b9 dabc 61b8 c2bc 19e2 a73d
000002d0: 34eb 943a 1de6 eeba 9c1a 273e b270 c63d
000002e0: 399f bebd af15 b83d d9db 6dbd 79b0 593d
000002f0: 2e9e 023e 6a79 6dbc f0f5 11be 36a8 a23d
00000300: a772 09bd 76b2 083e 6cc5 603d d018 4e3d
00000310: 810f be3c 5c73 9abd 3ce9 c63d c763 8cbd
00000320: 509d 8dba 10d0 a7bc 5ff4 6f3d 191f 8c3d
00000330: a69c 0dbe 9f75 be3d a261 bc3d ab1e 94bc
00000340: 2736 d73d 751e f3bd c02e e43d de92 c9bd
00000350: ed7c 033e 37c8 9d3d e62f 6e3d 5fd9 a5bd
00000360: 6692 293d 7d95 903c 60de 2d3d 547d ab3d
00000370: aa7e b33d 24ef ce3d 00b1 46bd b05e d0bd
00000380: f8e0 30bc a347 30bd 74e9 9b3d 94d9 0f3e
00000390: cdf9 3cbd 6bda f33c e161 b13d 3be4 bf3c
000003a0: b270 adbd 0c6a 0f3d b42c 463c 7310 adbd
000003b0: 9ab5 26bd eede 0939 6f96 573d d9d4 753c
000003c0: 3ba2 10be 4589 d4bd f664 e03c f454 613d
000003d0: 5e86 ebbd dbb1 e33c 2a39 efbd a0af 13be
000003e0: cd08 9c3d 6bb8 fb3d dbd0 b83c e0bd 9c3d
000003f0: daf1 1b3e 1b71 7cbd 88ab 02bd 086c 35be

bias f4 [50]
-0.11196117 -0.080852054 -0.006600102 -0.07443583 0.07785593 0.005677537 -0.12089402 0.101123855
0.07477765 -0.0648162 0.015250467 0.06746599 0.030937038 0.13067016 0.09776017 -0.08825606
-0.06141036 0.028563911 -0.1487886 0.08169407 -0.13259484 -0.14189035 -0.16509044 -0.027798088
0.0026867096 0.031065453 0.0895191 -0.13805051 0.13232696 -0.03021479 0.111230105 -0.051791165
0.01961156 -0.07452761 -0.047235563 0.070722215 0.007901504 0.107870385 0.01373717 0.114742555
0.019589605 0.14937817 -0.03024742 0.05769553 -0.043475498 0.03455641 0.09987047 0.10009823
-0.13977036 0.11369203
00000000: e64b e5bd c395 a5bd ab45 d8bb d071 98bd
00000010: ee72 9f3d a20a ba3b 4997 f7bd 061a cf3d
00000020: 0625 993d 5bbe 84bd 18dd 793c 9c2b 8a3d
00000030: ac6f fd3c 66ce 053e 7c36 c83d 98bf b4bd
00000040: 6e89 7bbd ddfe e93c 0a5c 18be 384f a73d
00000050: f1c6 07be b44b 11be 780d 29be d1b8 e3bc
00000060: 8213 303b fa7c fe3c ca55 b73d 1d5d 0dbe
00000070: b880 073e 0285 f7bc 9ccc e33d f922 54bd
00000080: 6ca8 a03c eea1 98bd 147a 41bd cfd6 903d
00000090: 4f75 013c 26eb dc3d de11 613c 25fe ea3d
000000a0: 617a a03c 97f6 183e 70c9 f7bc 2652 6c3d
000000b0: 5d13 32bd 068b 0d3d e488 cc3d 4d00 cd3d
000000c0: f61f 0fbe 5ed7 e83d

weight f4 [29, 50]
0.018133143 -0.08430831 0.081464134 0.14168398 0.10244165 0.009938942 0.11348436 -0.06934639
0.03659601 -0.11611753 -0.0268708 -0.08114116 0.051523767 -0.10265822 -0.043864712 0.08369911
0.0010531044 0.013877352 -0.018368905 -0.090305984 -0.015481381 0.11292105 -0.122766994 0.107358746
0.036919363 -0.12333653 0.030568942 0.06742236 -0.020500561 -0.13974644 -0.020165915 -0.011539499
0.026153374 0.010740711 -0.14337626 0.0755046 0.059655376 -0.006042898 -0.10082052 0.022608072
-0.05472751 0.029497448 -0.12024109 0.076686606 0.08264226 -0.013390972 -0.11423525 0.12284061
0.04256651 0.015553955 -0.08621754 -0.022948904 -0.11961701 -0.056891985 0.056168534 -0.02710189
-0.109013624 0.061542008 0.042058125 0.050840233 0.086223975 -0.10223403 -0.12502623 -0.09788137
-0.06526733 0.06164781 -0.09764036 -0.015840288 -0.087472275 -0.08780596 0.05898391 0.04829988
-0.100781046 0.11398496 0.087681234 -0.119576104 0.014453714 0.014412631 0.11223044 -0.12903385
0.08748589 -0.08693978 -0.024742518 0.11634846 -0.028338768 -0.029327733 -0.13770872 0.029934235
-0.009082082 -0.038163073 -0.10448529 0.15630995 0.01730614 -0.090353 0.04210205 0.0033180392
0.11394686 0.103832245 0.12212901 -0.040762573 -0.07160033 -0.123114616 -0.052800365 -0.100024946
0.04803564 -0.14571667 0.027393568 -0.050061014 0.052801132 0.049803954 -0.123157315 0.14883527
-0.043448474 0.11764714 -0.006557365 -0.059892323 -0.11146911 0.0044984748 0.024419667 0.08342451
0.07410512 -0.047925208 -0.02192954 0.061884757 0.000517023 -0.062377155 0.117690384 0.07411586
0.070947126 0.1287974 0.01609308 -0.08620046 -0.052462295 0.10762747 -0.103924155 -0.027904944
-0.043580275 0.018077392 0.17141534 -0.060547788 0.08274719 0.019715082 0.02072215 -0.017338894
0.12971614 -0.051121805 0.03745873 0.089665346 0.08878318 0.014867637 -0.0668022 -0.10428456
-0.0937648 0.15566102 -0.044264324 0.017445428 0.120225295 0.05360966 0.14937918 -0.043027807
0.0839756 0.0432009 -0.12390498 0.063437976 -0.035481025 0.086737834 -0.036052816 -0.023742063
0.056690764 -0.05623885 -0.09697225 -0.04899967 -0.12963974 0.10023013 -0.014280547 -0.046498623
0.069508776 -0.036875118 -0.030293139 -0.014148866 0.059886068 0.041800488 0.06158693 0.019517666
-0.011554004 0.004497625 -0.0426183 -0.11512834 0.04871334 -0.02203343 0.12203303 -0.051301837
0.074802905 0.106700525 0.12836376 -0.065014996 -0.052039955 -0.074604936 -0.10070208 -0.06914886
-0.025647184 -0.07415484 -0.118287295 -0.12615615 -0.122755505 -0.057510085 -0.057360172 0.040777534
0.050988708 0.07565467 -0.21143138 0.12826875 0.08693628 0.005866071 -0.10318453 -0.041255906
0.14255483 -0.1450139 0.10110963 -0.030226437 -0.08981312 0.043018498 -0.10410007 -0.083915345
-0.15258665 -0.002891233 0.044990372 0.001672118 0.014354577 0.08489947 0.065426335 -0.14460365
-0.09484528 0.10368793 -0.06601473 0.034486875 -0.046297386 0.12631741 0.030696267 0.07600543
-0.061022222 0.085969485 -0.17053075 -0.033491146 -0.091235794 -0.1669457 -0.07887698 0.056731574
0.085062824 0.090789944 0.010184921 0.14726107 0.14626572 -0.032139946 -0.035311908 0.10261487
00000000: f58b 943c d6a9 acbd abd6 a63d 9b15 113e
00000010: eecc d13d f2d6 223c 7d6a e83d 7b05 8ebd
00000020: b3e5 153d 07cf edbd 2720 dcbc 562d a6bd
00000030: 960a 533d 793e d2bd 7cab 33bd 706a ab3d
00000040: 5208 8a3a d55d 633c 637a 96bc 58f2 b8bd
00000050: 9ea5 7dbc 2743 e73d 436d fbbd e7de db3d
00000060: c238 173d dd97 fcbd b86b fa3c bc14 8a3d
00000070: cbf0 a7bc b119 0fbe fd32 a5bc 2b10 3dbc
00000080: 9a3f d63c cff9 2f3c 3ad1 12be 28a2 9a3d
00000090: 3259 743d 8103 c6bb fd7a cebd 9034 b93c
000000a0: f429 60bd a2a4 f13c f640 f6bd de0d 9d3d
000000b0: 5840 a93d cf65 5bbc 2cf4 e9bd dc93 fb3d
000000c0: 395a 2e3d 04d6 7e3c d292 b0bd 57ff bbbc
000000d0: c3f9 f4bd 9207 69bd fa10 663d c804 debc
000000e0: 8942 dfbd 7913 7c3d 2445 2c3d d93d 503d
000000f0: 3296 b03d 1360 d1bd e006 00be 0776 c8bd
00000100: e1aa 85bd 6a82 7c3d abf7 c7bd 7ec3 81bc
00000110: aa24 b3bd 9cd3 b3bd 1d99 713d 18d6 453d
00000120: 4b66 cebd f270 e93d 3892 b33d 51e4 f4bd
00000130: 45cf 6c3c f522 6c3c 13d9 e53d 7321 04be
00000140: cd2b b33d 7c0d b2bd d2b0 cabc 1a48 ee3d
00000150: b426 e8bc b740 f0bc 8403 0dbe a438 f53c
00000160: 03cd 14bc e250 1cbd 62fc d5bd b70f 203e
00000170: 9bc5 8d3c fe0a b9bd 3373 2c3d 7673 593b
00000180: f95c e93d 00a6 d43d c61e fa3d a8f6 26bd
00000190: 32a3 92bd 8423 fcbd 3245 58bd e1d9 ccbd
000001a0: 05c1 443d c036 15be 7a68 e03c c70c 4dbd
000001b0: 0046 583d 3bff 4b3d e739 fcbd 4668 183e
000001c0: 07f7 31bd fcf0 f03d 2adf d6bb a751 75bd
000001d0: eb49 e4bd f167 933b c10b c83c 78da aa3d
000001e0: 6dc4 973d 394d 44bd 94a5 b3bc df7a 7d3d
000001f0: d488 073a 307f 7fbd a807 f13d 0eca 973d
00000200: ba4c 913d 77e3 033e a3d5 833c de89 b0bd
00000210: b4e2 56bd ca6b dc3d 30d6 d4bd e998 e4bc
00000220: 3b81 32bd 0a17 943c 8187 2f3e f500 78bd
00000230: 5c77 a93d 8681 a13c 80c1 a93c 4c0a 8ebc
00000240: 4fd4 043e 1965 51bd 536e 193d 77a2 b73d
00000250: f5d3 b53d 6497 733c 98cf 88bd 2593 d5bd
00000260: c207 c0bd 9a65 1f3e 824e 35bd b7e9 8e3c
00000270: ae38 f63d ce95 5b3d dbf6 183e ed3d 30bd
00000280: 66fb ab3d 6df3 303d e5c1 fdbd c5eb 813d
00000290: 8d54 11bd 9ba3 b13d 1eac 13bd b77e c2bc
000002a0: 9334 683d b55a 66bd 6399 c6bd e1b3 48bd
000002b0: 48c0 04be 7445 cd3d f5f8 69bc 5775 3ebd
000002c0: 9e5a 8e3d 5d0a 17bd 5129 f8bc a5d0 67bc
000002d0: 184b 753d fd36 2b3d 9442 7c3d 83e3 9f3c
000002e0: 014d 3dbc d060 933b 8790 2ebd 68c8 ebbd
000002f0: a487 473d 747f b4bc 74ec f93d e021 52bd
00000300: 4432 993d ce85 da3d ca71 033e 9526 85bd
00000310: d927 55bd 79ca 98bd e43c cebd eb9d 8dbd
00000320: 0b1a d2bc 7ede 97bd 9c40 f2bd 142f 01be
00000330: 3d67 fbbd b28f 6bbd 80f2 6abd 5806 273d
00000340: 89d9 503d d6f0 9a3d 7881 58be e258 033e
00000350: a60b b23d 2c38 c03b 6952 d3bd f4fb 28bd
00000360: e5f9 113e 867e 14be 9112 cf3d 6f9d f7bc
00000370: f1ef b7bd 2a34 303d 6b32 d5bd cfdb abbd
00000380: ad3f 1cbe d77a 3dbb d347 383d f82a db3a
00000390: 762f 6b3c c6df ad3d 3efe 853d fb12 14be
000003a0: 3e3e c2bd 565a d43d bb32 87bd 1c42 0d3d
000003b0: 54a2 3dbd 5a59 013e bd76 fb3c bca8 9b3d
000003c0: 70f2 79bd c510 b03d 9d9f 2ebe 032e 09bd
000003d0: d5d9 babd d0f3 2abe 418a a1bd 5e5f 683d
000003e0: 6b35 ae3d 14f0 b93d a8de 263c 9bcb 163e
000003f0: aec6 153e 2da5 03bd 38a3 10bd bf27 d23d

bias f4 [29]
-0.021546552 0.038529325 -0.1051333 -0.117111646 0.054644402 0.048740625 0.12708764 0.13567238
-0.090887606 0.027677627 -0.16276026 -0.0186283 -0.031638738 0.011874565 -0.060484607 0.14878151
0.02589534 -0.09733885 -0.110387795 -0.0019131524 -0.12072577 0.12847793 -0.06411952 0.09587111
-0.07173993 0.117132135 -0.014321651 0.0144219445 0.13077752
00000000: 6582 b0bc edd0 1d3d 2150 d7bd 3bd8 efbd
00000010: cfd2 5f3d 40a4 473d 4323 023e b3ed 0a3e
00000020: 4823 babd 31bc e23c a0aa 26be 609a 98bc
00000030: 9f97 01bd 898d 423c b5be 77bd 2e5a 183e
00000040: 7722 d43c 9759 c7bd ff12 e2bd bec2 faba
00000050: 133f f7bd b88f 033e 1851 83bd 1358 c43d
00000060: 62ec 92bd f9e2 ef3d 5ca5 6abc 054a 6c3c
00000070: 8bea 053e
